Models/lenet_mnist_lr_0.001_wd_0.0001_16_120.pth (torch, 250908 bytes, 10 tensors)

conv1.weight f4 [6, 1, 5, 5]
00000000: 8444 923d ef99 123d 5e2b 9ebe 7ee2 94be
00000010: 474c 26bc bf37 563e 5a91 8c3d 3037 31bf
00000020: 2473 99be 4433 ce3d 8ece de3c 970a db3e
00000030: 84b2 e63e 0922 853e 83ee 913e 8e7b 95be
00000040: f06d b13e 324a dd3e 4ec0 ea3c 7abd 80be
00000050: bedd 87be 0f73 85be 5843 18be f16e 9ebc
00000060: c446 07bb 83a1 823d 0e3e 18be 24cc cebe
00000070: 3198 d0bc 2f0a e83d 61e1 5b3e c0ba 043e
00000080: 4fdf c9be 2a71 0cbe d07f 353d dd87 263e
00000090: 94ad 593e 0c80 9ebe 19a4 0abe c2be fcbb
000000a0: f5aa 223e 9833 b63e 44c6 48be f0c7 01bd
000000b0: fb85 7abe 1bdb 5b3d b998 ed3e df6c 733e
000000c0: 8363 2f3e 625e 583b 6813 74bd 3451 47bb
000000d0: 7b1b 4a3e a381 ad3e 3b27 263e 5953 9d3e
000000e0: daa4 d43e 76dd 7d3e 7924 cf3e d846 ac3e
000000f0: 91ea 133e dff9 893e 1728 fb3d 10b1 e9bd
00000100: 24b5 8ebc 7007 87be dde0 97be 9d80 02be
00000110: 7101 4bbe bac8 10be efb9 cebe 394b a7be
00000120: 7340 d8be 642e 72be 9c30 42bd a679 3dbd
00000130: 0009 4e3c 8be4 143e 93dd 013e f457 62bd
00000140: 6258 abbd 4f54 a1be 81f6 a73d 3415 973d
00000150: fd29 0d3e 565a 01bf 6f03 5ebe 03f9 243e
00000160: dd40 f53e 9fd3 4f3d 2f7f c8be 128a 4a3c
00000170: 7e2c ba3e 7ef6 ae3e fdbe 1abe ca73 913b
00000180: 2e8c 543e 452e 733e 19d0 5b3d dadf 83be
00000190: fa58 31bd 8c0e 933e 0664 063f 4cf4 c63e
000001a0: 7e69 343e fdf3 17bf cf3a 30bf 7f51 10bf
000001b0: 45fb 41be 0b2c 09be 7529 aebe 1e61 eabe
000001c0: 29fd f9be 8290 09bf 2147 a8be 0d0c 7a3e
000001d0: df70 763d ef91 273d 2185 173e 1809 6abd
000001e0: cbf5 e83e 0d19 d13e a1a6 e03e 0ddc 253e
000001f0: 2995 3c3e cc8a 103e ff17 3abe f8b1 d1be
00000200: 9e22 f6be 8537 a0be 3b03 0cbe 3956 eebe
00000210: 49fa 00bf 30f1 9bbe eb13 773e 6197 bbbe
00000220: af81 edbe 5b46 85be b310 1bbc 9fe9 ea3e
00000230: d739 f8be 4bd3 94be d3fe 2b3d d100 5a3e
00000240: fc25 be3e aa6b 8dbe a8d1 ecbc df38 103d
00000250: 3792 813e c654 ba3e
0.071419746 0.035791334 -0.30892462 -0.2907905 -0.010150022 0.20919703 0.06863661 -0.69224834
-0.29970658 0.10068372 0.027198102 0.42781517 0.45058072 0.2600253 0.28502283 -0.29195827
0.34654188 0.4322067 0.028656151 -0.2514456 -0.26536363 -0.26064345 -0.1486944 -0.01934001
-0.0020641545 0.06378462 -0.14867422 -0.40390122 -0.025463196 0.11330067 0.21472694 0.12961864
-0.39428183 -0.13715044 0.044311345 0.16262765 0.21257621 -0.30957067 -0.13539161 -0.00771317
0.15885527 0.35586238 -0.19606882 -0.031684816 -0.24465172 0.053675752 0.4640558 0.23772
0.17127804 0.003301524 -0.05958882 -0.003041339 0.19737045 0.33887967 0.16225903 0.30727652
0.41532022 0.24791512 0.40457514 0.336478 0.14444949 0.2694845 0.12263506 -0.11410725
-0.017420359 -0.26372862 -0.29663745 -0.12744375 -0.19824769 -0.14139071 -0.4037623 -0.32674578
-0.4223667 -0.23650509 -0.04740964 -0.04625859 0.012575388 0.14540307 0.1268218 -0.05525966
-0.08366467 -0.31509635 0.08201314 0.07377091 0.13785549 -0.50528467 -0.21680997 0.16110615
0.4790105 0.050738927 -0.39159533 0.01236202 0.3636207 0.34172434 -0.15111919 0.004438852
0.207566 0.23748119 0.053665254 -0.25756723 -0.043297745 0.28722036 0.52496374 0.3885826
0.17618367 -0.5935667 -0.68839735 -0.56374353 -0.18943508 -0.13395707 -0.34016004 -0.4577722
-0.48825958 -0.53736126 -0.32866767 0.2441866 0.060166236 0.040910657 0.14796878 -0.05713758
0.45500025 0.40839425 0.43877128 0.16197224 0.18416275 0.14115447 -0.18173216 -0.40956092
-0.48073286 -0.31292358 -0.13673107 -0.46550158 -0.50381905 -0.3045745 0.24128692 -0.3663893
-0.46388003 -0.2603024 -0.009464431 0.45881364 -0.48481628 -0.29067454 0.041991066 0.21289374
0.37138355 -0.27621204 -0.028908566 0.035210487 0.25306866 0.36392802

conv1.bias f4 [6]
00000000: ca55 cebe 86b8 cfbe d5fe dbbc e317 87be
00000010: 296d e6bd 9b37 8fbe
-0.40299827 -0.40570468 -0.026854912 -0.26385412 -0.112512894 -0.2797211

conv2.weight f4 [16, 6, 5, 5]
00000000: 1886 1b3e bab3 e43c 2365 0f3d 0b58 653d
00000010: eda8 063e bf3b 47bd ba6f f2bb efae 97bc
00000020: b0c5 9bbd 92c8 e5bc fc8c 14be 648f cdbd
00000030: 7388 5fbd 0742 3a3e 2cfc b63d 041c b3bd
00000040: 89bd e1bd b028 81bd 0b20 37bd e2f9 edbd
00000050: 954f 21bd 4d42 07be 4682 fbbd 3f28 1c3e
00000060: d37d c33e 3fb6 46bc 1943 0abd 2a9b 0b3c
00000070: f0e1 6bbd 2751 9bbe 8ccd ffbc b461 c7bd
00000080: 6f12 d3bd 03a4 45be 35c4 fdbd 90da e8bd
00000090: 7272 04be fe90 35be 29a1 2ebe aeea 9ebe
000000a0: de4a 0abc bf0f 84bd 1299 a2bd 6417 c8bd
000000b0: 459e 1ebd a4d9 ec3d f638 813d 9694 4c3d
000000c0: 5af4 e83d 6d76 313e 11ec 233e dc79 043e
000000d0: b403 633e 5c40 473e cd89 4b3e 4106 753d
000000e0: 4a50 b73d 4907 fe3b 3cfe acbd 88be 8dbe
000000f0: 188d 83be c72f 19be 4880 0abe 4e8d cf3b
00000100: 1262 a23e b303 a2be 4f90 b4be 4db1 4dbe
00000110: 5c36 f83d 07ec a03d 2e03 50be e63b 3abe
00000120: 4993 acbd 2c8c 3cbe 969e 25be 46be e1bd
00000130: a0b7 2b3d 8898 c7bd 2864 82bc 0e91 8fbe
00000140: 2a2f 59be 5e4c ccbd 61f5 9bbe 99f7 3ebe
00000150: e5a1 5b3e 13d9 46be c5b1 43be 08c2 05bd
00000160: 821a 693e 3d1d 1d3e 4f39 16be 1a58 e1bd
00000170: e6ea 893b d316 dbbd c4b8 b0be 3d1a f3bd
00000180: b1f2 1dbe 4fae 5abe c2f1 77be 9a66 7a3d
00000190: 4d70 9ebd edab 3b3c 1211 923d 0801 2bbd
000001a0: c58f 90bc dd24 993d eeb3 1bbc 7683 113b
000001b0: 18bf 833e 3b51 a33e ccbe e23a 9c2e 2abd
000001c0: 0730 c3bc e8c3 aabd c582 8ebe c3d2 6abd
000001d0: 210b 29be 2149 6bbe 4712 cdbd d92f 2a3e
000001e0: f7f2 1dbe feff 3abe ffeb 29be b760 08be
000001f0: 6dc7 d7bc deeb 733c 4e89 f03b a87b 05be
00000200: 217d bebe 62e8 c6be 41e3 e2bd a31a 6cbe
00000210: 054a 71bd 1838 0d3e 2e36 723e 8649 eebd
00000220: 5739 433c 278d 643e e843 b23e 7194 f93d
00000230: 599e fdbc c00d 673d ae09 cf3d b23a 04be
00000240: 62c8 18be 2022 e1bd c819 90bd af91 68be
00000250: 704a 7dbe 1de1 68be 0ec5 1abe e154 70be
00000260: e270 20be e5e2 11be a2d3 723d 3acc 6ebd
00000270: 40b9 003e 2920 11bd 350f 21be 698c 74be
00000280: f2d3 a23c f847 eb3d 624a cebd ae69 79be
00000290: a4c1 58be fbf7 cc3d 9fce 21bc 5f4e 36be
000002a0: eecb 21be 3662 20be 542c 8cbd 3a4c 7fbd
000002b0: 627c 333d 6792 83bd c442 16be 3517 df3d
000002c0: a52b 133e cd70 39be 2755 68be 24ee d8b9
000002d0: ad10 bb3d 7394 ce3c 1a04 4ebe 3607 75be
000002e0: 1bdd 16be a344 3ebe 0f9a 60be 9153 7bbe
000002f0: bf34 59be 6468 ebbd 4057 bfbe b2de 7ebe
00000300: 1720 4abd 6e90 b9bc fd0c 77bd de96 8bbd
00000310: bb2a 48bd 3cb3 9dbd 294e fb3c 5aab e13d
00000320: 869f 67bd 0931 15be 6166 933c 73f1 c73d
00000330: 4198 83bc bcaa 0c3d df1a 013d 9903 22be
00000340: 5612 9cbd 560d a4bd f243 913e 5cdc 43bc
00000350: 1263 84be d5da 39be c410 3fbe 9164 223e
00000360: a66e 93be cf45 74be 3b95 30be ad10 b9bc
00000370: a7d1 5cbe baf7 91be 5d38 9dbe e2d4 24be
00000380: feef 6dbd 5bfe 823e 2e4a d7bd af4d d0bd
00000390: 16f8 c53d 49d6 763c 19e4 ab3e 4b6e 28be
000003a0: a009 c7bd 7149 1dbd 694e 693d d976 e13b
000003b0: ffed 8abe f0ec 32be 8d6f 2cbd 23d6 3f3e
000003c0: 8e5f a1be 382c a7be 68d6 543d 21eb 193e
000003d0: 389c bb3c f95e 1dbd 53cb 863e 705b 293e
000003e0: dd46 083c 2ffa 44be 63ea 05be fc96 cebd
000003f0: dfee 8bbd 4754 b9bd 0eca 68be 4a27 2ebe
0.15187871 0.027917732 0.03500856 0.055992167 0.13150378 -0.048640963 -0.0073985728 -0.018516032
-0.07606065 -0.028049741 -0.14506906 -0.10037115 -0.054573487 0.1818925 0.08934817 -0.08745578
-0.11022479 -0.06306589 -0.044708293 -0.11619927 -0.039382536 -0.13208885 -0.12280707 0.15249728
0.38181934 -0.012128412 -0.033755396 0.008520881 -0.057588518 -0.30335352 -0.031225942 -0.09735432
-0.1030625 -0.19300847 -0.12390939 -0.113698125 -0.12934282 -0.17731091 -0.17053665 -0.3103842
-0.008440701 -0.06448316 -0.07939352 -0.097700864 -0.038725156 0.11564949 0.063096926 0.04994639
0.11374731 0.17330332 0.16008021 0.1293711 0.22169381 0.19458145 0.19876786 0.059820417
0.08950861 0.0077523333 -0.08446929 -0.27684426 -0.25693583 -0.14959632 -0.13525498 0.0063339835
0.31715447 -0.31643447 -0.3526635 -0.20087166 0.12119743 0.07857519 -0.20313713 -0.18186912
-0.0842653 -0.18412846 -0.16173777 -0.1102262 0.041923165 -0.0974589 -0.015916899 -0.28040355
-0.21209398 -0.099755034 -0.30460647 -0.18649139 0.21448477 -0.19418745 -0.19110782 -0.032655746
0.22764018 0.15343185 -0.14670299 -0.11003132 0.0042089103 -0.10697713 -0.34515965 -0.11870239
-0.1542461 -0.21355556 -0.24213317 0.061133005 -0.077362634 0.0114545645 0.07132162 -0.04174903
-0.01764668 0.07477734 -0.009503348 0.00222036 0.2573173 0.3189791 0.0017299294 -0.041548356
-0.023826612 -0.083381474 -0.27834144 -0.057329904 -0.16508152 -0.22977115 -0.10013252 0.16619815
-0.15424715 -0.18261716 -0.16593932 -0.13318144 -0.02634021 0.014887778 0.0073405867 -0.13035452
-0.3720484 -0.3884917 -0.110785015 -0.23057036 -0.05890848 0.1379093 0.2365348 -0.11635117
0.011915526 0.2231947 0.34817433 0.12186516 -0.030959295 0.056409597 0.10109268 -0.12913015
-0.1492019 -0.10992837 -0.070361674 -0.22711824 -0.24735427 -0.22742124 -0.15114233 -0.23469879
-0.15668061 -0.1424671 0.05928386 -0.058300234 0.12570667 -0.03543106 -0.15728457 -0.23881687
0.019876454 0.11488336 -0.10072781 -0.2435672 -0.21167618 0.10008236 -0.009875922 -0.17803334
-0.15800449 -0.15662464 -0.068443924 -0.062328555 0.043819793 -0.064244084 -0.14673907 0.10893098
0.14372118 -0.18109436 -0.22688733 -0.0004137616 0.0913404 0.02521727 -0.20118752 -0.23928532
-0.14732783 -0.1858087 -0.21933769 -0.24543597 -0.21211527 -0.1149452 -0.37371254 -0.24889639
-0.04934701 -0.022651877 -0.06031512 -0.06815885 -0.048868876 -0.07700202 0.030676918 0.11019011
-0.056548618 -0.14569487 0.017993154 0.0976285 -0.016063811 0.034342512 0.031519767 -0.15821685
-0.07620685 -0.08010356 0.2837215 -0.011954393 -0.25856835 -0.18149884 -0.1865874 0.15858676
-0.28795356 -0.23854755 -0.17244427 -0.02259096 -0.21564351 -0.28509313 -0.30707064 -0.16096833
-0.058090203 0.25584683 -0.105121955 -0.10171067 0.09666459 0.015065738 0.33572462 -0.16448323
-0.09718633 -0.038400117 0.056959543 0.006880623 -0.27134702 -0.17473197 -0.04209857 0.1873403
-0.31518215 -0.32650924 0.051962286 0.15031101 0.02290164 -0.03842065 0.26327 0.16538787
0.008317676 -0.19236062 -0.13077693 -0.10087392 -0.068326704 -0.09049278 -0.22733328 -0.17007175

conv2.bias f4 [16]
00000000: 04a1 01be 4a78 8dbd a085 77bd 5ce7 5a3d
00000010: 5c30 6dbc c7fc 01bd 5ffb 0fbe ecfc 33be
00000020: cf41 dbbd 3a4a 37bd 2e41 6dbd 6842 bebd
00000030: 0d2c f1bc 5ed1 10bc 8daf 5fbd 23eb 46be
-0.12659079 -0.06907709 -0.06043017 0.053443298 -0.014476862 -0.031735208 -0.14060734 -0.17576951
-0.10705911 -0.044748522 -0.05792349 -0.0929001 -0.02943995 -0.0088389795 -0.054610778 -0.19425635

fc1.weight f4 [120, 400]
00000000: ede5 ecbd b317 10be 92de a6bd b5e6 153d
00000010: c322 59b1 68fd ab3b 411e debc 4050 023d
00000020: 6b24 9abc 4515 b0ba 006c 52bc 5e57 833d
00000030: 3810 803c b606 613d b519 e8bc cf78 76bd
00000040: ca7e cdba d9e6 6cbc 1070 4b3c 5c24 d03b
00000050: e6c9 16be 3f7a 5abd a33f ae3d 6df0 4e3e
00000060: a6ab b23d 4acd b63d 9f20 8e3c 4d98 b43d
00000070: 2428 343d de4b 4a3d 6492 4dbd 786c 5cbd
00000080: 0975 00bd ec24 183e 96cf bd3d a680 15be
00000090: 4fca 11bd 7cb6 bb3c a8f7 57bd 3057 ecbd
000000a0: c405 01bd 646e d3bc 3e85 ea3c 08f3 d5bc
000000b0: 27ca a83d 6e93 1a3b a7e8 8cbc f0cb 31bd
000000c0: 974c 9ebd 735a babd 0861 021c 381b f7bb
000000d0: 690e 1a3c a0ce acba 6716 28ba cf3b 833c
000000e0: f5ed 7abc 6be3 75bc 8526 013d 1f2d 4ebd
000000f0: 0da9 bcbc c815 5e3d fada e1bc 00f6 39be
00000100: c374 35be ec1b f23c 3387 653b 966e b8bd
00000110: a0b4 d3bd d7d6 05be 0d54 fab8 3f71 07bc
00000120: 210d 26bd ef9d 383c 4892 0bbd d756 59bd
00000130: 0d7d 943c ceeb abbd d8d6 50bd 70b8 163c
00000140: 7e5c 2e3d bf5a 86bd a4df 87ba b1e2 54be
00000150: 79d0 673c 43db 8c3c 7d66 b5bd f4dd b8bd
00000160: 5e2d 3dbe 0101 0d3c 65a5 f33c a6f9 b63b
00000170: 5697 fbbc 95e4 98bd d10c 1ebe f13f 29bd
00000180: b4a1 6fbd 7381 1abe edfe f4bd 818a 52bd
00000190: e819 9c3c e185 e4ba d7f0 80bd d126 833d
000001a0: 7051 4cbe 4cb1 cf3a f39a 303c 6285 e6bb
000001b0: 2295 7f39 bbda 003d 7fa6 03bd 67bb b23c
000001c0: 7e2f 423d ed24 2bbd 9506 0e3d 6dfa 0b3d
000001d0: 5bd1 27bc c2f8 4dbd 420e 41bd e823 bdbd
000001e0: d463 bcbc 8ed9 993b 18bc d13c a33d 75bd
000001f0: a5c4 24bd 6904 893c 1791 853d 2b7c ed3d
00000200: 02c0 a1bd 4d55 98bb dd66 fe3b bb5a aebd
00000210: 9ba1 cabd 6893 3cbe 1ff4 d0bd a309 883d
00000220: d4d4 b3bd 37ad b6bc bdd3 afbc 0f33 e0bc
00000230: 0a2a 8fbb 95ed 0cbd ff81 c0bc 409e 27bd
00000240: cfc0 ebbc adca 9abc 14fc 80bc 9f67 78b9
00000250: 2332 59bd bee0 9ebd 7c04 34bd df93 41bd
00000260: 8c7c b9bb c9fc 30bc 706a babd 36d3 19bd
00000270: eb9a 8e3d 4832 19bd 0a3f ba3c ca6c b9bd
00000280: 7c3e 20bd 9ff5 6d3d 560f aebd 138c debc
00000290: bb68 7cbd e7d4 4fbd 40c1 32bb df66 37bd
000002a0: 9a83 fbbc 6ec4 af3c ffc7 92bc 4f27 963b
000002b0: 604f 32bd 1b1b d7bb 1df4 6cbd 760d 863d
000002c0: 8765 cdbc 2ca8 5dbd 7189 013d 1c33 ac3d
000002d0: 7b21 05bd 1064 a2bc a4b3 25bc 97c2 433d
000002e0: 33b6 c73d 8551 f9bd 0289 bebd c3c4 233a
000002f0: 577d 9d3c ec53 07ba 28a9 86bc 6a0f 2f3d
00000300: 6543 f039 d4b8 8339 5b26 6627 063e 00bd
00000310: 0571 b7bc 0f21 a7bd 0422 6ebd d005 ffbc
00000320: 55ea dcbb d155 35bd dabb 3fbe 8056 08be
00000330: 617d 39bd 6a9d dc3d 7b71 203d 7f0b a73a
00000340: 2cc0 cd3c 1e61 9d3d adb1 48bd f884 7bbd
00000350: 1110 b4bd 9bef f03d eb1a 703d a49c a5bd
00000360: a882 a8bd 7e1b f1bc 30bf 91bd 8678 d5bd
00000370: ff84 11bc 897d 423c 8980 58bd 0d89 40bd
00000380: 68b1 693a ce51 d2bc fa71 9d3c 179b 223d
00000390: 5b86 31bd dcbb 433c 2053 74bd ad0c 3dbd
000003a0: b2e5 17bd 231d d2bd dd92 71bb 6daf 05bc
000003b0: ef60 963d af70 34bd fdd0 3c3a 1c5b ad3c
000003c0: c61e 743c 0ff6 083e 8120 a8ba 3409 70bd
000003d0: a46e f63d f1a0 133d 953e 313d e7da e5bd
000003e0: 5389 a2bd fc6f efbd 9c75 7aba 85ad 02bd
000003f0: d4bc 23bd 5d8f 23bd 68d7 9dbc 33d6 edbc
-0.11567292 -0.1407154 -0.08147921 0.036596972 -3.1597416e-09 0.0052487142 -0.027114036 0.031814814
-0.018816194 -0.0013434073 -0.012843132 0.06413148 0.015632734 0.05493804 -0.02833257 -0.060173806
-0.0015678045 -0.014459335 0.0124168545 0.0063519906 -0.14725456 -0.05333924 0.085082315 0.20208903
0.087241456 0.089258745 0.01734954 0.088181116 0.043983594 0.04938876 -0.050188437 -0.05381438
-0.031361613 0.14857835 0.092681095 -0.14599857 -0.035593327 0.022914164 -0.052726418 -0.11540067
-0.03149964 -0.025809474 0.028627988 -0.026116863 0.082416825 0.002358641 -0.017200781 -0.04340738
-0.07729452 -0.09099283 4.31388e-22 -0.0075410865 0.00940285 -0.0013184138 -0.00064120296 0.01601973
-0.015315522 -0.015007834 0.031530876 -0.050336 -0.023029828 0.05421999 -0.027570236 -0.18160248
-0.17720322 0.02955433 0.0035023212 -0.090054676 -0.10337186 -0.13070236 -0.000119365846 -0.008266746
-0.040539864 0.011268123 -0.03407505 -0.053061333 0.018126035 -0.083945855 -0.05098614 0.009199247
0.042568676 -0.06560277 -0.0010366333 -0.20789601 0.014148825 0.017194396 -0.08857439 -0.09026709
-0.18474337 0.008606196 0.029741952 0.0055839596 -0.030711811 -0.074654736 -0.15434577 -0.041320745
-0.05850382 -0.15088443 -0.11962686 -0.05140162 0.019055322 -0.0017434919 -0.062959366 0.06403888
-0.19952941 0.0015845685 0.01077913 -0.0070349434 0.00024374251 0.031458598 -0.032141205 0.021817876
0.047408573 -0.041783262 0.034674246 0.03417437 -0.010242785 -0.050286062 -0.047132738 -0.09235364
-0.02299682 0.004695124 0.025602385 -0.059873234 -0.040226597 0.016725736 0.06521814 0.11595949
-0.07897951 -0.0046488405 0.007763727 -0.08513399 -0.09894105 -0.18415606 -0.102028124 0.06642463
-0.08780828 -0.022299392 -0.02146327 -0.027368097 -0.004369025 -0.034406263 -0.023499487 -0.040922403
-0.028778462 -0.018895471 -0.0157452 -0.00023689725 -0.05302633 -0.0775771 -0.04394959 -0.04726016
-0.005660599 -0.010802456 -0.091023326 -0.037554942 0.06963142 -0.037401468 0.022735137 -0.09053953
-0.03912209 0.05809557 -0.08499019 -0.027166402 -0.061623316 -0.05074015 -0.002727583 -0.04477584
-0.030702401 0.02145597 -0.017917631 0.0045823227 -0.04353273 -0.0065645105 -0.057849992 0.06545536
-0.025072826 -0.05411546 0.031625215 0.08408186 -0.032502633 -0.019823104 -0.01011363 0.047792997
0.097515486 -0.12173752 -0.09303476 0.00062472763 0.019224806 -0.00051623466 -0.016438082 0.04273931
0.0004582658 0.00025123975 3.1939704e-15 -0.03130915 -0.02239276 -0.08160602 -0.05813791 -0.031130701
-0.0067418017 -0.044271294 -0.18724003 -0.13314247 -0.045285586 0.10772212 0.039170723 0.0012744515
0.025116049 0.07684539 -0.04899757 -0.061406106 -0.08792127 0.11764451 0.05861942 -0.080865175
-0.08228046 -0.029432055 -0.07116544 -0.10423379 -0.008881806 0.01187075 -0.052856956 -0.0470057
0.000891468 -0.025673773 0.019219387 0.039698686 -0.043341022 0.011946645 -0.059649587 -0.046154667
-0.03708429 -0.10259464 -0.003686122 -0.008159501 0.07342707 -0.044052776 0.00072027725 0.021161608
0.014899915 0.13375114 -0.001282707 -0.058602527 0.12032822 0.036042158 0.043272574 -0.11223393
-0.07936349 -0.11691281 -0.00095542683 -0.031903762 -0.039975002 -0.039931644 -0.019267753 -0.029032802

fc1.bias f4 [120]
00000000: b9a7 28bd 18ff 7ebc 3219 a2bb 44b9 bcb7
00000010: d3b9 aebc 56a1 ca92 c9c8 a1bc 256c c783
00000020: de92 44bd 4025 4aa5 c192 11bd 8cf5 68bc
00000030: 2941 2bbb 4958 63bc 33e0 1cb4 ce01 a5bc
00000040: 10f8 32bd 3a94 eab9 19e2 81af c06d be30
00000050: 72b0 0880 1923 43bb a0e6 f9bc 6590 2480
00000060: 955f ebbc 649a f3bc 0f63 5fb6 5764 0f80
00000070: 768d 99bc e532 dfb0 82ab 0fbd 1f5d 16a8
00000080: 7ef8 3980 0b72 93bc b21b f23c 3af5 433c
00000090: 295c 7cbc 69db 1f0a ab86 4000 d507 93bc
000000a0: bdea 2ab9 aa0c 0fba 82b4 ccbc 996d 1cb3
000000b0: 7453 28b6 7893 fdbb 74df 44bd 72da 273c
000000c0: a9ed d4bc cbf9 ce3b fc1d 0abd 19bd 6897
000000d0: 1215 453c c100 e1b2 c114 2cbd 79b9 4600
000000e0: b213 00bc 16b7 8932 d254 7dbd 0f7f 4daf
000000f0: 577e 8bb8 5af4 2abd 2350 edbc 4ff8 ed27
00000100: 3278 053d 1cb5 82bc c7c3 1cbc af71 8014
00000110: 45a7 0280 7d48 5599 4f01 1bbc f68a 0d00
00000120: 3779 66a4 9418 fc3c a8eb 0180 add1 8eb5
00000130: 4af7 bcbc 3899 c2bc b50d 5ebd 4a96 9bbc
00000140: 89f6 c8bc 7406 1f3c 5cbf f810 d20e 0dbc
00000150: b27e abb6 2006 c21f 4969 1dba 4f53 8bbc
00000160: 4e6c 85bd 6c68 2fbc 588e cfbc 6720 c6bc
00000170: a3d9 24bd 4bbd 1200 b4d6 b63c a546 b43b
00000180: 0e8a 6ba2 fcfa e73a b10c 69b9 4d05 8bbc
00000190: 483d 47ba 506a 0126 94a3 6bb9 86c5 e710
000001a0: 294c 9ba1 d7ae 3ebb d5dc 1980 38db 3ebc
000001b0: 8b38 05bb 9299 b300 3e52 ce25 fe28 e2b9
000001c0: edca 41b7 be11 80b0 5e08 a3b9 60cc bcbc
000001d0: 721b 2780 32c7 87ad a1a3 d5b9 64bb 8cbb
-0.041175578 -0.015563749 -0.004946851 -2.2497617e-05 -0.021328842 -1.2787765e-27 -0.019749062 -1.1720998e-36
-0.047991626 -1.7533328e-16 -0.035540346 -0.014218699 -0.0026131368 -0.013876029 -1.4610195e-07 -0.020142462
-0.043693602 -0.00044742395 -2.3625615e-10 1.3855512e-09 -7.9798e-40 -0.0029775559 -0.030505478 -3.357877e-39
-0.0287321 -0.029736705 -3.328725e-06 -1.413528e-39 -0.018744212 -1.6239851e-09 -0.035075672 -8.346865e-15
-5.323765e-39 -0.017998716 0.029554222 0.011960322 -0.015402832 7.696838e-33 5.925782e-39 -0.01794807
-0.0001629991 -0.0005456904 -0.024988417 -3.642126e-08 -2.5082527e-06 -0.007738527 -0.048064664 0.0102449525
-0.025992231 0.0063163987 -0.03372 -7.520192e-25 0.012028949 -2.619379e-08 -0.04201198 6.49502e-39
-0.007817196 1.6032157e-08 -0.06184847 -1.8689782e-10 -6.651569e-05 -0.041736938 -0.028968876 6.604993e-15
0.03258533 -0.0159555 -0.009568161 1.2969537e-26 -2.43676e-40 -1.1026481e-23 -0.009460761 1.243711e-39
-4.9975973e-17 0.030773439 -1.76373e-40 -1.0640848e-06 -0.023067135 -0.023754701 -0.05421229 -0.018992562
-0.02453162 0.009706128 9.811359e-29 -0.0086094905 -5.1109464e-06 8.217233e-20 -0.00060047634 -0.017007498
-0.06514798 -0.010706048 -0.02533643 -0.024185373 -0.040246617 1.720944e-39 0.022319175 0.0055015855
-3.1921524e-18 0.00176987 -0.0002222534 -0.016970301 -0.0007600379 4.4899946e-16 -0.00022472284 9.141777e-29
-1.0523368e-18 -0.0029095912 -2.375107e-39 -0.0116489455 -0.0020327892 1.6493644e-38 3.5791033e-16 -0.0004313662
-1.1550944e-05 -9.318268e-10 -0.00031096017 -0.023046672 -3.59143e-39 -1.5436184e-11 -0.0004074844 -0.0042947996

fc2.weight f4 [84, 120]
00000000: e82c 093e 53ea b13b d528 86bc 1ae2 3eb6
00000010: f706 c7bc 5cb8 f593 fa3f b8bd f286 9c87
00000020: 96a3 1b3e b147 b8bb 61cc 873c a5e7 46be
00000030: 90b3 273d d666 bb3d cef5 fdba 3117 d5bd
00000040: 8789 59bd e407 55bb 3374 d035 bd9b f7b8
00000050: d6fa 742c 51c0 323a a999 a23c 3f57 0200
00000060: 80dd 0f3d 57b0 c43a 0d0b 1937 f3e9 3f00
00000070: 4026 483c 6e78 3a2c 4605 feba 48b5 0eb9
00000080: a84a 3b00 3490 313b 3d3d c1bd 6adf bcbc
00000090: d995 8c3c c00c a109 eaed 009a 40ba e23d
000000a0: ec54 1d3c caa0 c7bb 8103 a63b fef0 4d38
000000b0: 643c 4b39 20a7 8c3b d977 843c 98ca 4d3d
000000c0: 57cb 15bd e662 ce3b 322c 173c aa1f 8338
000000d0: 6694 00be 9789 2a3a 5f0a 0cbe a163 c522
000000e0: e3a4 e9bc 027f 1133 c454 0b3e ad3f 1eb8
000000f0: 7a89 27bc c1cb 48bc fa2a 503e 2160 0a26
00000100: 58d9 803b 5c35 023d 2378 5c3c 9d93 be34
00000110: a918 8627 51a9 b6b0 980a 593d e4e9 7530
00000120: 55ad 3aaf 678e 6abd 7e99 4300 c39b d336
00000130: 6546 9b3c 584d 12bd 5671 883e 7270 fabb
00000140: cdb0 02bd 65e4 a6bd af67 8e8e ec0d 9b3d
00000150: 1a4f 9abb b6dc 8e37 6cfa 8439 f7bd 463d
00000160: fe30 d33e 6171 05bd 2555 a8bb 2558 c53b
00000170: 6a38 5ebe d0bd 5f87 bb21 263d fd48 84be
00000180: 3ab2 57ba 1ad4 61bd eebe f43a f203 673c
00000190: c041 053e 5443 ea32 a2c5 5539 3d20 0697
000001a0: 616b 1f1e 9e11 cf3b a8f4 0580 e618 673c
000001b0: cf5b a2bc fcb8 0004 8805 6525 c8bf 263c
000001c0: 8b7d 9d38 5708 35b5 8a60 653c 2b68 103e
000001d0: 826a 3a32 24c4 9537 c8f4 cebc fa0a 47bd
000001e0: dea4 26be fdb3 433b 4d53 17ae 68dc 0931
000001f0: 1c14 b73c 9e93 6728 ed7f 25bd 176a 0e80
00000200: 8237 59bd c96d 1eb9 7a09 493c 426c 243c
00000210: e339 17bd 074d 89ba 2f6c b039 e874 333e
00000220: f95f 0a3e 2771 a1bc 2abc b9b5 9ef2 10ae
00000230: 813e 6daf 6896 1abc 0fd7 a3bc fe7e 0500
00000240: 3ce7 e4bb 563d 26bd e16a 4ab9 1752 1f00
00000250: fd1b 9c3d f3ae 19b0 2b8f 583c dfba 0336
00000260: 7441 1100 c225 f6bb 7966 b93d 7b4e 683c
00000270: 66d4 f1ba 58a4 3e07 ef76 a816 1030 abbd
00000280: be1c e23a 6e6c 6e3c 8e86 02bd f31e 4bb8
00000290: 01fa c1b7 39b0 b3bb 0743 76bd f945 28bc
000002a0: 9e26 c9bc 1cb3 093d ce6d df3d 72cb dab7
000002b0: 7ed9 f73d cc41 63b4 bd50 f43d 7f3a 592e
000002c0: 3c17 f7bb a657 ad2f 934b 72bd dfea 6d32
000002d0: b213 1d3c b808 f13d 32e1 31bd e646 8028
000002e0: 2e9d d4bd cef7 27bd 57c0 8f3b b4c7 612c
000002f0: 8278 eaa6 e96a d12e ab31 16be c3d0 c5ac
00000300: ef96 06b6 5f0f bebd bfa7 1900 6b64 98b8
00000310: 1973 1bbb 4dff e93c 768c 56bb f481 a1bd
00000320: 6180 e2bc 8a34 ddbd 6f23 a510 bf59 67bd
00000330: c472 16bc d84c 05b4 759d 383b 01ce 563d
00000340: a496 1abe 76b9 3b3d 0712 713c b400 a93d
00000350: a03c 453c ae49 2900 cd81 9dbc 3535 a93e
00000360: 5b16 cb1a 2155 96bc d6df 9e3a ba0a 383c
00000370: a627 ffbc 0f8a 92b0 d35d fd3a 5e6e 19a4
00000380: 6171 eb1e 32d3 f53c 66b2 1800 afe4 c2ba
00000390: 99db 323c 16f5 0c80 b801 fb22 4c95 0fbd
000003a0: e6a9 b538 227f ddaf 229f beba a970 14bc
000003b0: 33d6 0633 df22 7139 530d 18bc dafb 243d
000003c0: 7c9d 0f00 a418 2b00 58bc 6780 09a6 1d00
000003d0: be4f 0582 cc4f 1980 b754 3080 5e84 2f80
000003e0: 0af2 8412 4cef 1c00 a733 0c80 a9bc 4280
000003f0: 1b78 0800 f65a 30b9 2cd3 2680 5b78 4400
0.13396037 0.005429545 -0.016376892 -2.8443815e-06 -0.024295313 -6.2028487e-27 -0.089965776 -2.3551585e-34
0.15199122 -0.0056237807 0.016576948 -0.19424303 0.04094273 0.09150474 -0.0019375624 -0.10404814
-0.053109672 -0.0032505924 1.5531026e-06 -0.00011806886 3.4813727e-12 0.00068188185 0.019848661 2.14969e-40
0.03512335 0.0015006167 9.122084e-06 5.869561e-39 0.012216151 2.6499042e-12 -0.0019380234 -0.00013609708
5.445076e-39 0.0027094008 -0.094355084 -0.02305575 0.017161297 3.877133e-33 -2.6661965e-23 0.110706806
0.0096027665 -0.0060921656 0.0050663357 4.910025e-05 0.00019382086 0.004292384 0.016170429 0.050242037
-0.036570873 0.0062984107 0.009226846 6.252465e-05 -0.1255661 0.0006505488 -0.13675831 5.3502443e-18
-0.028521007 3.3875956e-08 0.13606554 -3.772944e-05 -0.010225648 -0.01225561 0.20328894 4.8008647e-16
0.0039321594 0.03178917 0.013456377 3.549766e-07 3.721921e-15 -1.3290365e-09 0.05298862 8.946286e-10
-1.6978181e-10 -0.05726471 6.208041e-39 6.306423e-06 0.018954465 -0.035718292 0.26648968 -0.007642799
-0.03190689 -0.081490315 -3.5105546e-30 0.07571015 -0.0047091367 1.7030496e-05 0.0002536358 0.04852101
0.41248316 -0.03257883 -0.005137103 0.0060224705 -0.21701208 -1.6832436e-34 0.04055951 -0.25836936
-0.0008228157 -0.055133916 0.0018672624 0.014100062 0.13013363 2.7271803e-08 0.00020386887 -4.3338426e-25
8.439595e-21 0.006319239 -5.46944e-40 0.014105057 -0.019819168 1.5131268e-36 1.9864458e-16 0.01017756
7.5097276e-05 -6.743989e-07 0.0140000675 0.14102237 1.0850842e-08 1.785352e-05 -0.025263205 -0.048594452
-0.1627383 0.002986192 -3.440741e-11 2.006141e-09 0.022348456 1.2855085e-14 -0.040405203 -1.323755e-39
-0.053031452 -0.00015108952 0.012270326 0.010035576 -0.03692044 -0.0010475226 0.0003364994 0.17525065
0.13513173 -0.019707276 -1.3838337e-06 -3.2957297e-11 -2.157723e-10 -0.009435274 -0.020000009 5.04734e-40
-0.006985573 -0.04058584 -0.00019304037 2.876349e-39 0.07622526 -5.5909694e-10 0.013217728 1.9629294e-06
1.584684e-39 -0.0075118253 0.09052748 0.014178867 -0.001845014 1.4342308e-34 2.7216921e-25 -0.083587766
0.0017250997 0.014552219 -0.031866603 -4.8427795e-05 -2.312381e-05 -0.005483654 -0.060122516 -0.010270589
-0.024554547 0.033618078 0.109096155 -2.6082362e-05 0.1210203 -2.1164959e-07 0.11929462 4.9392043e-11
-0.0075406116 3.1530795e-10 -0.059154104 1.3848619e-08 0.009587215 0.11769241 -0.043427654 1.4241602e-14
-0.10381542 -0.04100781 0.0043869424 3.208528e-12 -1.6269675e-15 9.523211e-11 -0.14667384 -5.622254e-12
-2.005541e-06 -0.092802756 2.356063e-39 -7.266629e-05 -0.0023719727 0.02856412 -0.003273753 -0.07886115
-0.027649106 -0.10801037 6.513562e-29 -0.056482073 -0.009182636 -1.2414546e-07 0.0028170024 0.052442554
-0.15096527 0.045831166 0.014713771 0.08252087 0.01203838 3.791687e-39 -0.019226933 0.33048406
8.399495e-23 -0.01835114 0.0012121152 0.011233026 -0.031146836 -1.0662137e-09 0.001933033 -3.327007e-17
2.4928485e-20 0.030007932 2.268049e-39 -0.0014869178 0.010916614 -1.189946e-39 6.8035506e-18 -0.03505449
8.6623986e-05 -4.029e-10 -0.0014543275 -0.009060063 3.139412e-08 0.00022996542 -0.0092805205 0.040279247
1.434027e-39 3.957766e-39 -9.526621e-39 2.722792e-39 -9.794182e-38 -2.324513e-39 -4.438494e-39 -4.363753e-39
8.390038e-28 2.657237e-39 -1.120555e-39 -6.128821e-39 7.7777e-40 -0.00016818554 -3.565503e-39 6.287989e-39

fc2.bias f4 [84]
00000000: 4cf8 e53a 5b37 2bbc 9dfd 1faf 68f5 49bb
00000010: 89ce 9c3d 5a32 56bc 14a5 7eba 3a78 67bc
00000020: 4a09 6aba 1c7f f2bc a048 dcbc fbe2 e0bc
00000030: 919b f8b8 8b21 1a3c ace3 1ebb 0072 1a3c
00000040: 782a 0a3d fb85 cbb2 ba21 18ae 72a3 06a9
00000050: c0aa 3dbd bcc4 2dbd a769 87bb d083 72bc
00000060: b841 933c 7ed3 8ebb c5b5 b9bc 8bb6 a13d
00000070: 6353 bab2 ffab 57bc f995 0ab2 6729 ffbc
00000080: 21d6 cbba 528d 9e3b 3173 3b3d 325b 12bc
00000090: 8cfd 0cbd a4c3 9ebc 91f8 34b8 b906 e8bc
000000a0: f2f4 5e3c c66b c73c 87c8 263c 091e 53bd
000000b0: fe2c b6ba ea08 ce3b 82dd 0e9d 2323 4dbd
000000c0: c93b c2b9 0821 ba3c fc78 ab3c 76c4 ecbb
000000d0: bba6 a73c 4f6f c3bc 6ab5 f1bb 2401 353d
000000e0: c231 07bc d65c 6ab7 2841 59bc 70b7 403c
000000f0: d08e 813c 9e31 a1b9 3f48 bbbc b3a7 96bc
00000100: a3b6 7fba 39c2 293d d268 33bc a7f0 47b3
00000110: ee69 85bb bd20 29bd f34e 94bc bdac ebbc
00000120: 873a 633d baa3 99b9 f994 e6bc dd26 b43b
00000130: fbaa 8aba 6ed9 f83c 7a23 3f3d 3ee4 09bc
00000140: 9960 81bc a64b f6bc f46d f3bc 8501 fcbc
0.0017545312 -0.0104502095 -1.4551067e-10 -0.003081644 0.07656581 -0.013073528 -0.00097139296 -0.014127785
-0.0008927776 -0.029601626 -0.026890099 -0.027451983 -0.00011854538 0.009407411 -0.002424459 0.009426594
0.033731908 -2.3693238e-08 -3.4590754e-11 -2.9895743e-14 -0.046305418 -0.04242395 -0.004132468 -0.014801934
0.017975673 -0.004358708 -0.022669682 0.078961454 -2.169117e-08 -0.013163566 -8.066757e-09 -0.031147672
-0.0015551486 0.004838624 0.045764152 -0.0089328755 -0.03442149 -0.019380398 -4.314684e-05 -0.028323518
0.013608204 0.024343383 0.010179645 -0.051542316 -0.0013898907 0.0062876837 -1.890806e-21 -0.050082337
-0.00037047107 0.022720829 0.020931713 -0.0072255684 0.020465245 -0.023856787 -0.0073763626 0.04419054
-0.008251609 -1.3969102e-05 -0.013260163 0.011762485 0.015815169 -0.0003074528 -0.022861598 -0.018390512
-0.0009754693 0.04144499 -0.010950284 -4.655217e-08 -0.0040714657 -0.041290987 -0.018104052 -0.028768891
0.055475738 -0.0002930442 -0.028147208 0.005497797 -0.0010579521 0.030377116 0.046664692 -0.008416234
-0.015793132 -0.030065369 -0.029715516 -0.030762443

fc3.weight f4 [10, 84]
00000000: c987 7bbe 95c8 56be 32c7 ecb5 e936 30ba
00000010: 26c6 8f3e 14be 9e3c 905d e6b9 e666 42ba
00000020: b291 8f3c 2963 f4bd e443 b53d 57fa fdbc
00000030: a0bd 223c 4200 1e3d 793e 843e 36cc 8aba
00000040: c556 893e 089c 0e39 8629 c436 f199 eb37
00000050: 7153 4a3d 804f a7bc 02b4 61bd c64b e73d
00000060: b483 16bd 7cbe 5fbc c864 0c3d cfc9 47be
00000070: b9d4 ba2d 8367 1ebd db2d ffba e138 0cbe
00000080: 78b8 ccbd dceb 1fbe 3cdf 9bbd 43bf 043b
00000090: 8ac9 833b ffb8 f83b 94fa ba39 dd7e 25bd
000000a0: 9de9 18be acfe 1cbe e3de 1cbe c6cd a43e
000000b0: 32e8 833c e6a2 c839 bb74 62ab 3709 98bd
000000c0: a1d8 003c 1398 b8be b823 a0bd a7ba 223e
000000d0: 98ac a03c 2d5e fd3c 5cc8 a2bc 0567 71be
000000e0: 78e4 e9bb 3476 40bb b9bf 80bd 02f2 2dbe
000000f0: 5079 7e3e e67b 843e 6f69 4c3c ef3d d6bb
00000100: d6d5 ddb8 88b5 8f3e a3be 1e3c 10a5 f635
00000110: ca1b 3239 4817 5dbe c5c1 e63b 89a1 3abd
00000120: 9c4b bdbd b58e 8938 ca6a 76be 1320 d1bd
00000130: 0c95 14bd 5a5b d1bd 49e6 e4bd 06c9 5dbc
00000140: d593 0ebe 72a3 1d3d 7b0f ce3a c1bd 4ebe
00000150: c508 613d a9aa 31bd f084 033b 3cc5 5b3c
00000160: 8e52 8dbd 816c e5bb bc2e 54ba 7aee b73c
00000170: 7a31 1fbb ab39 ab3e 8242 4fbd 3c71 9d3e
00000180: 01a7 efb8 5ca0 72be 5f0c f2bd a304 83bc
00000190: 66c0 60be b473 2b2f 64f5 4339 70b2 2d22
000001a0: ff5d 1c3c 57c9 ba3c 4809 09bd ff68 35bd
000001b0: 693d 00bd b32f c6bc 8d9f 34bd ce77 b73d
000001c0: d30f 5632 99e5 333e 8b85 0c3c 5862 263b
000001d0: 8d21 80bd 7286 083e 1d7d f1bd 87f2 87be
000001e0: b328 603c 306d 113d 2de7 88b8 a070 753c
000001f0: f8ca 7e3d 8009 a0bd 9e9e 53be 17df 45be
00000200: d70f a6bc 237c 4c3b c8b5 b7a9 fec5 3ebe
00000210: 4d4f a5bc aa18 6b3e 4ec9 9fbd 9fa2 20be
00000220: d14e 2cbc 2603 ec3d 1131 bf3d ca8d 11bd
00000230: 8448 513d 0782 16b4 6296 6ebd 5636 4d3b
00000240: ba23 e83e 3fb3 313e 4aee 1bbd ee38 b5bc
00000250: 0205 bb39 de7d 713d ca8c c1bb 8da1 553b
00000260: 5ce1 4fbb b850 f2bd 7826 733d 50bf 33bc
00000270: eaf9 8e3e fe3a de3a e6c9 133e 3763 e0bd
00000280: 0745 80bb 2103 9ebd f3ac 2ebd 39f5 093c
00000290: 7ad2 6a3e 5f88 92bc bfe5 1fbb 571d 07bd
000002a0: 7651 6fbe e416 00be bbd0 4b31 08d8 3f39
000002b0: 44f5 3abe 84b4 77bb 6fa7 123b 3d1f bb3c
000002c0: 6c37 893b bed5 0dbe a8e3 93bd bc6d eebb
000002d0: 1334 063c 2cb7 a73e b45a 503e 4482 a13d
000002e0: 1dbb ae3d 73df 4530 6414 f4b9 1e45 17a2
000002f0: 7b09 b8ba 39aa fbbd e201 393d b850 733d
00000300: f186 2f3c 740f b7ba 201c 193c cf73 083e
00000310: 603f 60b6 43d3 98be 8eca 6bbb ee9a 983e
00000320: 75f1 3ebe de7f 043e 0202 36be e197 c8bd
00000330: ddd8 0cbd 3690 07bb afe7 c13a a4e3 563b
00000340: f44b 02be c6d6 6b3e 9138 b63d 201e 6abe
00000350: 2abf 193c 4311 43bc ba9a 6435 e8be 8a3d
00000360: fa4e 303b 326d 81be 4c8c 8fbd 6a9b 8f3e
00000370: a458 843c e8c4 0c3d 9481 cb3a 1974 3bbe
00000380: a4de 4e3c 7a07 9d39 74bf 483e e420 31be
00000390: a947 93bd effe 893e 70c9 05bd a317 f5bc
000003a0: 8a21 233b dc27 8cbe 41fa 883c a24a 47ba
000003b0: 7bc3 ef3c 1083 40be 1c9c 8c3e 2448 c5bc
000003c0: 98d8 4abe 5c90 9a3a a089 8a3e 1ace 6f3d
000003d0: 21af 8db7 830e 143d d2bd c13d f8f7 11bd
000003e0: 6d69 6cbb 5883 9a3c fd5c 86bb 126e f4bd
000003f0: 24a5 ea3d 6c45 d6bd 292a 1280 c8dc a5ba
-0.24563517 -0.20974953 -1.7641344e-06 -0.00067220494 0.28080863 0.019377746 -0.00043938728 -0.0007415846
0.017525528 -0.11932976 0.0885084 -0.03100316 0.009932905 0.038574465 0.25828913 -0.0010589424
0.26824012 0.00013600301 5.846089e-06 2.8085868e-05 0.049395982 -0.02042365 -0.05510331 0.112937495
-0.036746696 -0.013656255 0.0342758 -0.19510578 2.124022e-11 -0.038672935 -0.0019468622 -0.13693573
-0.09996122 -0.15617317 -0.07610938 0.0020255602 0.004021828 0.0075904126 0.0003566338 -0.04040419
-0.14932866 -0.15331525 -0.153194 0.32188243 0.01610193 0.0003826834 -8.0453325e-13 -0.074236326
0.007864148 -0.36053523 -0.07819313 0.15891515 0.01961355 0.030928696 -0.01987093 -0.23574455
-0.0071378313 -0.002936733 -0.06286568 -0.1698685 0.24850965 0.25875777 0.012476309 -0.006538145
-0.00010577931 0.28068185 0.009689006 1.8376468e-06 0.00016985755 -0.21590912 0.007042142 -0.04556421
-0.09242937 6.55925e-05 -0.24064174 -0.10211196 -0.036274955 -0.10222502 -0.11176736 -0.013536697
-0.13923581 0.03848595 0.0015721166 -0.20189573 0.054940004 -0.043375645 0.002006825 0.013413724
-0.06900512 -0.00700146 -0.0008094122 0.022452582 -0.0024290965 0.33442435 -0.050600536 0.30750453
-0.00011427515 -0.23693985 -0.11818766 -0.015993422 -0.21948394 1.5593465e-10 0.00018688064 2.3540336e-18
0.009543895 0.022801084 -0.033456117 -0.044289585 -0.031308565 -0.024192667 -0.044097472 0.08958398
1.24600374e-08 0.17568053 0.008576761 0.0025388207 -0.06256399 0.13332537 -0.117914416 -0.2655222
0.013681578 0.03550452 -6.528045e-05 0.014980465 0.062205285 -0.07814312 -0.20665976 -0.19323383
-0.020271225 0.003120192 -8.1583666e-14 -0.18630216 -0.020179415 0.22958627 -0.07802068 -0.15687035
-0.010516838 0.11524038 0.093355305 -0.03553561 0.051094547 -1.4017142e-07 -0.058248885 0.0031312904
0.45339757 0.17353533 -0.038069047 -0.022121873 0.0003567115 0.058957927 -0.005906676 0.0032597512
-0.0031720018 -0.11831802 0.05936286 -0.010970905 0.27925044 0.0016954837 0.14432487 -0.10956424
-0.0039144787 -0.077154405 -0.042645406 0.008420282 0.22931853 -0.017887292 -0.0024398414 -0.032986965
-0.23370919 -0.12508732 2.9659037e-09 0.00018295657 -0.18257624 -0.0037796805 0.002237763 0.022842044
0.004187515 -0.13851067 -0.07221156 -0.007276265 0.008191126 0.32756937 0.203471 0.07886174
0.08531783 7.1985723e-10 -0.000465545 -2.0500906e-18 -0.0014040911 -0.12288327 0.04516781 0.05940315
0.010713325 -0.0013966397 0.009345084 0.13325427 -3.341549e-06 -0.2984868 -0.0035978886 0.29805702
-0.18646796 0.12939402 -0.17774203 -0.097945936 -0.034386504 -0.0020685322 0.0014793779 0.0032789493
-0.12724286 0.23031148 0.08897508 -0.22863054 0.009383956 -0.011905971 8.5161776e-07 0.06774694
0.0026902542 -0.25278622 -0.070091814 0.2804826 0.016155548 0.034367472 0.0015526288 -0.18306006
0.012626324 0.00029950944 0.19604284 -0.17297703 -0.071914025 0.2695231 -0.03266281 -0.029918497
0.0024891817 -0.2737416 0.016720893 -0.0007602369 0.029268017 -0.18799996 0.27462852 -0.02408225
-0.19809186 0.001179229 0.27058125 0.058546163 -1.689006e-05 0.036146652 0.094600335 -0.035636872
-0.003607358 0.018861458 -0.0041004405 -0.11935057 0.11457279 -0.1046246 -1.668163e-39 -0.0012654299

fc3.bias f4 [10]
00000000: 5ce3 04bd b50b aa3c 8376 29bd ac09 febb
00000010: 4ae3 97bd a4d9 73bd 831a 10bd 047d 933b
00000020: a98f 453e e4fd 483d
-0.03244339 0.020757535 -0.041372787 -0.007752618 -0.07416399 -0.05953373 -0.035181534 0.004500987
0.19293083 0.049070254
