Models/lenet_mnist_lr_0.001_wd_0.0001_12_100.pth (torch, 169692 bytes, 10 tensors)

conv1.weight f4 [6, 1, 5, 5]
0	0x3db93197	0.09042662
1	0xbd449992	-0.04799802
2	0xbed12d13	-0.408547
3	0xbe9d7da7	-0.30759928
4	0x3dea4f2e	0.114408836
5	0x3d91413e	0.07092522
6	0x3eca167d	0.39470282
7	0xbe85aeb8	-0.26109862
8	0xbee84925	-0.45368305
9	0xbd9ee597	-0.077586345
10	0xbe057afa	-0.13035193
11	0x3f109d13	0.56489676
12	0x3efc20f7	0.492439
13	0xba560fa1	-0.0008165781
14	0x3c5bc3f0	0.013413414
15	0xbefa3d02	-0.4887467
16	0x3e54c95c	0.20779938
17	0x3ee5cb62	0.4488173
18	0x3e2325b6	0.15932354
19	0xbb87cc92	-0.0041442597
20	0xbee13262	-0.43983752
21	0xbec4483e	-0.38336366
22	0xbe299fd3	-0.16564874
23	0xbba9e822	-0.005185143
24	0xbb3f65fd	-0.0029205077
25	0x3de802f5	0.11328689
26	0xbda1a012	-0.07891859
27	0xbebe7b94	-0.37203658
28	0xbdf1e0e3	-0.11810472
29	0x3da9e6a2	0.08295943
30	0x3da4cff0	0.080474734
31	0xbeb26bc6	-0.3484785
32	0xbed0bd93	-0.40769634
33	0xbce85737	-0.0283619
34	0x3c60fb1c	0.013731744
35	0x3cd55e61	0.02604598
36	0xbeb101a9	-0.3457158
37	0x3e2aafa8	0.1666857
38	0x3ea84c86	0.32870883
39	0x3dfcb3e1	0.12338997
40	0xbd956a29	-0.07295639
41	0x3dc543fd	0.09632108
42	0x3ef2099b	0.47272953
43	0x3ee8a8b0	0.45441198
44	0xbe567378	-0.20942485
45	0x3e14f49c	0.14546436
46	0x3ea68dc5	0.32530037
47	0x3d16bd6f	0.03680175
48	0xbe470521	-0.1943555
49	0xbe8513d3	-0.25991687
50	0x3d0d4f84	0.03449966
51	0x3dae6ba2	0.08516623
52	0x3e4f7316	0.20258746
53	0x3e8ddaea	0.2770608
54	0x3e265d67	0.16246568
55	0x3ef0ffae	0.47070068
56	0x3ed1d0d9	0.4097965
57	0x3e3645fc	0.17800134
58	0x3e869146	0.2628271
59	0x3eb2334a	0.34804755
60	0xbe6a25e9	-0.22866024
61	0xbbd53955	-0.0065070787
62	0x3dc33945	0.09532408
63	0xbe3c08dc	-0.18362755
64	0xbdbe1a81	-0.09282399
65	0xbeb38a59	-0.35066488
66	0xbedcc6e2	-0.43120486
67	0xbe58e856	-0.21182379
68	0xbe4c0676	-0.1992434
69	0xbe2e2597	-0.17006527
70	0xbec9ce21	-0.39415076
71	0xbe9a0359	-0.3008068
72	0xbecf9487	-0.40543005
73	0xbe3faf29	-0.18719162
74	0xbe328218	-0.1743244
75	0x3dee7d74	0.11645022
76	0x3cdfae5b	0.027304819
77	0x3d827f17	0.06371897
78	0x3e859635	0.2609116
79	0x3afca682	0.0019275697
80	0xbd3d8875	-0.046272714
81	0xbe632eb2	-0.22185782
82	0x3e81336a	0.25234538
83	0x3e0eee6f	0.13958143
84	0x3e4f5ebd	0.20250984
85	0xbe9fe6a3	-0.3123065
86	0xbe93c8f2	-0.28864247
87	0x3d3393cf	0.043842133
88	0x3ec82d9a	0.3909729
89	0x3e23b3ba	0.15986529
90	0xbe8a79b5	-0.2704598
91	0xbddfe362	-0.10932042
92	0x3e731222	0.23737386
93	0x3f0cd518	0.55012655
94	0x3d819b44	0.06328443
95	0x3c958117	0.018250031
96	0x3e114af1	0.14188744
97	0x3e6db72c	0.23214406
98	0x3e8c5583	0.2740899
99	0xbdb0634e	-0.08612691
100	0xbdafffd3	-0.085937165
101	0x3e4bcd9c	0.19902653
102	0x3ee46287	0.4460642
103	0x3ec05aef	0.37569377
104	0x3e252b68	0.1612984
105	0xbe7ea774	-0.24868566
106	0xbf1fe641	-0.62460715
107	0xbf28cc12	-0.65936387
108	0xbe9997bb	-0.29998574
109	0xbe6b638d	-0.22987194
110	0xbe326f53	-0.1742528
111	0xbf017e21	-0.5058308
112	0xbf28fdf1	-0.66012484
113	0xbee8a3b4	-0.45437396
114	0xbe41c0b4	-0.18921167
115	0x3e991e01	0.29905704
116	0x3e423f75	0.1896952
117	0x3e1bfb06	0.15232477
118	0x3e8ef5a1	0.27921775
119	0x3cb9e7bf	0.022693513
120	0x3ecc0ce4	0.39853585
121	0x3ed4edf5	0.41587797
122	0x3f0ba224	0.5454428
123	0x3e14b9c9	0.14523996
124	0x3d145b86	0.036220096
125	0x3dfd78fe	0.12376593
126	0xbe492f5b	-0.19646971
127	0xbecf29a0	-0.40461445
128	0xbefc50fd	-0.4928054
129	0xbe2267c0	-0.1585989
130	0xbd9d9efc	-0.076963395
131	0xbf1415af	-0.57845587
132	0xbec11de5	-0.3771812
133	0xbe3f11ef	-0.18659185
134	0x3ec6c6f0	0.38823652
135	0xbec36bcf	-0.3816819
136	0xbec8401c	-0.39111412
137	0xbe23470b	-0.1594507
138	0x3dd96b97	0.10616224
139	0x3f0a2b89	0.5397268
140	0xbeebc512	-0.4604879
141	0xbe98aefe	-0.29821008
142	0x3d8ab75e	0.06773256
143	0x3e6db26b	0.23212592
144	0x3ebbc361	0.366725
145	0xbeda2907	-0.42609426
146	0xbe4f7c68	-0.20262301
147	0xbdc926b2	-0.09821834
148	0x3e1fa836	0.15591511
149	0x3e8e7335	0.2782227

conv1.bias f4 [6]
0	0xbeb02274	-0.34401286
1	0xbea33052	-0.31872803
2	0xbcf8132a	-0.030282576
3	0xbe98dc50	-0.29855585
4	0x3c7fe3dc	0.015618291
5	0xbe991ae3	-0.29903325

conv2.weight f4 [12, 6, 5, 5]
0	0x3e9eb45c	0.30996978
1	0x3e8aba44	0.27095234
2	0x3e00c69a	0.1257576
3	0xbdc9d133	-0.09854355
4	0x3cba4694	0.022738732
5	0x3dfd8d8d	0.12380514
6	0x3e4faa01	0.20279695
7	0x3e0bec52	0.13664368
8	0x3d51ece2	0.0512513
9	0xbcc89e85	-0.02448965
10	0x3bfc7d92	0.007705399
11	0x3e13e928	0.14444411
12	0x3e0aa1b9	0.13538255
13	0xbc1cac44	-0.009562556
14	0xbda6b949	-0.08140809
15	0x3d6aece1	0.05735481
16	0xbdb56dc3	-0.08858826
17	0xbd3e0b50	-0.046397507
18	0xbd879f88	-0.06622225
19	0xbd84de7a	-0.064877465
20	0x3e61563b	0.2200555
21	0x3ccbe736	0.024890523
22	0xbe9fd271	-0.31215242
23	0xbe042b00	-0.12907028
24	0xbdf5056b	-0.11963924
25	0x3ce12277	0.027482254
26	0x3e8137a7	0.25237772
27	0x3de01c5b	0.109429084
28	0x3d51c802	0.051216133
29	0x3d97a7d3	0.07405057
30	0xbd9b26b6	-0.07575743
31	0xbcad9e84	-0.02119375
32	0xbdcc0fca	-0.09963949
33	0xbd954991	-0.07289422
34	0xbc76fee1	-0.015075416
35	0xbe96496a	-0.29352885
36	0xbeadba5d	-0.33931246
37	0xbded6e62	-0.115933195
38	0xbc97db8a	-0.018537302
39	0xbdf274fa	-0.11838718
40	0xbd608513	-0.05481441
41	0xbd54434e	-0.051822
42	0xbe451c76	-0.19249138
43	0xbe40c220	-0.18824053
44	0xbe2a5001	-0.16632082
45	0x3ce815b9	0.02833067
46	0x3d2c1bee	0.042018823
47	0xbdbf4c7d	-0.09340761
48	0xbe5474b0	-0.20747638
49	0xbe018ef5	-0.1265219
50	0x3e8148f5	0.25250974
51	0xbd9d2ce0	-0.07674575
52	0xbdd32758	-0.103102386
53	0xbe1ed799	-0.15511931
54	0xbd3eda92	-0.046595164
55	0x3dd8c033	0.10583534
56	0x3e88d316	0.26723546
57	0x3e3814f4	0.17976743
58	0x3da5d040	0.08096361
59	0x3e219cbd	0.15782447
60	0xbc3cf81f	-0.011533766
61	0x3e81952d	0.25309125
62	0x3ea13208	0.31483483
63	0x3e50bf30	0.20385432
64	0x3deaa0ab	0.11456426
65	0xbe8ab735	-0.270929
66	0xbe27c524	-0.16383797
67	0xbdb615b2	-0.08890857
68	0xbd951399	-0.072791286
69	0xbe1a43e7	-0.15064965
70	0xbd05951a	-0.032612897
71	0xbe4a2261	-0.19739677
72	0xbe2331a0	-0.15936899
73	0xbdf66be0	-0.12032294
74	0xbe4681c7	-0.19385444
75	0xbd2ef3e7	-0.042713072
76	0xbb289f0d	-0.0025729567
77	0xbe4f6563	-0.2025352
78	0xbd6779f1	-0.056512777
79	0xbd49100d	-0.049087573
80	0xbcae863a	-0.021304239
81	0x3d2612f9	0.040545437
82	0x3c0d94da	0.008641446
83	0xbda1ebab	-0.07906278
84	0xbe7801b3	-0.24219398
85	0xbe87ef3a	-0.26549703
86	0xbe722b43	-0.23649316
87	0xbe8774bc	-0.2645625
88	0xbe75d85a	-0.24008313
89	0xbe5aeca2	-0.21379331
90	0xbe98110b	-0.29700503
91	0xbeaf4cc6	-0.3423826
92	0xbe9fe856	-0.31231946
93	0xbeb65de7	-0.35618517
94	0xbe497c18	-0.19676244
95	0x3e0450a4	0.12921387
96	0xbe4f08cc	-0.202182
97	0xbeae990f	-0.3410115
98	0xbe3b09f0	-0.1826551
99	0xbcac398d	-0.021023536
100	0xbcb4b659	-0.022059606
101	0x3e2a9357	0.16657768
102	0x3e5c0d45	0.21489437
103	0x3e2e9a34	0.17051011
104	0x3de79be8	0.11309034
105	0xbe007d64	-0.12547833
106	0x3d4851fb	0.048906308
107	0x3dcaf093	0.09909167
108	0x3c0c11cd	0.008549166
109	0xbcb31ef6	-0.02186535
110	0xbe24c801	-0.1609192
111	0xbd8966a8	-0.06709033
112	0xbd4f52b4	-0.05061598
113	0x3d2aadc4	0.041669622
114	0xbdcd3ee8	-0.10021764
115	0x3e9e49de	0.3091573
116	0x3e871447	0.26382658
117	0x3c962776	0.018329363
118	0xbe449da2	-0.19200757
119	0xbe806758	-0.25078845
120	0x3d72444b	0.05914716
121	0x3e4aa20f	0.19788383
122	0x3d9d2fb5	0.07675115
123	0xbdcc1238	-0.099644125
124	0xbe162b6e	-0.14665005
125	0xbc878195	-0.016541282
126	0x3d05155f	0.032491084
127	0xbd23a1ba	-0.039949156
128	0x3ce4def7	0.02793835
129	0xbd90a84b	-0.07063349
130	0xbd0b059a	-0.03394089
131	0xbd97a59f	-0.074046366
132	0xbe1c54a0	-0.15266657
133	0xbd9b578c	-0.075850576
134	0xbd93ff65	-0.07226447
135	0xbe3811ed	-0.17975588
136	0xbe84adb8	-0.25913787
137	0xbe1d328b	-0.15351312
138	0xbdbcd41b	-0.092201434
139	0xbde86cbd	-0.11348865
140	0xbe567aa2	-0.20945218
141	0xbe85b41d	-0.26113978
142	0xbe4b4632	-0.19850996
143	0xbd329cc9	-0.043606553
144	0x3a68157d	0.00088532997
145	0xbd596473	-0.05307431
146	0xbe3eff30	-0.18652034
147	0xbdf712e3	-0.12064149
148	0x3d831a1b	0.064014636
149	0x3c862c38	0.016378507
150	0x3dd446c2	0.103650585
151	0x3d308c8a	0.04310278
152	0xbe4cb366	-0.1999031
153	0xbcf65912	-0.030071769
154	0x3e19d1e6	0.15021476
155	0x3dc1a3ba	0.094550565
156	0x3de8601f	0.11346459
157	0x3ce5d6be	0.028056499
158	0x3ca73346	0.020410191
159	0x3cf2f4e8	0.029657796
160	0xbdbb44b6	-0.09143965
161	0xbc8e4d18	-0.017370746
162	0xbd0e3492	-0.034718104
163	0xbe3ba31a	-0.18323937
164	0xbe240f79	-0.16021527
165	0xbed5c704	-0.417534
166	0xbe8bdabd	-0.27315322
167	0x3cdf0c0e	0.027227428
168	0x3c0f89e6	0.008760905
169	0xbccd69f1	-0.02507493
170	0xbd73976b	-0.059470575
171	0xbc34a04f	-0.011024549
172	0x3ddc2957	0.107500724
173	0x3e1478bd	0.14499183
174	0x3e39bd5b	0.1813864
175	0xbdbf2f87	-0.09335237
176	0xbd894f1f	-0.06704544
177	0xbe88f7be	-0.26751512
178	0xbd4cd863	-0.05001105
179	0x3e5bdea8	0.21471655
180	0xbe9becc8	-0.30454087
181	0xbe14948e	-0.14509794
182	0xbe93031f	-0.2871332
183	0xbe8845a0	-0.2661562
184	0xbe39f38d	-0.18159313
185	0xbe358e24	-0.17730004
186	0xbe095c97	-0.13414226
187	0xbe2bac2a	-0.16764894
188	0x3cc0043e	0.023439523
189	0x3bc61f3e	0.006046205
190	0x3d623c8b	0.05523352
191	0x3d95c4a6	0.07312898
192	0x3e5761cb	0.21033399
193	0x3e01fd54	0.12694293
194	0x3e817bc6	0.25289744
195	0x3c99cb66	0.018773746
196	0x3d8ab572	0.06772889
197	0x3df02c45	0.11727194
198	0x3cb3d29d	0.021951014
199	0x3dee903f	0.116486065
200	0x3d329ad9	0.043604705
201	0xbc3baa00	-0.011454105
202	0xbc7afaa8	-0.01531855
203	0x3cf5faa3	0.03002674
204	0x3e1402d7	0.14454208
205	0x3ec10a6e	0.3770327
206	0x3dc8a486	0.09797005
207	0xbce1abfd	-0.02754783
208	0x3e90532d	0.28188458
209	0x3ec198d6	0.37811917
210	0x3e663ffe	0.22485349
211	0x3c95b464	0.018274494
212	0x3e279075	0.163637
213	0x3e212fcf	0.15740894
214	0xbb1337d5	-0.0022463698
215	0xbec7588c	-0.38934743
216	0xbe5c2814	-0.21499664
217	0xbe356179	-0.17712964
218	0xbe043d62	-0.1291404
219	0xbe50af20	-0.20379305
220	0xbe4ee2cd	-0.20203705
221	0xbe219bdf	-0.15782116
222	0xbbc20a2d	-0.005921623
223	0x3dedc2d5	0.11609427
224	0x3e459c66	0.19297943
225	0x3d0aa3e6	0.033847712
226	0xbd49d6e4	-0.0492772
227	0xbce2ef49	-0.02770199
228	0x3e5a9569	0.21346058
229	0x3e64d78f	0.22347854
230	0xbe62c52b	-0.22145526
231	0xbe88fa32	-0.26753384
232	0xbe8e19b3	-0.27753982
233	0xbe055ccd	-0.13023682
234	0xbe6c44e3	-0.23073153
235	0xbf0f4b8e	-0.5597466
236	0xbede1186	-0.43372744
237	0xbf00c1d6	-0.5029577
238	0xbe911f91	-0.28344396
239	0xbdc0b055	-0.09408633
240	0xbe993d33	-0.29929504
241	0xbe6235c6	-0.22090825
242	0xbd236acf	-0.039896782
243	0xbc82544e	-0.01590934
244	0x3bd1e8da	0.006405932
245	0xbd803ef6	-0.06262009
246	0x3d2a874e	0.041632943
247	0xbd5a6117	-0.05331525
248	0xbcc9b776	-0.024623614
249	0xbd94c992	-0.07265009
250	0xbe6af9b4	-0.22946817
251	0xbe2618f6	-0.1622046
252	0xbe0c1fde	-0.13684031
253	0xbe2858b5	-0.16440089
254	0x3c9d8f98	0.01923351
255	0xbeb6ec47	-0.3572714

conv2.bias f4 [12]
0	0xbd43a212	-0.047761984
1	0xbe1a0b98	-0.15043485
2	0xbd9493ee	-0.07254778
3	0xbda75250	-0.08169997
4	0xbdd7906d	-0.10525594
5	0xbde9ad42	-0.114099994
6	0xbddf527c	-0.109044045
7	0xbd01cc04	-0.031688705
8	0xbddb93ff	-0.107215874
9	0xbd94f400	-0.07273102
10	0xbd63916c	-0.055558607
11	0xbe06c881	-0.13162424

fc1.weight f4 [100, 300]
0	0x818dc3aa	-5.2075984e-38
1	0x013555b8	3.330595e-38
2	0x8010b662	-1.534795e-39
3	0x803018d3	-4.417009e-39
4	0xb3af8218	-8.1727364e-08
5	0x8169cc00	-4.2941704e-38
6	0x00343468	4.794246e-39
7	0xb112fa4a	-2.138807e-09
8	0xb85c1cd5	-5.247894e-05
9	0xb7c0a118	-2.2963199e-05
10	0x8026f316	-3.576952e-39
11	0x0023b953	3.280724e-39
12	0x0015c36e	1.998652e-39
13	0x801b674e	-2.516617e-39
14	0x801bc989	-2.551856e-39
15	0x0038acd5	5.204788e-39
16	0x802488ab	-3.355105e-39
17	0x8001cac8	-1.6458e-40
18	0x802f9993	-4.37136e-39
19	0x004c708e	7.019875e-39
20	0xb91db615	-0.00015040518
21	0xba8bf9a5	-0.0010679258
22	0xba13aa8c	-0.00056330184
23	0xb4c6a08d	-3.699719e-07
24	0xb8e053ac	-0.000106967374
25	0x344419b8	1.8263279e-07
26	0xb8f2d44b	-0.00011579002
27	0xb7eabd3c	-2.7983093e-05
28	0x0000fa45	8.978e-41
29	0x94af7143	-1.7715158e-26
30	0xba4fe603	-0.0007930698
31	0xb7fda15f	-3.0235095e-05
32	0xbbcb2e8e	-0.006200618
33	0xb9906dba	-0.00027547573
34	0xb5cc9112	-1.5241405e-06
35	0xb903fe5f	-0.00012587894
36	0xb7f7a157	-2.9519824e-05
37	0xb99a57bb	-0.00029438533
38	0x0026372c	3.509541e-39
39	0x80139678	-1.798852e-39
40	0xb88665f3	-6.4086074e-05
41	0xa12ea695	-5.9173963e-19
42	0x0a2397f1	7.8767415e-33
43	0x003ba106	5.476059e-39
44	0x802ec34f	-4.294496e-39
45	0xba8be00f	-0.0010671633
46	0xbb0b7142	-0.0021277224
47	0xba829ca9	-0.0009964901
48	0xb9a21874	-0.00030917267
49	0x3193e673	4.304462e-09
50	0x80279367	-3.634462e-39
51	0xb1977588	-4.40804e-09
52	0xb7fc7d16	-3.0098989e-05
53	0x89c2e7f2	-4.692192e-33
54	0x001802fb	2.205121e-39
55	0x000a95d0	9.72098e-40
56	0xb256ce05	-1.2503283e-08
57	0xaafbbe66	-4.4718672e-13
58	0x885061d2	-6.270771e-34
59	0xaa2264f5	-1.4423517e-13
60	0x017a1782	4.5934614e-38
61	0xb91f1149	-0.00015169861
62	0x373c6fbd	1.1231689e-05
63	0xb5a54175	-1.2312508e-06
64	0xb5ff1e1d	-1.9007745e-06
65	0x8034e9f2	-4.85937e-39
66	0x8022ead6	-3.20665e-39
67	0x801b4e7e	-2.507716e-39
68	0xb79167d0	-1.7333688e-05
69	0x9bbe36d7	-3.1468303e-22
70	0x801d488d	-2.689256e-39
71	0x003a2aa4	5.341755e-39
72	0x8022f922	-3.211779e-39
73	0x9ff1b594	-1.02367866e-19
74	0x80059cd1	-5.15433e-40
75	0xba2ee1af	-0.0006671203
76	0xb8aea381	-8.3274215e-05
77	0x000e04a3	1.28736e-39
78	0xbb11bcc0	-0.0022237748
79	0x002672e3	3.530962e-39
80	0xbaa4af91	-0.001256453
81	0x39c4af37	0.00037514578
82	0xb96cd2e7	-0.00022585281
83	0xbb393a00	-0.002826333
84	0xb7cc1d56	-2.4332356e-05
85	0xbb55d242	-0.0032626544
86	0xb593149d	-1.0958353e-06
87	0xb94e5059	-0.00019675623
88	0xb8e71944	-0.000110196444
89	0xb48b47ea	-2.5943092e-07
90	0xb7312d61	-1.0560588e-05
91	0x8005ff50	-5.50766e-40
92	0xb8cabc9b	-9.667241e-05
93	0xb57a0496	-9.313893e-07
94	0x0035ab5d	4.928755e-39
95	0x2f92231b	2.658219e-10
96	0xb439b66a	-1.729583e-07
97	0xb7c4c475	-2.3456503e-05
98	0xb286de02	-1.570061e-08
99	0x8047bf25	-6.58889e-39
100	0x801b910f	-2.531596e-39
101	0x36af1de6	5.218887e-06
102	0xb720aa13	-9.576342e-06
103	0x0015626e	1.963855e-39
104	0x002ca3ce	4.099524e-39
105	0xaf368609	-1.6600422e-10
106	0xb7e11948	-2.6833863e-05
107	0xb9a9b5e5	-0.00032369714
108	0xb5274bdc	-6.232274e-07
109	0x97d32d88	-1.3647049e-24
110	0x801083c5	-1.516638e-39
111	0x1797d565	9.812015e-25
112	0xa982bdb3	-5.806067e-14
113	0xb9bb8478	-0.00035766116
114	0xb73cc349	-1.1251142e-05
115	0xaa2c8e19	-1.5325969e-13
116	0xbae5f438	-0.0017544096
117	0xbae2f899	-0.001731652
118	0xbab59bfc	-0.0013855691
119	0x36b701bf	5.4540283e-06
120	0x002edc4b	4.303459e-39
121	0xb1042841	-1.923141e-09
122	0x3a0bdba7	0.000533516
123	0xb7bb8b43	-2.2356986e-05
124	0xb274d3ef	-1.4250857e-08
125	0xb7b69f1f	-2.1770187e-05
126	0x3504600a	4.931359e-07
127	0xb08f91fc	-1.0446111e-09
128	0x9625591c	-1.3356712e-25
129	0xb89a9fcb	-7.373056e-05
130	0xb92c5c19	-0.00016437507
131	0x37d1f759	2.5029922e-05
132	0x25ff3021	4.4268062e-16
133	0xb71631cd	-8.952292e-06
134	0xbaa00764	-0.0012209234
135	0xaeb80839	-8.368812e-11
136	0x01f1a060	8.8759545e-38
137	0xbb546192	-0.003240679
138	0x960d09d4	-1.139299e-25
139	0xbab357e8	-0.0013682814
140	0x800d09a6	-1.197323e-39
141	0xb94792a0	-0.00019032741
142	0xbc61efa0	-0.013790041
143	0x2e116783	3.306112e-11
144	0xb9008dc9	-0.0001225985
145	0xb9646e61	-0.00021784894
146	0xbac49e4d	-0.0015000791
147	0xbc230532	-0.009949969
148	0x1ff5e0c8	1.04133405e-19
149	0xb8a77e9d	-7.986764e-05
150	0xb84e0364	-4.9117385e-05
151	0xba5b9727	-0.00083767105
152	0x9fa54bdc	-7.000572e-20
153	0x171f5911	5.148809e-25
154	0xb62aed30	-2.5470035e-06
155	0xb01676ec	-5.473868e-10
156	0x0e96294c	3.7017622e-30
157	0x23e5bf40	2.4909227e-17
158	0x0010aea1	1.532013e-39
159	0xa6bf659e	-1.3280831e-15
160	0x2568dbcc	2.0197262e-16
161	0xb420669e	-1.4938493e-07
162	0x001c7ba6	2.61575e-39
163	0x002b89ba	3.998333e-39
164	0xb3095966	-3.1979106e-08
165	0x26564fc8	7.435429e-16
166	0x800bc5b0	-1.081107e-39
167	0x000c8615	1.150126e-39
168	0xa3115134	-7.877661e-18
169	0xabf96822	-1.7721417e-12
170	0x800f85ba	-1.425504e-39
171	0x004a5e1a	6.829584e-39
172	0xa70192b4	-1.7981874e-15
173	0x002cc929	4.112924e-39
174	0x00204ffc	2.967429e-39
175	0x81f265c4	-8.9042787e-38
176	0x00137ea7	1.790309e-39
177	0xb89bb87f	-7.425341e-05
178	0xb8239782	-3.900333e-05
179	0xb74ac780	-1.2086588e-05
180	0x801392f0	-1.797586e-39
181	0xabb956e8	-1.3169162e-12
182	0xb753c293	-1.2621883e-05
183	0x003b86ac	5.466605e-39
184	0x8002ad93	-2.45938e-40
185	0x811dbbc4	-2.897106e-38
186	0x002ef140	4.310977e-39
187	0x000bcef6	1.084434e-39
188	0x001c9734	2.625635e-39
189	0x0002dae2	2.62191e-40
190	0xbab72c27	-0.001397495
191	0xbb4ab5e9	-0.003093118
192	0xbaa024ec	-0.0012218035
193	0x1b19f6ab	1.2735566e-22
194	0x27cc274a	5.666397e-15
195	0xb0a37f5d	-1.189601e-09
196	0x37f8d0d6	2.966115e-05
197	0xb9490ad7	-0.00019172892
198	0xba752b05	-0.0009352419
199	0xb79fe493	-1.9060715e-05
200	0xba84bc12	-0.001012685
201	0xbb9c1a85	-0.0047639036
202	0xbb43b91f	-0.002986498
203	0xba62d9a0	-0.00086536445
204	0xb9948918	-0.00028330903
205	0x2a174be7	1.3437828e-13
206	0x3a5fc71a	0.00085364433
207	0xb97c4109	-0.0002405682
208	0xaab26e60	-3.169574e-13
209	0x9b797e19	-2.0637542e-22
210	0xbaf5e7c6	-0.001876109
211	0xbbecf360	-0.007231161
212	0xbb4fdafe	-0.0031716223
213	0xb9194952	-0.00014618531
214	0x002ade21	3.936776e-39
215	0xba589e79	-0.00082633604
216	0xba2d1478	-0.00066024764
217	0xbbbcccaa	-0.0057617025
218	0xbba4e7f4	-0.005032534
219	0xbb06075d	-0.0020451166
220	0x801e422b	-2.778801e-39
221	0x39679867	0.00022086651
222	0x3830b18c	4.2127023e-05
223	0xb22ceefd	-1.0066057e-08
224	0xb99f7bc0	-0.00030419044
225	0x8000e867	-8.337e-41
226	0xa5f5872a	-4.2592316e-16
227	0x0015ffdf	2.020335e-39
228	0xb97ca085	-0.00024092391
229	0x0002be57	2.51952e-40
230	0xba946eaa	-0.0011324484
231	0xbb79d342	-0.0038120304
232	0xb9b16d64	-0.00033841573
233	0xb9ac8295	-0.00032903688
234	0x0029552d	3.79581e-39
235	0xb62bae5a	-2.5582472e-06
236	0xbbba8506	-0.005692127
237	0xbb20f51f	-0.0024560166
238	0xba5a6bcb	-0.00083321024
239	0x003cfa70	5.59997e-39
240	0xb7cbe195	-2.430453e-05
241	0xbbdc525f	-0.0067236866
242	0xbbcc6c02	-0.0062384615
243	0xb9b108a3	-0.00033766506
244	0x80118351	-1.608311e-39
245	0x8013aa4e	-1.805968e-39
246	0xbb63187c	-0.0034652045
247	0xbb11a3cc	-0.0022222875
248	0xb9c6b52c	-0.00037900486
249	0x00466aa4	6.46674e-39
250	0xb5b6adfe	-1.3610695e-06
251	0x991578f6	-7.727547e-24
252	0x0014af54	1.899606e-39
253	0xb7bbc45d	-2.2383576e-05
254	0xb8f30a23	-0.00011589031
255	0xb9a04c13	-0.00030574258

fc1.bias f4 [100]
0	0xb2b533ba	-2.1094696e-08
1	0xba98c32c	-0.0011654845
2	0x3c751ec0	0.014960945
3	0xbcbaf5c9	-0.022822278
4	0xa9be1258	-8.440877e-14
5	0xbc8756c5	-0.016520867
6	0xbd3e3dc2	-0.046445616
7	0xbcae0b15	-0.021245519
8	0x00d7bf20	1.9813194e-38
9	0x35bca618	1.4055431e-06
10	0x801dead8	-2.747475e-39
11	0xbcbfa052	-0.023391876
12	0xbcee427e	-0.02908444
13	0xbd1ab0bd	-0.037766207
14	0xb79d3e35	-1.8744826e-05
15	0x80174ab1	-2.13901e-39
16	0xbc023e14	-0.007949371
17	0x3d0c920b	0.034318965
18	0xbbad28d6	-0.005284409
19	0x8006f8db	-6.40285e-40
20	0x003f00ca	5.78592e-39
21	0xba1451ba	-0.000565793
22	0xbc1e459f	-0.009660154
23	0xbd29ab4f	-0.04142314
24	0xbd13a128	-0.036042362
25	0xbc8f6105	-0.017502317
26	0xbc43f764	-0.011960838
27	0x0207f65f	9.988939e-38
28	0xbca24266	-0.019807052
29	0x802d1d6f	-4.143156e-39
30	0xba3d044c	-0.0007210418
31	0xaa74dd4c	-2.1748331e-13
32	0xbc9dc8ae	-0.01926073
33	0xbd220c6a	-0.03956262
34	0xba0e1d75	-0.00054212596
35	0xba4e9134	-0.00078799133
36	0xbaa296fc	-0.0012404616
37	0xbd2f04cc	-0.042729184
38	0xbb0c2519	-0.0021384417
39	0xbcf562d3	-0.02995435
40	0xb9f5ad4f	-0.00046859166
41	0xbd028fba	-0.03187535
42	0x04f432b8	5.7410702e-36
43	0xbd256ef2	-0.04038901
44	0xbbde7e4c	-0.006789958
45	0x3b93a850	0.0045061484
46	0xbb16e02c	-0.00230218
47	0xbcadcbee	-0.021215405
48	0xbc783437	-0.015149168
49	0xbcc91e3e	-0.024550553
50	0x3cb0eaec	0.021596394
51	0x3ccf1332	0.025277708
52	0xbaeb4d3e	-0.0017952097
53	0xbb81aa3a	-0.00395706
54	0x3766e592	1.3762519e-05
55	0x81fc2d27	-9.263497e-38
56	0xbc922165	-0.01783819
57	0xbc16548e	-0.009175433
58	0xbc64d2c0	-0.013966262
59	0xbc78bb2c	-0.015181344
60	0xbba837e7	-0.005133617
61	0xbc50af38	-0.012737088
62	0xbd0b4f43	-0.034011137
63	0xbc4cda04	-0.012503151
64	0xbd42a858	-0.047523826
65	0x3b3cab56	0.0028788648
66	0x00085114	7.6377e-40
67	0xbd60d233	-0.05488796
68	0x803b47fe	-5.44412e-39
69	0xbc93414e	-0.017975476
70	0x000be7da	1.093363e-39
71	0xbc4cb5f8	-0.012494557
72	0xbb5f7c3f	-0.0034101156
73	0xbc38a26c	-0.011269193
74	0xbd1e35b3	-0.03862543
75	0xb317edcc	-3.5373702e-08
76	0xbdb668c0	-0.08906698
77	0xbb5d1b39	-0.003373815
78	0xbba9e1ab	-0.0051843724
79	0xbd9149bf	-0.07094144
80	0xbd2d896b	-0.04236738
81	0xba20cca9	-0.00061340124
82	0x001859a1	2.236205e-39
83	0xbbb8491e	-0.0056239506
84	0xb0e2c97b	-1.6500928e-09
85	0xbca0798f	-0.019589214
86	0xbc342811	-0.010995881
87	0x00269c92	3.545916e-39
88	0xbc7671a1	-0.01504174
89	0xbca880ac	-0.020569168
90	0x3c864c17	0.016393704
91	0xbbaa77b9	-0.0052022603
92	0x001fec97	2.931773e-39
93	0x802cc44c	-4.11118e-39
94	0x3bb2f689	0.005461518
95	0x80236e7e	-3.25388e-39
96	0x3bb3dbd7	0.0054888534
97	0xbd308f45	-0.043105382
98	0xa74afe0a	-2.8170846e-15
99	0xb5d66be9	-1.5975648e-06

fc2.weight f4 [84, 100]
0	0x80b85f08	-1.6931822e-38
1	0xbd08030d	-0.033206034
2	0xbcdfa92b	-0.027302345
3	0x2a3312f0	1.5904964e-13
4	0x800e9431	-1.338858e-39
5	0xbcf4ca90	-0.029881746
6	0xbcf3de80	-0.029769182
7	0x36ec4fdb	7.0426445e-06
8	0x8003e81e	-3.58774e-40
9	0x24d4a2b4	9.2215974e-17
10	0x801667b1	-2.057578e-39
11	0x2f1f3d26	1.448269e-10
12	0x372167e4	9.620537e-06
13	0x3880b15e	6.136553e-05
14	0x2937fee2	4.0855238e-14
15	0x004440ee	6.268106e-39
16	0x15815944	5.224352e-26
17	0xba3a7381	-0.00071125483
18	0x14c84e2f	2.0225677e-26
19	0x001ede0c	2.83472e-39
20	0x8203758c	-9.658094e-38
21	0xbcf3042c	-0.029665075
22	0x3b5a13ac	0.0033275886
23	0xb144075d	-2.852594e-09
24	0xbcf71500	-0.03016138
25	0xbbcd8317	-0.0062717306
26	0x3287678a	1.5763153e-08
27	0x803a7ff3	-5.372358e-39
28	0xa95322e0	-4.688166e-14
29	0x023aab69	1.3714314e-37
30	0x825dbf96	-1.6291498e-37
31	0x80242ca6	-3.322095e-39
32	0xae6bbad3	-5.3598747e-11
33	0xbbf71e6d	-0.007541469
34	0x0017954f	2.165778e-39
35	0xa4b761f2	-7.9529525e-17
36	0xb53618d1	-6.7836396e-07
37	0x35cf5811	1.5448333e-06
38	0x9e21f17e	-8.5732084e-21
39	0xaf27e196	-1.5268706e-10
40	0x8016d55b	-2.096918e-39
41	0x3a59fade	0.0008315275
42	0x02324171	1.3096155e-37
43	0xb52b7854	-6.3877565e-07
44	0x9da06cc4	-4.246411e-21
45	0xbcd59ed2	-0.026076708
46	0xbc82510f	-0.015907792
47	0xbcb38e50	-0.021918446
48	0xa9ca3cf0	-8.981173e-14
49	0xbc377793	-0.011197942
50	0xbcd71bd6	-0.02625839
51	0xbcedcd76	-0.029028635
52	0xb4e36162	-4.23529e-07
53	0x803fb98c	-5.852198e-39
54	0x27753223	3.402776e-15
55	0x000091ee	5.235e-41
56	0xbcac17f9	-0.021007525
57	0xbb000fea	-0.0019540736
58	0x2e1d956e	3.5830387e-11
59	0xbb86dee3	-0.0041159256
60	0x35321caa	6.635188e-07
61	0x00016d42	1.3103e-40
62	0xbcfc86b9	-0.03082596
63	0x9f5139d7	-4.4305315e-20
64	0xbcb3f4ae	-0.021967258
65	0xbce91f78	-0.028457388
66	0x00264b0b	3.516669e-39
67	0xbd05e46a	-0.032688536
68	0x024464f2	1.4428776e-37
69	0x26c43289	1.361393e-15
70	0x812f67b8	-3.2216838e-38
71	0xbd225d84	-0.039639965
72	0x3a389056	0.00070405507
73	0xba3c2cd5	-0.00071783114
74	0xbcfe8063	-0.031067079
75	0x24369600	3.9592014e-17
76	0xbcf6d9ec	-0.03013321
77	0xbd056744	-0.032569185
78	0x3607f869	2.0261161e-06
79	0xbcda476a	-0.026645381
80	0x3181472b	3.762485e-09
81	0x85d8cfb0	-2.0388835e-35
82	0x001041e0	1.493e-39
83	0xa63dc930	-6.5845207e-16
84	0x80087e3e	-7.79971e-40
85	0xa9a1fa6e	-7.193279e-14
86	0x2d0843e0	7.745776e-12
87	0x81dcb324	-8.107229e-38
88	0xbcfeaddb	-0.03108876
89	0xbcf310f5	-0.029671172
90	0xbab91b24	-0.0014122468
91	0xbb6ceb43	-0.003615097
92	0x81af76ba	-6.445521e-38
93	0x81d37002	-7.766988e-38
94	0xbcc6529b	-0.024209311
95	0x0004483e	3.93258e-40
96	0xba9cfc17	-0.0011976984
97	0xbcb86fb4	-0.022514202
98	0x00089b90	7.90489e-40
99	0x0036dcc3	5.038311e-39
100	0x82065332	-9.868641e-38
101	0xbb5097e3	-0.0031828813
102	0xbbaa628d	-0.0051997364
103	0x90a71900	-6.5908404e-29
104	0x0252c040	1.5483536e-37
105	0xbad2cb97	-0.0016082403
106	0xb96cbe89	-0.00022577694
107	0xa7b478d0	-5.009102e-15
108	0x008f299e	1.3147405e-38
109	0x801db31a	-2.727479e-39
110	0x81bb9b66	-6.8915937e-38
111	0xa2a02b02	-4.3413623e-18
112	0xb5f1a718	-1.800453e-06
113	0xbaab0d7c	-0.0013050283
114	0xb8922232	-6.968192e-05
115	0x01500574	3.820748e-38
116	0x0096bdc8	1.3843405e-38
117	0xbb74767a	-0.0037302063
118	0x82a57b12	-2.431521e-37
119	0x01a7b000	6.159866e-38
120	0x81d962e2	-7.98551e-38
121	0x38ac58d7	8.218147e-05
122	0xa8c2bb80	-2.1619642e-14
123	0xb99890f2	-0.00029099692
124	0xb994aa7d	-0.00028355783
125	0xb652eb4c	-3.14294e-06
126	0xb70c073e	-8.3463365e-06
127	0x80493ab3	-6.725049e-39
128	0xaded44ab	-2.6974275e-11
129	0x01b7d7f1	6.7533444e-38
130	0xa54dee92	-1.7861746e-16
131	0x000ec478	1.356177e-39
132	0x1933bad8	9.291816e-24
133	0xb9eb2d66	-0.00044856517
134	0x01d330b2	7.7579033e-38
135	0x8318345d	-4.4728895e-37
136	0x800c2198	-1.114077e-39
137	0xba18ed4a	-0.00058336987
138	0xb61ee451	-2.3676732e-06
139	0x93c38b43	-4.9362243e-27
140	0x812fee04	-3.2313191e-38
141	0xba183492	-0.00058061734
142	0x801675c9	-2.062634e-39
143	0xb8bc03e2	-8.965262e-05
144	0xb31ce248	-3.6527382e-08
145	0xba876cb6	-0.0010332081
146	0xba856f91	-0.0010180344
147	0xb8d0530d	-9.933682e-05
148	0xb909dfdf	-0.00013148737
149	0xa961b2ef	-5.0115236e-14
150	0xa8603429	-1.2445808e-14
151	0xb9b8ef75	-0.00035273624
152	0x801b1334	-2.486447e-39
153	0xa3a3b52e	-1.7749228e-17
154	0xa907b1a4	-3.01301e-14
155	0x803a2e2b	-5.343021e-39
156	0x39f4bdfd	0.0004668086
157	0x9c19991a	-5.0821333e-22
158	0x012d2214	3.1799532e-38
159	0x95372f6e	-3.699397e-26
160	0x8010562e	-1.500283e-39
161	0x01153564	2.7405284e-38
162	0x3a574eeb	0.0008213359
163	0x8039e76b	-5.31764e-39
164	0xb6de2c88	-6.6212997e-06
165	0xb9e7d4b1	-0.0004421822
166	0x8049b284	-6.76803e-39
167	0xb2e235e3	-2.6334368e-08
168	0x02597da0	1.5978695e-37
169	0x001dd32d	2.738985e-39
170	0x023f2ed5	1.4045904e-37
171	0xb9c83652	-0.00038187444
172	0xb8817fce	-6.175005e-05
173	0x8e9a4010	-3.802562e-30
174	0xb9f4f404	-0.00046721112
175	0x12a29570	1.0260477e-27
176	0xb9ea8c24	-0.0004473637
177	0xb6872271	-4.027323e-06
178	0xb1375f31	-2.6684115e-09
179	0xb7a14c73	-1.9228295e-05
180	0x9eb6ac7d	-1.9341339e-20
181	0x810722f4	-2.4820662e-38
182	0x002928d3	3.7799e-39
183	0x998da3d3	-1.4645226e-23
184	0x003424a7	4.788594e-39
185	0x13b8477d	4.6518623e-27
186	0xa475d9ba	-5.3310328e-17
187	0x015c4b6c	4.046173e-38
188	0xba45f4a1	-0.0007551406
189	0xba3b837b	-0.0007153076
190	0xb9004ccc	-0.0001223564
191	0xbb068171	-0.002052393
192	0x0150136c	3.82175e-38
193	0x82cd932f	-3.0206522e-37
194	0x81c0a8c4	-7.077183e-38
195	0x8198d211	-5.613741e-38
196	0xb9021b21	-0.00012407872
197	0xbaea11fa	-0.0017858141
198	0x80196277	-2.33121e-39
199	0xa16a7525	-7.9437323e-19
200	0xbce62475	-0.028093556
201	0x3e621c14	0.22081023
202	0x3e5c2300	0.21497726
203	0x3b6ee461	0.0036452042
204	0x3aeda8a9	0.001813193
205	0x3e1d5351	0.15363814
206	0x3ae54892	0.0017492941
207	0xbd0535b0	-0.032521904
208	0xb8f4f1cb	-0.00011679864
209	0x3bb005f9	0.0053718057
210	0x36750b11	3.6514286e-06
211	0x3cf5fd53	0.030028021
212	0x3e484235	0.19556506
213	0x3e316ae1	0.17325927
214	0xbcae9f18	-0.021316096
215	0xb7cbb033	-2.4281535e-05
216	0xbc9fe068	-0.019516185
217	0x3e92ab58	0.2864635
218	0x3a547778	0.00081049604
219	0x3822a124	3.8773884e-05
220	0xa4bf4af9	-8.2960055e-17
221	0xbceb12bd	-0.028695459
222	0x3d4b03ac	0.04956405
223	0xbbf5d774	-0.0075024907
224	0x3dcc80f8	0.09985536
225	0xbe2dfcd8	-0.16990983
226	0xbd9cbefa	-0.076536134
227	0x834f1846	-6.0859697e-37
228	0x3c2a2195	0.010383983
229	0xa80bed0d	-7.767452e-15
230	0xba099727	-0.00052486587
231	0xad9ba4e8	-1.7694693e-11
232	0xbbd1b7e9	-0.0064000976
233	0xbdbb029b	-0.09131356
234	0x3d63a639	0.055578444
235	0x2f075e4f	1.2311684e-10
236	0x3b90d29c	0.004419638
237	0xbe9ab26f	-0.3021426
238	0x3cd1a911	0.025593312
239	0xbcb68ae8	-0.022283033
240	0xb8b39ecb	-8.5649626e-05
241	0x3bd90a61	0.0066235517
242	0x00284301	3.697456e-39
243	0x3c1f11d5	0.009708841
244	0xbabf67ec	-0.0014603115
245	0x3cd966f2	0.026538346
246	0xbe68955e	-0.22713229
247	0x3d2fa384	0.04288055
248	0x3d9379ae	0.07200943
249	0xbba9de40	-0.005183965
250	0xbc9eb3db	-0.019372871
251	0x3c580423	0.01318458
252	0x3c88962d	0.016673172
253	0x3badb033	0.0053005456
254	0x3b4686dc	0.0030292785
255	0x0681b013	4.8783125e-35

fc2.bias f4 [84]
0	0xbc8bd5dc	-0.01706975
1	0xb1b358d0	-5.2196825e-09
2	0x3d75e996	0.060037218
3	0xbc2955cb	-0.010335396
4	0xbb9afb10	-0.004729636
5	0x3ca99854	0.020702519
6	0xaf864933	-2.442647e-10
7	0xaeb7bf8c	-8.355902e-11
8	0xb989e396	-0.0002630024
9	0xbb626d53	-0.0034550026
10	0xbc51d82c	-0.012807887
11	0x3c8b3c70	0.016996592
12	0xb9bf1928	-0.00036449102
13	0xa2802880	-3.473735e-18
14	0x3d07030b	0.032961886
15	0x3bb80947	0.0056163403
16	0xbc9dc5d6	-0.019259375
17	0xbc4db8d1	-0.012556271
18	0x3a643237	0.00087049924
19	0xbbfb16b6	-0.0076626195
20	0xbd4092da	-0.04701505
21	0xbd499f2a	-0.049224056
22	0x1a06dd1b	2.7889158e-23
23	0xbca6d11b	-0.020363381
24	0xbc66f52c	-0.0140965395
25	0xbcfa8d7c	-0.030585043
26	0xbc8c31ca	-0.017113585
27	0xbca5ab64	-0.020223327
28	0xbcc1d154	-0.023659386
29	0x3ba70578	0.0050970875
30	0xbd394a0c	-0.045236632
31	0x3b8d2036	0.0043068184
32	0xbc9b45d4	-0.018954195
33	0xbc09c79b	-0.008409406
34	0x3ccf5f37	0.025313957
35	0xbc8b6231	-0.017014595
36	0x3d12066c	0.035650656
37	0xb2d3dab0	-2.466308e-08
38	0xbd2d78ee	-0.042351656
39	0xba7477c2	-0.00093257066
40	0xbb13c1b4	-0.0022545876
41	0x3cbb1ab8	0.022839889
42	0x1b1987e0	1.2699767e-22
43	0xbd180e5e	-0.037123077
44	0xbcbadec6	-0.022811305
45	0x3c511cfb	0.012763257
46	0xbb7b2189	-0.003831955
47	0x3c6506d6	0.013978681
48	0xbc1d8b5a	-0.0096157435
49	0xbc9c68fa	-0.019093025
50	0xbc985572	-0.018595431
51	0xbd073e8b	-0.03301863
52	0xbd0c97ff	-0.034324642
53	0x3c0178d5	0.007902344
54	0xb5f6cb9b	-1.8387685e-06
55	0xba13ba48	-0.0005635363
56	0xbcbaedfe	-0.022818562
57	0xb7c37f39	-2.3305054e-05
58	0x3cadca7e	0.02121472
59	0xbc83bc92	-0.016081128
60	0xbd2b4cb2	-0.04182119
61	0x3bfedf33	0.0077780723
62	0xb5100d0c	-5.3663166e-07
63	0xbd206f91	-0.039168898
64	0xbc313557	-0.01081594
65	0xb9c2e32d	-0.00037171823
66	0xbc8061b9	-0.015671598
67	0x2d4727e8	1.1320701e-11
68	0xbd33f2e0	-0.043932796
69	0xbb39aa7e	-0.002833038
70	0xbc47bb59	-0.012190663
71	0x3cc25ac9	0.02372493
72	0x3ce0857d	0.027407402
73	0x3c54b047	0.012981481
74	0xbba62751	-0.005070605
75	0xbd145a70	-0.03621906
76	0xb1146173	-2.1592228e-09
77	0x1aa11018	6.661404e-23
78	0xbc8165b8	-0.015795574
79	0xba6fdcf9	-0.0009150054
80	0xbd1e9e84	-0.03872539
81	0xbd0ae850	-0.033912957
82	0xbacb8816	-0.0015528228
83	0xbbee7c68	-0.007278014

fc3.weight f4 [10, 84]
0	0xbca18846	-0.0197183
1	0x38cbeba8	9.723689e-05
2	0xbda19283	-0.07889273
3	0x398d4753	0.00026946756
4	0x3b80a6e1	0.0039261435
5	0xbd20c60d	-0.039251376
6	0xbb738461	-0.0037157761
7	0x3747d71f	1.1911411e-05
8	0x3abe752c	0.001453077
9	0xbc09c6b9	-0.008409196
10	0x3b774974	0.003773299
11	0xbeacc5bd	-0.33744612
12	0xbae1a045	-0.0017213902
13	0x31648bea	3.3257899e-09
14	0xbdcd39de	-0.10020803
15	0xbddcf3e0	-0.10788703
16	0x3d9f53ae	0.077796325
17	0xbe23a9d1	-0.15982749
18	0xbb472767	-0.0030388476
19	0xbe0484d6	-0.12941298
20	0xbcfcc7fd	-0.03085708
21	0xbe268744	-0.16262537
22	0x8021744e	-3.072294e-39
23	0x3e85a728	0.26104093
24	0x3e107b2d	0.14109488
25	0xbe15c219	-0.14624824
26	0x3eda4495	0.4263045
27	0xbbfbb6ee	-0.007681719
28	0xbe4e8ec4	-0.20171648
29	0x3e09493f	0.13406847
30	0x3e449d2d	0.19200583
31	0x3c6933c6	0.014233535
32	0x3bdcdbec	0.006740084
33	0x3caacd2b	0.020849785
34	0xbe64a641	-0.22329046
35	0xbd6e7630	-0.05821818
36	0x3e3720dd	0.1788363
37	0x2e10fd16	3.2966595e-11
38	0xbe598dcb	-0.21245496
39	0x3a31ad70	0.00067778584
40	0xbdf140d5	-0.11779944
41	0x3e0f6aa1	0.1400552
42	0x20d39857	3.58456e-19
43	0xbdebec48	-0.115196764
44	0x3e67037b	0.22559921
45	0xbdde596c	-0.108568996
46	0x3e6632f9	0.22480382
47	0xbe1622b3	-0.14661674
48	0xbcf50e06	-0.029913913
49	0xbdb1cce9	-0.08681662
50	0xbd94298d	-0.07234488
51	0x3d7b7916	0.061394773
52	0xbc9757a0	-0.0184744
53	0xbd993bc8	-0.074821055
54	0xbc264af1	-0.010149703
55	0xbda823f3	-0.08209982
56	0xbcf57b55	-0.029966036
57	0x3159d1da	3.1696943e-09
58	0xbb8634a2	-0.00409563
59	0x3aea577a	0.0017878853
60	0x3d0fc2b8	0.035097808
61	0xbe01d33f	-0.1267824
62	0x3adb76b5	0.0016743751
63	0x3c6f1362	0.014592024
64	0xbd165879	-0.036705468
65	0xb966bac0	-0.00022004079
66	0x3d139f43	0.036040556
67	0x36bb20ef	5.5768683e-06
68	0xbcd163e0	-0.02556032
69	0xb9cc4fe1	-0.00038969427
70	0xbd02d3a9	-0.031940136
71	0x3e1d59b4	0.1536625
72	0x3ea1bead	0.31590787
73	0xbe0dd662	-0.13851312
74	0xbbd610ae	-0.00653275
75	0x3c78fc87	0.015196926
76	0x3b96b8c7	0.004599664
77	0xa1d27798	-1.426181e-18
78	0x3c898c12	0.016790424
79	0xba27ce95	-0.00064013276
80	0xbdc7393c	-0.097277135
81	0x3c2cb242	0.010540547
82	0xbcf0d8f9	-0.029400336
83	0x3d6f0273	0.058351945
84	0x3c476c64	0.012171838
85	0x3c573777	0.013135782
86	0x3d84e8b1	0.06489695
87	0xba36404e	-0.0006952331
88	0xbb2c42ab	-0.0026284854
89	0xbcdc4df4	-0.02689264
90	0x3b07c0cd	0.0020714283
91	0x38292afe	4.033278e-05
92	0xbbab5eab	-0.005229791
93	0x3abb1a89	0.0014274876
94	0xbdb526e7	-0.08845311
95	0x3dd05c3a	0.10173841
96	0x38479100	4.758034e-05
97	0x3700c63c	7.67555e-06
98	0xbe2f3149	-0.17108645
99	0xbe0e7e35	-0.13915332
100	0xbd299dd1	-0.04141027
101	0xbe56ab9c	-0.20963901
102	0x3a897643	0.0010487515
103	0x3e3e8275	0.18604453
104	0xbe1acb0f	-0.15116523
105	0x3e35aada	0.17740956
106	0x887ac4d5	-7.5463013e-34
107	0xbd39cd3d	-0.045361746
108	0xbdbff966	-0.09373741
109	0xbdc0fd64	-0.094233304
110	0xbd4fe18e	-0.050752215
111	0xbd3ec522	-0.04657472
112	0xbe265ad8	-0.16245592
113	0x3bcaafb0	0.0061854944
114	0xbd2322a1	-0.039827947
115	0xbcc73cfd	-0.024321074
116	0x3c1ea7e8	0.009683587
117	0x388d6448	6.742083e-05
118	0xbe1e63ef	-0.15467809
119	0x3e712ddc	0.2355265
120	0xbdfd4f2e	-0.12368618
121	0xaf9a41b5	-2.8059124e-10
122	0x3ced2c65	0.028951833
123	0x3ccbd890	0.024883538
124	0xbd0dcfb9	-0.034621928
125	0x3e11579b	0.14193575
126	0x91273239	-1.3189453e-28
127	0xb9965e33	-0.00028680413
128	0xbc219568	-0.009862281
129	0x3eadf86c	0.33978593
130	0x3e81b29d	0.25331584
131	0xbe820f3e	-0.25402254
132	0xbc031de8	-0.008002736
133	0xbe1cce39	-0.15313043
134	0x3d32d0ce	0.043656163
135	0xbc8dac3c	-0.017294042
136	0xbd6b679a	-0.05747185
137	0x3e8083f4	0.25100672
138	0x3c3382f9	0.010956519
139	0xbe27150b	-0.16316621
140	0x3cf6bf54	0.03012053
141	0xb4c982ee	-3.753443e-07
142	0x3e8f849b	0.28030857
143	0x3b2e3466	0.0026581525
144	0x3e2696fc	0.16268533
145	0x3d160fe4	0.03663625
146	0xb2e3990c	-2.6495876e-08
147	0x3d07f620	0.033193707
148	0x3e8a3201	0.26991275
149	0xb6bfbe88	-5.7144243e-06
150	0xbe2f8c7f	-0.17143439
151	0xb583c455	-9.817401e-07
152	0xbd96e26a	-0.07367404
153	0xbc9b7b18	-0.018979594
154	0xbd9d2fef	-0.07675158
155	0xbdd7640e	-0.10517131
156	0xbe026ad3	-0.12736063
157	0xbdb9bd0f	-0.09069263
158	0xbce9d537	-0.028544052
159	0xbd830dd9	-0.063991256
160	0x36374644	2.7310025e-06
161	0x869c2cfc	-5.8746777e-35
162	0xbc4e29cd	-0.012583208
163	0xb54b72ab	-7.5790257e-07
164	0xbcb094eb	-0.021555385
165	0xba51414a	-0.0007982446
166	0x3e87a2ef	0.26491496
167	0xbbb09d57	-0.00538985
168	0xbb82c9c4	-0.0039913375
169	0xb9de64ff	-0.00042418388
170	0x3e3a9d3c	0.18224043
171	0xbba8f94b	-0.005156671
172	0x3b1fa9cc	0.0024362681
173	0x3c0f3cd0	0.008742526
174	0xb8f9cbb8	-0.00011911191
175	0x3bff3363	0.007788108
176	0xbb89e6ab	-0.004208406
177	0xbc9a6cbf	-0.018850682
178	0x3c2252d9	0.009907448
179	0x3e5eff20	0.2177701
180	0xbc3cd511	-0.011525408
181	0x3a3a0ac9	0.0007096944
182	0xbd8f560c	-0.06998834
183	0xbe3e9eff	-0.1861534
184	0xbd3c631f	-0.045992967
185	0x3ea70ec8	0.32628465
186	0xbb0e2a1e	-0.0021692584
187	0x3d25554a	0.04036454
188	0x3d3dfa78	0.046381444
189	0xbeb0a0e1	-0.3449774
190	0xba21f21c	-0.00061777397
191	0xbde88510	-0.11353505
192	0x3c61a8a8	0.013773121
193	0xbcec8563	-0.028872197
194	0xbe2e4086	-0.17016801
195	0xbc6d10ea	-0.014469365
196	0x3e059914	0.13046676
197	0x3e3149b1	0.17313267
198	0x3bfe72b6	0.0077651395
199	0x3c8837e6	0.016628217
200	0x3d1acebd	0.037794817
201	0x3ceccbdb	0.0289058
202	0x3e9cfde3	0.3066245
203	0xbe80e187	-0.25172064
204	0x3d609426	0.054828785
205	0x33137580	3.433297e-08
206	0xbc553432	-0.013012933
207	0xbc8bda89	-0.01707198
208	0x3ccab58e	0.024744775
209	0xbeb85b46	-0.36007136
210	0x90d128c4	-8.2498774e-29
211	0xbe249eae	-0.16076156
212	0x3e25c26d	0.16187449
213	0xbe3be77c	-0.18350023
214	0x3dc3000d	0.09521494
215	0xbe523e3d	-0.20531555
216	0xbd23ba59	-0.039972637
217	0xbdfa82a0	-0.12231946
218	0xbe54892e	-0.20755455
219	0xbe083f44	-0.13305384
220	0x3dc7abdb	0.09749576
221	0x3de91660	0.11381221
222	0x3c1b1c57	0.009467206
223	0xbd2b61dd	-0.041841377
224	0xbc5aafa1	-0.013347537
225	0x36267ab2	2.4807346e-06
226	0x3dd73e15	0.10509888
227	0xbcd2c1d8	-0.025727198
228	0xbe9db662	-0.3080321
229	0x3e31772d	0.17330618
230	0x392d13ad	0.00016505895
231	0x3c238360	0.009980053
232	0xbb301e37	-0.0026873478
233	0x38cac062	9.667945e-05
234	0xbe9af889	-0.30267742
235	0x3984acfc	0.00025305885
236	0xbeaf6b7c	-0.34261692
237	0xbaf51924	-0.0018699509
238	0xbe110e1b	-0.14165537
239	0x3d3ddaca	0.04635123
240	0x3eb9596d	0.3620104
241	0xbda87b41	-0.08226634
242	0xbc787138	-0.015163712
243	0x3d0235e5	0.03178968
244	0xb6e5b086	-6.845282e-06
245	0xac07c77a	-1.9295386e-12
246	0xbd7a09ad	-0.061044384
247	0xbae9d938	-0.0017841225
248	0x3e21dd62	0.15807107
249	0xbcdbb6eb	-0.02682062
250	0x3d53f0fa	0.051743485
251	0xbd0eb33a	-0.034838893
252	0x3d084e2e	0.033277683
253	0x39212a3a	0.00015369887
254	0x3e20e4d4	0.15712291
255	0x3db1d43c	0.086830586

fc3.bias f4 [10]
0	0xbbb6fe2b	-0.0055844984
1	0x3cd97a6c	0.026547633
2	0xb8fe89f8	-0.000121373625
3	0xbcd2658a	-0.025683183
4	0xbd494f9e	-0.049148194
5	0x3ca1883d	0.019718284
6	0xbd630bba	-0.055431105
7	0xbcc3d198	-0.023903653
8	0x3ddf46cc	0.10902175
9	0x3a84eaa5	0.001014073
