Models/lenet_mnist_lr_0.0001_wd_1e-05_16_120.pth (torch, 250908 bytes, 10 tensors)

conv1.weight f4 [6, 1, 5, 5]
00000000: 99ed 3b3e cc4a e1bb 0ce7 1ebe 2eb4 13bd
00000010: 6a2f 7e3c 0d42 ae3e cffc ea3d 2ee0 95be
00000020: 80aa 82be 8235 abbd ef79 033e 6b6e 903c
00000030: 5b3f 6c3e 9bf5 c63d 564d 5e3e abbe b3bd
00000040: 1a99 943e 967c b73e 12ab 1a3e 4b38 233e
00000050: 9ee4 dfbc 39f2 14bd 4177 39be 1bea b0bd
00000060: b048 0ebd c179 06be 69e4 61bd 45d0 90be
00000070: cce1 883d 4cf7 d13d d1cc b93d 75cd 333e
00000080: 444d 41be e24b 363d 68fc 0cbd 274b efbc
00000090: 6678 7a3d b657 d43b ea61 4c3d 8d4f 863d
000000a0: 6e69 7d3d dab5 723e 8ab3 fe3d 0f9b 953e
000000b0: 0aa0 bfbd 798e b63e 90c6 e63e fc68 9e3e
000000c0: 7e44 b73e f67c af3d f46d cf3c 7d82 593e
000000d0: 81b0 3d3e a80c 103e 6f1a 0cbe e6ed d43e
000000e0: c580 f53e 0370 d23d e653 cd3d ea6e 0b3e
000000f0: 768d 57bb 69ba 7f3e c956 8b3e 0add acbd
00000100: 68d7 0fbe 8c5e fdbd a2ca 91be a60a 763e
00000110: 03c0 223e 1c36 62bd 1329 d3be a1d5 72bc
00000120: cd68 84bd 13c2 913d 85f6 9fbd df48 e2bd
00000130: 7e2b aebd ce95 b33d 61fa 853e 31de b53d
00000140: bd33 7fbd fe70 4bbe 5060 7a3e e821 973d
00000150: 1fb3 863e ad83 5abe ea6e b13c 44aa 913e
00000160: 76b4 cf3e 258e ae3e a44d c2bd 463e 563e
00000170: 9d68 833e 757c b13e 3b04 793e cfec 783d
00000180: 4f55 b33e 1967 b13e 00bb 683e c865 163d
00000190: c872 a5bc 1f19 853d 8abf 163e d8f1 213e
000001a0: 94db bc3d d774 6dbe 78f1 c7be 8675 a0be
000001b0: 473e 17be ac54 dfbc d26f 8ebe 2806 80be
000001c0: fa54 84be f74d 91be fd64 21be 0c80 4c3e
000001d0: e411 c83d f326 c73c b80c 213e 328d bcbc
000001e0: b786 df3e 545a a13e 3acf d43e 224b da3d
000001f0: d5b2 283e ddbb 3c3d 5895 1bbe 237a 02be
00000200: c424 05be d288 df3d 4f48 59bb 17ae 9dbe
00000210: 694a 48be 518d 59bd c109 b23e b51b 5bbe
00000220: f113 3ebe 4fc9 8ebe 3bc6 e63d 7079 ab3e
00000230: cf08 1abe 7505 82be d65a 633d d917 2a3e
00000240: e0c7 0e3e 0174 1fbe d55d 03be 8ce5 e3bd
00000250: 4bc4 4d3e dd99 6d3e
0.18352355 -0.0068753716 -0.15517825 -0.036060505 0.015514234 0.34034768 0.11474001 -0.29272598
-0.25520706 -0.08359815 0.12839483 0.017630776 0.23071043 0.09714814 0.21709189 -0.087766014
0.29023057 0.3583724 0.1510432 0.15939443 -0.027330693 -0.036363814 -0.18111898 -0.08638402
-0.03473729 -0.13132383 -0.05514947 -0.28283897 0.06683692 0.10252246 0.09072269 0.17558844
-0.18877131 0.04450596 -0.0344204 -0.02921064 0.061149977 0.0064801825 0.049898066 0.06558142
0.061868124 0.23702183 0.12436588 0.29219863 -0.09356697 0.35655573 0.45073366 0.30939472
0.35794443 0.08568756 0.025320984 0.21241184 0.18524362 0.14067328 -0.13681959 0.41587752
0.47949806 0.10275271 0.10025768 0.13616529 -0.0032890714 0.24973454 0.2721465 -0.08440597
-0.14047015 -0.12371549 -0.2847491 0.240275 0.15893559 -0.055227384 -0.41242275 -0.014821441
-0.06465302 0.07117095 -0.07810692 -0.11049055 -0.08504389 0.08768807 0.26167586 0.0888027
-0.0623052 -0.19867322 0.24450803 0.07379514 0.26308534 -0.21339293 0.021659333 0.28450215
0.40567368 0.34092823 -0.09487465 0.20922193 0.2566575 0.34665266 0.2431802 0.060772713
0.35026023 0.3464897 0.22727585 0.03671816 -0.020196334 0.06498932 0.14721504 0.15814912
0.09221569 -0.23189102 -0.39051414 -0.31339663 -0.1476985 -0.027262054 -0.27819687 -0.25004697
-0.25846082 -0.28379795 -0.1576118 0.19970721 0.09769037 0.024310565 0.15727508 -0.023016546
0.43657467 0.31514227 0.4156435 0.10658862 0.16474469 0.046077598 -0.15193689 -0.12741904
-0.13002306 0.10914768 -0.0033154672 -0.30796883 -0.19559635 -0.053113285 0.34773067 -0.21397288
-0.18562295 -0.2788796 0.11268278 0.33491087 -0.15042423 -0.25394788 0.05550655 0.1661066
0.13943434 -0.15571596 -0.12828763 -0.11127767 0.20094411 0.23203225

conv1.bias f4 [6]
00000000: 7f83 af3e e12c 963e c36b 103e e6f5 523e
00000010: c2b4 6b3e 7968 083e
0.3428001 0.29331115 0.14103608 0.20601615 0.23018172 0.13321103

conv2.weight f4 [16, 6, 5, 5]
00000000: b838 c2bd 0df0 de3d 49f5 1a3e 5d3a 6d3d
00000010: 0b7a 313d 9675 abbb 77f4 a0b9 d8bf 153e
00000020: 27e4 173e d54d 853d deda 02be 2599 d4bd
00000030: f2e0 b7bd 12c9 5abc f7aa f63d ccea b4bd
00000040: b2cd 12be fe50 e9bd a64e 39bd f407 443d
00000050: 4ca7 123e 0351 97bd 5571 b3bd 3ed1 ddbd
00000060: 36d2 2e3d bb2a 57bd 3506 a93d f76d 583d
00000070: 4564 083e 5521 afbc 0465 29be 7fae a9bc
00000080: b8cd c3bd 95a0 763d ab9d ef3d af57 b7bd
00000090: f1d2 e3bc 3e96 1cbe b9e6 8bbd 231e 283c
000000a0: 45b4 11bc 0d4e 2abd a6e2 28bd 7e1f 68bb
000000b0: 0052 963c 449d 9b3d a45a c53d e9a8 e63d
000000c0: f897 37bb dcd2 afbc 42c7 923d 8db1 de3d
000000d0: fae7 153e 3fec 453c 81b4 8cbd 0731 dfbc
000000e0: 545e 8c3d 3aa6 7e3d 9d82 d33d 58e2 f73d
000000f0: 62c7 90bd 0057 c3bc 04a4 973d 922b f43d
00000100: c175 093e 22ed 05be 441b 46be c767 f5bd
00000110: fe69 b43d b079 ff3d 18f4 903d 8396 19be
00000120: 11a3 a63b 7d5e 9dbd 6ac5 82b8 d08b 48bc
00000130: de6d 963b da04 2fbc e0f1 c73c 91c5 71bc
00000140: d9dd bbbd f332 563d 768d 6d3d edf8 153c
00000150: 5b20 9dbd 2fec fbbd ca86 c3bd d996 0abd
00000160: 356a 2e3e 45bb 893d ec60 95bd 2d20 08be
00000170: e767 923d 4e43 8e3d 6848 98bd 4678 cd3d
00000180: b2be c5bc 1ac6 d6bc 7ab4 ce3d a7d7 94bd
00000190: cf64 a8bd 71c1 d43c 386c 1f3e 41c7 303e
000001a0: 577c 2b3e 4ec0 1b3d 14db df3c 1192 08bd
000001b0: e2be a73c c594 373d 2767 073e 4ae8 183e
000001c0: 3a0a bc3c 563b 74bc 119b 0bbd c063 213e
000001d0: 5eea 9b3d 56e5 903d db1d 9abc 5708 70be
000001e0: adae 90bd 7cf3 a33c 35c0 aabc aa85 1fbe
000001f0: 9b23 50be 85ff 183d 45ee 18bd b051 24be
00000200: ac0a 38be 3df1 49be 68af d2bc dcb3 60bd
00000210: 41df 26be 4ef5 39be 9387 f2bd db90 e1bc
00000220: 3e52 dabd a0cf d33c ff99 603d 7534 42bb
00000230: 23c2 19bc 0c00 05be 2f64 6a3b f6e2 953d
00000240: 13ef 9b3d 5fbf b8bb 2623 ea3c ee94 bfbc
00000250: 39f6 4b3d 7d4e 043e 11e9 a03b 75be 833d
00000260: 3bfb 2d3d 6ab4 0a3e ed1d a13d 0a00 eb3b
00000270: 06b4 f33d 5e23 1a3d 66a3 e3bd 3d51 ed3c
00000280: dc20 1a3d 2176 99bd ce58 e4bd 6297 3ebe
00000290: 5aad 47bc 71bc 13be 2b5a 23be ee4d 05be
000002a0: aaf7 b4bd 13bb ce3b e636 bdb9 de28 cd3c
000002b0: 7304 913c 6f33 db3b a25b c7bd 7f6e 293d
000002c0: 7789 8a3d 3ee7 62bd 161d 813d 861c 793d
000002d0: 74d8 053b a878 87bd b291 06be 8176 0abe
000002e0: 3c2d c03c 2e41 ddbb 6784 10be b4b9 79bd
000002f0: 43f1 083b b0db cf3d c38e e3bd 4d5a 5cbc
00000300: fa58 b03d 5487 863b 8cd3 c43c 19ea 893d
00000310: 62b4 693d bbdf d53d 9392 8a3d 66ad a8bd
00000320: 4fb5 9c3d 776f b7bd 16cf afbd b040 193c
00000330: 6ea5 133e 5547 b63d a7ed 203c 810c aabd
00000340: a57b 4a3d d731 0c3e 9cc6 1b3e 0ee9 ddbc
00000350: 6f8d 903c 663c e5bc 2dbb bfbc c585 0abe
00000360: a9e1 5bbe d8bb 2dbe 8e22 06be 8eb9 71bd
00000370: ee40 08be 2700 debd 9aed f7bd 8ac9 ec3c
00000380: 066d 003d f2dd 223e 12df 03bc 7b8b 2dbd
00000390: f756 b23b 90ec 983d 1fbd 0e3e 3c6a 7bbd
000003a0: 2db0 37bc 37cb 1dbb debf 023d 7387 cfbd
000003b0: ec99 14be 4615 cfbd 157c cb3c 447d 1c3e
000003c0: 5695 00be ac31 bfbd a308 0f3d ceb9 2e3e
000003d0: 6b68 a93d 158f 963d e65d 183e 4b58 a83d
000003e0: 74f9 bc3d 9a0f 7cbd e7f2 76bd 5e64 99bd
000003f0: ff68 403d 4de6 91bb b5f8 623c 271f 05be
-0.094834745 0.1088563 0.15132631 0.057916988 0.04332928 -0.005232523 -0.0003069972 0.14623964
0.14833127 0.06508986 -0.12778804 -0.103807725 -0.08978452 -0.013353603 0.12044328 -0.088338464
-0.14336279 -0.11392401 -0.04524102 0.047859147 0.14321631 -0.07388499 -0.08761851 -0.108309254
0.04268094 -0.052530985 0.08253137 0.052839246 0.133195 -0.021378199 -0.1654244 -0.020713089
-0.09560722 0.060211737 0.11699995 -0.08952271 -0.027810546 -0.15291688 -0.06831116 0.010261091
-0.008893077 -0.04157834 -0.041231774 -0.0035419161 0.018349648 0.075983554 0.09636429 0.11262686
-0.0028014164 -0.02146285 0.07166912 0.10873709 0.14639273 0.012080251 -0.06870366 -0.027245058
0.06853929 0.062170245 0.10327647 0.121037185 -0.07069279 -0.023845196 0.074043304 0.11922373
0.13423826 -0.1307874 -0.19346339 -0.119826846 0.08809279 0.12474382 0.07077807 -0.14998822
0.005085357 -0.07684038 -6.235654e-05 -0.012240365 0.004590734 -0.010682309 0.024407327 -0.014756576
-0.091731735 0.052294683 0.057996236 0.009153587 -0.07672187 -0.12300908 -0.09547193 -0.033835266
0.17032702 0.06725172 -0.07293877 -0.13293524 0.07148724 0.06946431 -0.074356854 0.10032706
-0.024138782 -0.026217509 0.10093017 -0.07267695 -0.08222353 0.025971146 0.15568626 0.1726351
0.1674665 0.038025193 0.027326144 -0.033342425 0.020476762 0.044819612 0.13222943 0.14932361
0.022954095 -0.014906725 -0.03408343 0.15760708 0.07613061 0.07074992 -0.018813064 -0.23440681
-0.07064567 0.020013563 -0.020843605 -0.15578333 -0.20326082 0.037353057 -0.037336607 -0.16046786
-0.17972821 -0.19720931 -0.025718406 -0.054859027 -0.16296102 -0.18159983 -0.11842265 -0.027534893
-0.10660218 0.02585584 0.054834362 -0.0029633318 -0.009384665 -0.12988299 0.003576528 0.0731868
0.07613959 -0.0056380476 0.028581213 -0.023386445 0.049795363 0.12920566 0.004910596 0.06432811
0.04247592 0.13545385 0.07867036 0.0071716355 0.11899571 0.037631385 -0.1111515 0.028969401
0.037628993 -0.074932344 -0.11149751 -0.18612435 -0.012187326 -0.14427353 -0.15952365 -0.13018009
-0.08836301 0.006308922 -0.00036089792 0.025043901 0.017702317 0.006689481 -0.097342744 0.041365143
0.067645006 -0.05539631 0.06304376 0.060818218 0.0020423206 -0.0661481 -0.13141516 -0.13521768
0.02345907 -0.006752155 -0.14113007 -0.060968116 0.0020895756 0.10149324 -0.11111214 -0.013449264
0.08610721 0.004105488 0.024026655 0.06734104 0.057056792 0.10443064 0.06766238 -0.08236198
0.07651769 -0.08956807 -0.085844204 0.009353802 0.14418575 0.08900324 0.009822286 -0.08303166
0.049434323 0.13690887 0.15212482 -0.027088668 0.017645566 -0.027982902 -0.023404682 -0.13527592
-0.21472801 -0.16966188 -0.13099119 -0.05901485 -0.13306019 -0.10839873 -0.12105866 0.028904695
0.031353973 0.15904978 -0.00804879 -0.042369347 0.005442496 0.07466996 0.13939331 -0.06138061
-0.011211437 -0.0024077424 0.03192126 -0.10133257 -0.14511842 -0.101114795 0.02483944 0.1528216
-0.12556967 -0.09335646 0.034920346 0.17063066 0.08271869 0.073515095 0.1487957 0.082199655
0.09227267 -0.061538316 -0.060290243 -0.07489847 0.046975132 -0.004452503 0.013853242 -0.13000165

conv2.bias f4 [16]
00000000: fe24 a2bc b7f7 03bd b68f 60bd 28fe a13c
00000010: 4687 033d d522 4d3c 3a77 223d a966 2a3d
00000020: 2319 1bbc 9bb9 643c 8573 29bd 133b 9a3d
00000030: b9a3 933d 58a4 563d cd6f 743d cf4e a33d
-0.01979303 -0.03221866 -0.054824553 0.019774511 0.03211143 0.012520512 0.039664485 0.04160181
-0.009466442 0.013960267 -0.041369934 0.07530799 0.07208962 0.052402824 0.059676934 0.07974016

fc1.weight f4 [120, 400]
00000000: 34fb 903c f7ad 54bd acde 4c3d 7e2b 8bbb
00000010: c19b b8bd 289d 353c 76f3 c23b 91da bcbd
00000020: c6ed e7bd 8f98 cb3d 3f47 393d 4bd3 53bc
00000030: 3ba9 98bc d934 ac3c 5739 863d ac88 ea38
00000040: 01da a0bd 4a79 fabc 17d7 033b 4740 50bd
00000050: 723a 2c3d 6c35 b3bb bf10 f33a 245b 8f3d
00000060: b2f6 d7bc 24aa 9bbd 4aea a6bc fd54 183d
00000070: 3d80 043e 0d48 8f3d 5534 023d 2c44 9d3d
00000080: 4358 a1bc 22b5 b73a f94c a23d ae3e 493d
00000090: e049 9b3c b4c7 08bd 7258 d43c 355f 0abe
000000a0: d608 ae3b 71df 56bd 3f45 b2bc 5373 0fbd
000000b0: 3a5b 6ebd 1821 97bd 76fb c6bd 8181 b7bc
000000c0: 9daf 8b3d e280 f23d 0bde f13c b098 77bd
000000d0: 583e 56bd 44bb 083d 384c e63c 3ae5 78bc
000000e0: 5208 13bd d7e6 c83d fa76 79bd 0f4f 4abd
000000f0: 2043 ceba ea19 07bb 53a0 a9bc 8992 f63b
00000100: 13ce 82bd d42e 713d cd94 9d3d 0d71 c8bc
00000110: ffda 59bd 621e 9bbd b46d 07bc a764 f83c
00000120: 983b 9dbd d0ab f7bc c33e 243d a5e9 15bc
00000130: 62b7 423c cb5b c63b caf5 7f3c de8a 363b
00000140: 58a6 88bd 3db2 2abb 0bcb 84bc 2c54 d43b
00000150: 3c54 9a3c 08d8 05bd 37fc 0abd 45cd 403d
00000160: 865b 1a3c 879d c4bc ffb1 763d d8ca 2f3c
00000170: 14e4 4c3d cd32 ecbc d8d6 a23b a7c4 c6bb
00000180: 7e6e 35bd 82cd 80bd 35be 03bc 79f7 43bc
00000190: f69a 053d 03ed 263d 3d51 e03c 0b2f 3cbd
000001a0: e0e8 043d 222c a7bd 9f6d 94bd a501 0cbc
000001b0: df29 a43a b51a 3d3d 56cf 57bd 9ed4 793d
000001c0: 57bd 803d 96c9 1fbd 6d36 3c3d 6613 4a3d
000001d0: cf0a 4c3d e8fa 523d 8894 063d ee68 11bd
000001e0: 63bd 20bc 3594 873c 3f6f 493d c862 f4bc
000001f0: 0326 3dbd 7018 003d c6a8 333d aadf 563d
00000200: 5b23 bebc b564 8b3d defb f8bc 4911 a6bc
00000210: f5d5 923d d257 38bd 798d 4cbc 8dec 763d
00000220: d850 aebc 6103 7e3d 0668 7ebd 1ddf 9fbd
00000230: f3b5 3b3d 026d e73c fb67 60bc 9375 443d
00000240: 6e98 aabd 6533 e13c 77ca 87bd c6a4 6dbd
00000250: fa51 1d3d 0829 96bd f187 273d b338 373d
00000260: ba4f 813d 955c ea3d e762 0c3e 314b 2bbc
00000270: c04e 31bc 2d45 33bc 62d6 2f3c 1995 953c
00000280: ec4c febc 4fdc d5bb ef46 153c 0ebc 96bc
00000290: 2d52 9ebb 2e32 1e3c 6902 a33c 1ba2 8e3c
000002a0: 03f5 0c3c 8a16 2f3d 6ddb 973c e342 313d
000002b0: 9ac2 d7bc 7569 16bd 9088 7b3d 2668 073d
000002c0: 4bb6 e9bc 401b 25bd 4ad9 093d 7572 0c3d
000002d0: 709d ae3c 3d07 75bd e69e 03bd c04a d23d
000002e0: c135 5b3d 6200 07bd 2580 183d 580f 8a3c
000002f0: bb58 a1bb 0e16 3cbd 9541 58bd 38d2 f43c
00000300: 6c90 b83a cc7d 703d 02bd 9b3d 4992 063d
00000310: 1ceb 6dbb 5c88 003d 30a1 553b 000f b1bd
00000320: b6ba d7bc e9b7 89bd 5e2b 00be 7fa7 47bd
00000330: eb6d 2f3c aca1 04bd 8008 62bd 07ee 51bd
00000340: a069 9cbd 3230 5ebd f3cc 8f3d 5c18 7dbd
00000350: 4b4e d93a 507f 403d 37b3 bc3c 8371 273e
00000360: 4161 553d d436 333d fe4b c43d dd1b 6f3d
00000370: 7748 a6b9 f613 133d 433f 9d3d 3d43 ba3c
00000380: fa92 02bd 093c 2f3c e863 fe3c 5441 b9bc
00000390: c0cb 12bd 93c0 c7bc 1019 b4bd 37ac 93bd
000003a0: eb4f 2ebc 274f 033a 881c 8abc 1456 653c
000003b0: e275 11bc 4fa4 90bd 9c92 ea3c c619 843d
000003c0: c32a 033b c150 2d3b a6d0 cfbc 16c7 863c
000003d0: 252d c5ba c370 a03c 39ee 5c3d aa03 693d
000003e0: f4bf a6bc 5af9 bebc 58c1 363c 93e8 a6bc
000003f0: 06ee a7bc 5db6 833d 474a 603c a39c 5cbd
0.017697908 -0.05192372 0.050017044 -0.004247128 -0.09014083 0.011084832 0.005949433 -0.09221376
-0.113246486 0.099412076 0.04523396 -0.012928794 -0.018635383 0.021021293 0.065539055 0.000111834466
-0.07854081 -0.030575413 0.0020117217 -0.05084255 0.042047925 -0.005469015 0.001854442 0.069998056
-0.02636275 -0.07600811 -0.02037539 0.037190426 0.12939544 0.069961645 0.03178819 0.076790184
-0.019695407 0.0014015774 0.079248376 0.04913204 0.018956125 -0.033393577 0.02592108 -0.13512881
0.005311112 -0.052459184 -0.021761535 -0.03502209 -0.05819247 -0.07379359 -0.09715931 -0.02240062
0.06820605 0.11840989 0.029524824 -0.06044835 -0.05230555 0.033381715 0.028112516 -0.015191371
-0.035896607 0.09809654 -0.06090448 -0.049391802 -0.0015736558 -0.0020614811 -0.020706331 0.0075247926
-0.06386962 0.05888255 0.07694397 -0.02446797 -0.053187367 -0.075741544 -0.008265901 0.030321432
-0.07677382 -0.030233294 0.040098917 -0.0091499435 0.011884542 0.006053423 0.0156225655 0.0027853767
-0.066723526 -0.002604618 -0.0162101 0.0064797606 0.018838994 -0.032676727 -0.033931937 0.04707076
0.009421235 -0.024000896 0.060228344 0.010729514 0.0500222 -0.028832817 0.004969459 -0.0060659233
-0.044294827 -0.062891975 -0.008040954 -0.011960858 0.032618485 0.040753376 0.027382487 -0.0459433
0.03244865 -0.081627145 -0.07247471 -0.008545314 0.0012524686 0.046168048 -0.052687965 0.060993783
0.06286114 -0.039010607 0.045950342 0.049334906 0.049814995 0.051508814 0.032856494 -0.03550046
-0.009810778 0.016550163 0.04917836 -0.029832259 -0.04617883 0.031273305 0.043862127 0.052459396
-0.023210218 0.06806318 -0.030393537 -0.020271914 0.07169715 -0.045005627 -0.012484902 0.060284186
-0.021278784 0.06201494 -0.062110923 -0.07806227 0.045827817 0.028250221 -0.013696666 0.04796369
-0.08329855 0.027490327 -0.06630414 -0.05801847 0.038408257 -0.07332045 0.04090113 0.044731807
0.06314035 0.1144344 0.13709603 -0.010454939 -0.010821998 -0.010941786 0.010732265 0.018259572
-0.031042539 -0.006526507 0.00911115 -0.018400218 -0.0048315735 0.009655518 0.01989861 0.017411282
0.008603337 0.042746104 0.018537248 0.04327668 -0.02633791 -0.036721665 0.061409533 0.033058308
-0.028529307 -0.04030919 0.03365449 0.034288842 0.021315306 -0.059821356 -0.03213396 0.10268164
0.05351806 -0.03295935 0.037231583 0.01685302 -0.0049239076 -0.04591947 -0.05279692 0.029885396
0.0014081127 0.05871372 0.0760441 0.032854352 -0.0036303466 0.031380042 0.0032597296 -0.08645439
-0.026334148 -0.06724531 -0.12516543 -0.04874372 0.010707359 -0.032380745 -0.055183887 -0.05125239
-0.07637334 -0.05424518 0.07021513 -0.06179081 0.0016579119 0.046996415 0.023034675 0.16351895
0.0520947 0.04375346 0.09584807 0.058376182 -0.00031715978 0.035907708 0.07678082 0.02273714
-0.03187845 0.010695466 0.031053498 -0.022614159 -0.035838842 -0.024383819 -0.08793843 -0.07210582
-0.010639171 0.0005009048 -0.016859308 0.013997573 -0.008878203 -0.070625894 0.028634362 0.064502284
0.0020014502 0.0026445838 -0.025368046 0.016452353 -0.0015043361 0.019585019 0.053938124 0.05688826
-0.020355202 -0.02331226 0.011154495 -0.020374572 -0.02049924 0.064312674 0.013689584 -0.053860318

fc1.bias f4 [120]
00000000: 6ec0 013d 661b d33b d68e 9c39 a81c bbbc
00000010: 2677 883c 78d3 cb3c 1a97 6c3d e4b2 fdbc
00000020: ba94 663d 0ade 423d 7c7b da81 0d4c 99bc
00000030: b9d6 c53b 8894 653d 1378 ec3a 3e14 e63c
00000040: 1a4a f2bc 4bba aa3c 2a95 49ba 0cd9 1dbd
00000050: 3d08 173d d8db 393d 23a3 653d bc6d 18bb
00000060: 67a6 d23c 4f0f b682 21c5 0dbd 90d9 d082
00000070: 54f5 6fbc edf5 8c82 6799 5c3c d955 d6bc
00000080: 6054 633d 35ea 803c 340b 293c 307d a53c
00000090: f9a7 79bc 186e 4e3d 7bb4 f43c 0904 f0bc
000000a0: 2651 25bd b54f 903c c396 ac3c 90f4 4d3d
000000b0: d8c5 f9bb 7e4a 4cbd ba4f a9b9 26c3 473c
000000c0: 8e62 24bd 758b 843c f036 0ebc fbe7 5438
000000d0: 6e15 033d d907 163c e77d 583d ae71 bf82
000000e0: df7c 2dbd 921b 6d3d 49a1 80bb 3167 08bc
000000f0: b46a 1901 8346 463c 4351 8eb9 f3cd 743d
00000100: 3f0f da3c 26f7 eebb c64a 58bc 4b39 d53c
00000110: 8fff 61bc 3d0a a5bc c065 38bc 8261 1f3d
00000120: f75e 75ba 295e 8f3c a624 cabc 5378 b482
00000130: eaaa d73c 0000 6e3c 01a8 81bc f540 903c
00000140: c3f0 2d3d ed37 d1bb 6a22 e8bc 7067 c6bb
00000150: 7b67 453d d89a f8ba 49b4 583d 1e21 213b
00000160: 554c 1c3c 4cc4 4f3b ef36 8f3d 0878 3dbc
00000170: c037 e3bc 59fa c83b a263 173d c14d 6c3c
00000180: 19d2 3783 675d c2bc 1f42 373d 0717 51bc
00000190: 35ae aa3c e35e 0f3c 98b2 273c 118b b402
000001a0: 56e3 18bc b608 a03d 6f44 1a3b c9ba 113c
000001b0: 9000 3dbd 588a b7bc 97fe 4d3c d8fa a6bc
000001c0: f26a 4602 f220 9d02 e9e7 c182 0f77 e93c
000001d0: d964 393d 4bc6 803c d96e bd3c a522 f33c
0.031677656 0.006442475 0.0002986106 -0.022840813 0.016658377 0.02488111 0.05776129 -0.03096909
0.05629418 0.047575034 -8.0257744e-38 -0.018713022 0.00603756 0.056049854 0.0018041156 0.028085824
-0.02957635 0.020840785 -0.00076897687 -0.03853707 0.03687309 0.045375675 0.056063782 -0.0023258766
0.025714112 -2.6751283e-37 -0.034611825 -3.0687728e-37 -0.014645893 -2.0712306e-37 0.013464308 -0.026163982
0.05550039 0.015736679 0.010317612 0.020201296 -0.015237802 0.050397962 0.029871216 -0.0292988
-0.040360592 0.017616132 0.021067983 0.05028206 -0.0076224618 -0.04987573 -0.00032293593 0.012192523
-0.04013305 0.01617978 -0.00868009 5.0760787e-05 0.03200286 0.009157144 0.052854445 -2.8130177e-37
-0.042355414 0.05788762 -0.0039254767 -0.008325384 2.8178218e-38 0.012101772 -0.00027144895 0.05976672
0.026618598 -0.007292646 -0.013201421 0.026028296 -0.01379384 -0.020146484 -0.011254728 0.03891135
-0.0009360159 0.017500954 -0.024675678 -2.6517686e-37 0.026326615 0.014526367 -0.01582718 0.017609099
0.042465936 -0.0063848407 -0.028336722 -0.006054811 0.04819439 -0.0018967045 0.05290631 0.002458639
0.009539683 0.0031702695 0.069928996 -0.011564262 -0.027736545 0.0061333594 0.03696025 0.014422835
-5.4020047e-37 -0.023726178 0.044740792 -0.012761838 0.020835022 0.00875065 0.010235451 2.6528443e-37
-0.009331545 0.078141615 0.0023539325 0.008894631 -0.046143115 -0.022404835 0.012572906 -0.020383283
1.4577434e-37 2.3087986e-37 -2.849191e-37 0.028499154 0.04526219 0.015719553 0.023124145 0.029679606

fc2.weight f4 [84, 120]
00000000: 18de 463e aea8 153e 04cb d73b 4fa5 003d
00000010: f3e2 94bd 09dd 9bbd b577 88bc 20a7 95bd
00000020: f034 ba3d 4e4e 82bd 95b6 b582 d7b5 f4bd
00000030: 4756 9bbd c781 203d adcc a23c a520 0abc
00000040: b0de 2cbc d754 eebc 1038 10bc 8a81 243d
00000050: 15b0 bfbc 368c a43d f2f1 07be 32ac 66bd
00000060: f54a 1fbd 49cb c582 186c 073e 4662 c082
00000070: bc3f b23c be09 6d81 ee7b 123d 309c fb3d
00000080: 09f2 b0ba cff7 7f3d feda fbbd a0e2 ea3d
00000090: 8630 083c 3c28 08bd 9470 193d 390f 0fbd
000000a0: 08e6 f63d d2c3 8f3d 3542 283d d0f9 e3bd
000000b0: fe1a 8c3d 1c4d c039 ebde 1a3d 942b 80bc
000000c0: 298a 5b3b c2cb c43d c1ad 84bd 950a 02be
000000d0: 8a12 8abc 66ef f63d c786 553c 282f d982
000000e0: 6d2e 21bd 038d 8fbd c98f 983c 3611 a43d
000000f0: f094 9e82 8cdd 633b 9d52 003d 1c21 dd3d
00000100: 675b 993b 9808 2f3d 3170 cc3d 0477 3e3d
00000110: 5c9a cb3d 723f 4a3d dac5 d53d 6cf8 2a3d
00000120: 12fd f9bd ba4a 4ebc 9854 bdbc 09d3 b582
00000130: 1558 f23c 23b7 87bd 34b0 023e 043d 533d
00000140: 6e5a 2bbd 28ca f9bd a3da 813c dabb 513c
00000150: 1149 0bbd f1af 763d ef61 1bbd 04dc 173b
00000160: 7920 f13d 7271 dc3c deaa 1dbc 99cf 263e
00000170: 88dd 94bd 0ed2 81bd 7578 acbd b269 a4bd
00000180: 66f7 b602 f392 8cbd 8af5 f1bd d2d0 b3bb
00000190: 772a 2a3e b6a5 b53d 7f63 73bc bb9f bd82
000001a0: 8525 97bc 413e d3bd 6412 e43d 5a12 bb3d
000001b0: 797d dc3d 41e8 5abc 1f1d 03bd b436 803d
000001c0: b90f c282 66ae b482 04b3 c182 3351 333e
000001d0: 0319 0a3e 95d2 fa3d b67f 0fbe 758a 923d
000001e0: 564b ea3c 709a ef3c d804 ff3c 4f5b 3b3d
000001f0: 35ba 883d 9656 643d 410e a9bd c202 fd3d
00000200: 1d72 e8bb 2759 e7bb ff74 b502 f984 a93d
00000210: 4a17 0b3e c395 6b3d c9ea 29be b886 9f3d
00000220: 67bf 0e3d 3748 1ebd 94f7 963d dc0b 47bd
00000230: 3b0b 63bd f49e fbbc 9d76 4b3d 6db2 18bd
00000240: 8240 f43d 77f4 b882 4aaa ec3b 0912 c002
00000250: b4be c5bd 6efe 2383 6042 053d 0e0c 8d3d
00000260: 4c91 a73c cf19 8bbc fbea 2d3d 7048 5e3c
00000270: e82c 573d 5c81 aebd f170 25bd b1c2 d8bd
00000280: bd36 09ba 260f ae3d fe27 b4bd 8126 a23d
00000290: bafd 04be 768c 42bd 0fa9 e3bc 085e 283d
000002a0: b2a5 a9bd 8516 3b3d 57f9 f23d 85e5 51bd
000002b0: eca6 8bbb d2b2 92bd 776f 083d f61c c202
000002c0: 4cc2 e2bd d92f 01be cac4 60bc 99c7 853c
000002d0: 026b 5f03 8864 e538 608d f53a 025f 98bc
000002e0: 77e3 48bc 7642 d53c 3959 adbc b6ff dd3c
000002f0: d57e 163e d00b 093c 4b30 d8bc c31d 993d
00000300: b6fc b63d f3cb 633d 309f ddbc 2f96 ce82
00000310: 089b 123c a56b 5e3d 9f06 13bd 7bf9 53bd
00000320: 4500 58bd 6edc b3bd a3d6 713d 914a 37bc
00000330: affa 903d 303e 083e 8e22 a2bd 9d48 ebbd
00000340: 2911 613d 659c d53d e41d 2ebd 0978 c4bb
00000350: 886c 873a 684c 2dbd cd36 d03c 6a5c 283d
00000360: 9e80 c702 6331 15bc 1b71 a4bc 2a88 8b3d
00000370: 5d7a 893d ab6d 693d 8ef7 e9bd 2163 bd02
00000380: 3a73 0d3e faad 2f3d 74ec 833d 377f 9c3d
00000390: 0ca0 173e e5cb cebd e8e7 d33d b737 05be
000003a0: 0f4a c582 492d b382 6884 bb02 2ce4 7c3d
000003b0: 905b aebd 5de5 183d 095e 6cbd f6bb a53c
000003c0: f621 c0bc 6292 273d 7ac5 463d cec6 ae3c
000003d0: ecf8 6b3e c239 8dbc 1e58 963d 17f7 9f3d
000003e0: f019 c33d 6691 fa3c fa14 c682 82c4 653d
000003f0: 8f9b 40bd 894f 73bc 39df ddbc 2d75 bdbb
0.1942066 0.14615127 0.0065854806 0.03140765 -0.0726985 -0.076105185 -0.016658643 -0.07307267
0.09092128 -0.06362592 -2.6700357e-37 -0.11948746 -0.075848155 0.039186265 0.019872988 -0.008430635
-0.01055114 -0.02909319 -0.008802429 0.0401626 -0.023399392 0.080345556 -0.13275889 -0.056316562
-0.038889844 -2.9063228e-37 0.13224828 -2.826827e-37 0.021758907 -4.3537015e-38 0.03576272 0.1228565
-0.0013499866 0.062492188 -0.12297629 0.114690065 0.00831235 -0.033241495 0.03746088 -0.034926627
0.12055594 0.07019772 0.041078765 -0.11131632 0.06841086 0.00036678545 0.037810247 -0.01564578
0.0033499098 0.09609176 -0.064784534 -0.12699349 -0.016854543 0.120573804 0.013032622 -3.191235e-37
-0.039350916 -0.07009318 0.01862325 0.08011095 -2.33015e-37 0.0034769503 0.031328786 0.10797331
0.0046800855 0.042732805 0.09982336 0.04650022 0.09941551 0.049376912 0.10438128 0.04174082
-0.122064725 -0.012591058 -0.023111627 -2.6716688e-37 0.029583016 -0.066267274 0.12762529 0.05157186
-0.041834287 -0.12196761 0.015851324 0.012801135 -0.03400523 0.060226385 -0.037935194 0.002317191
0.11773772 0.026909564 -0.009623257 0.1629013 -0.07268816 -0.06338893 -0.08421413 -0.08027972
2.6884496e-37 -0.06863966 -0.11814411 -0.00548754 0.16617762 0.088694975 -0.014855265 -2.7862735e-37
-0.018450508 -0.10314608 0.1113632 0.0913436 0.107661195 -0.013361038 -0.032010194 0.06260434
-2.8514762e-37 -2.6548723e-37 -2.8461551e-37 0.17511444 0.13486104 0.122471966 -0.14013562 0.07155315
0.028600376 0.029248446 0.03113024 0.045741376 0.06676141 0.055746637 -0.08254672 0.12354042
-0.0070936815 -0.0070601883 2.6662712e-37 0.08277316 0.13583103 0.05751587 -0.1659347 0.077893674
0.034850504 -0.03864309 0.073714405 -0.048595294 -0.055430632 -0.030715443 0.049673665 -0.037279535
0.119263664 -2.7176686e-37 0.0072224485 2.8222216e-37 -0.09655514 -4.8193466e-37 0.032534003 0.06887065
0.020455025 -0.01698008 0.042460423 0.013567075 0.05253306 -0.08520767 -0.040390912 -0.105840094
-0.0005234292 0.08498983 -0.087966904 0.079175 -0.12987414 -0.047497235 -0.027790574 0.0411053
-0.08283557 0.045675773 0.11863964 -0.051244278 -0.004261842 -0.071630135 0.033309426 2.852236e-37
-0.110722154 -0.12615909 -0.013718793 0.016330527 6.565665e-37 0.00010938296 0.001873415 -0.01859999
-0.012261263 0.026032668 -0.021160709 0.027099472 0.1469682 0.008364633 -0.026390215 0.0747638
0.089349195 0.055614423 -0.027053446 -3.035518e-37 0.008948095 0.054301877 -0.035894986 -0.051751595
-0.052734632 -0.08782278 0.059042584 -0.011187212 0.07079064 0.13304973 -0.07916747 -0.11488459
0.054948006 0.104302205 -0.042508975 -0.0059957546 0.0010332027 -0.042309195 0.025416756 0.041103758
2.9314245e-37 -0.009106013 -0.020073464 0.068130806 0.06712792 0.056989353 -0.114241704 2.7827951e-37
0.13813487 0.042890526 0.06441584 0.07641452 0.14807147 -0.100974835 0.10346967 -0.13009535
-2.8989056e-37 -2.6327679e-37 2.7553178e-37 0.06174104 -0.08513558 0.037328113 -0.057706866 0.020231228
-0.023453694 0.040911086 0.048528172 0.021335032 0.23044175 -0.017239455 0.07341026 0.078108005
0.095264316 0.03058691 -2.9105525e-37 0.056095608 -0.047023352 -0.014850506 -0.02708398 -0.0057817907

fc2.bias f4 [84]
00000000: ba1f 4f3d e32c 9e3d d77c a93d 7053 9b02
00000010: a280 f63d 363f dd82 677d f0bc 5eb3 1d3d
00000020: 1cb5 083d 7d70 263d 92a9 81bb 4e9c 5b3d
00000030: e0c2 c93d 7411 c33d c0d9 973d e74e 04ba
00000040: 3173 a43c 36e2 f73b ab95 ca3b 0ce0 2283
00000050: 77ba e33d 3651 1dbd 3d34 a9bc f8f9 023d
00000060: 99b3 883d 45c8 11bd 95a3 903c a23f eabc
00000070: 6bc7 0bba b77e c5bc 2375 ac3d 4234 923d
00000080: 185d bb3d f136 1b3d ea4d 073e 3db3 cb3d
00000090: 0aae 2082 c78a b1bb 77e3 f13d 749a 8b82
000000a0: 566d a33d 82ba 073d 9468 1882 84b8 a682
000000b0: 000a 0cbc 0611 473d 8f0d 4a3d 81b7 813d
000000c0: 0934 8e3c 132f aa3d 0142 813d ac81 b482
000000d0: 4239 98bc 31df 533d f1bb b43d 3d39 c23d
000000e0: 968f 2a3d c8eb 50bc 9063 c182 0961 a73d
000000f0: 5500 afbc 14d3 76bd 6614 03bd d4f7 fa02
00000100: ac99 933d 302b c9bc eb99 b982 68e3 89bd
00000110: 6b37 d83c ecf7 11bd 3030 d03d f8f2 b83b
00000120: 606b 64bc 249d 90bc 38cd fb3b bb5d 653d
00000130: 0e7d 07bd 7089 7c3d 595a 44bc aa95 3b82
00000140: 4929 5e3c 8be8 f6bc 7df0 55bd dd25 603d
0.050567366 0.07723405 0.082757644 2.2823094e-37 0.120362535 -3.2509313e-37 -0.029356671 0.038501136
0.033375844 0.04063462 -0.003956982 0.05361586 0.098516226 0.09524813 0.074145794 -0.0005047158
0.020074459 0.0075648082 0.0061823926 -4.7864714e-37 0.1111955 -0.038407527 -0.020654792 0.03197667
0.066748805 -0.035591383 0.017656127 -0.028594796 -0.0005332145 -0.024108274 0.084207796 0.07138874
0.091486156 0.037894193 0.13213316 0.09946296 -1.180489e-37 -0.005418155 0.118109636 -2.0512866e-37
0.079798386 0.033136852 -1.1197209e-37 -2.4497415e-37 -0.008547306 0.04860022 0.049329337 0.06333829
0.017358797 0.0830976 0.06311417 -2.652305e-37 -0.01858199 0.051726524 0.088249095 0.094835736
0.04164084 -0.012751527 -2.8415947e-37 0.08172805 -0.021362463 -0.060259894 -0.032001875 3.6876445e-37
0.07207045 -0.024556726 -2.7271651e-37 -0.067328274 0.026393613 -0.035636827 0.10165441 0.0056441985
-0.013941616 -0.017653055 0.007684376 0.05599759 -0.033078246 0.061654508 -0.011984431 -1.3781542e-37
0.013559648 -0.030140182 -0.0522313 0.05472361

fc3.weight f4 [10, 84]
00000000: f3a8 67be d7a9 90bd f5b5 fd3c 2644 a582
00000010: b299 143e bdd4 bf02 4a60 8a3d 00b6 ad3d
00000020: 6d6a 7c3d 0464 513d c4e1 9a3d 7f06 913c
00000030: 55df 88bd 5516 aa3d f9e2 053e 1284 0abe
00000040: 57a6 25bd 3396 4a3a 71a5 ae3d 3e0c 4a83
00000050: e1e2 103e ec86 673d e9c6 b13d bc0a eb3c
00000060: 647a a43d a5bb 1fbe 3b7a 0c3e 1a8b c1bd
00000070: ecb6 b6bb 0439 aebd ed23 50bd 576d 17be
00000080: 0452 9ebd 804a 33bd 4b8b 263d e14f cb3d
00000090: 50da c082 d9c6 533d ddd6 cf3d 3a53 a482
000000a0: f225 2cbe 5a3a 453d 54bb e501 e4f4 e182
000000b0: b0d8 e33b 8db4 733c c665 88bd a052 2cbe
000000c0: 7e4e 1b3d 68cc 0dbe 3b3e 22be 3cec 6f02
000000d0: f1bf 023c 05af fc3c 253e fcbd 6fe1 a2bd
000000e0: ed93 833c 2d8a 18bd fbff 6702 c22f 9abd
000000f0: 48bc 07bd cb77 be3d 1041 ae3d 9410 c782
00000100: a385 0c3d d948 9e3c 5178 8902 b620 e83d
00000110: a4c8 013d ff7c 0c3d e6a3 863d 25f7 2ebe
00000120: 67d9 e6bd d45f a9bd fb4f c1bd 6eba 043c
00000130: e3e5 cdbd 311f 20bd a267 17be 1d26 7082
00000140: 0083 aa3d 8c81 82be 0817 87bd b2f0 093d
00000150: ef3b be3c 58bc 21bd 9e2f dd3d b674 c782
00000160: 4f98 81bd 302a 5f82 7eec 01bd d1b4 923d
00000170: 1eab c7b9 1199 0e3e e7cc afbd ab34 da3d
00000180: 1854 47be 9f9c fcbc 51e0 d73d f81c 2bbd
00000190: 0fe4 98bd 67ca 5dbd 8510 c63c 7006 da00
000001a0: 3f98 bc3d 12f5 f03d b605 9c3d f061 5fbd
000001b0: cf6b 15be 13ba 04bd 6ba4 313c 809a 663d
000001c0: 79d1 ba3a cb13 753d 6422 ae3d 8804 90bc
000001d0: 7848 1fbe 0d0a 973d 649a cbbd 3de3 3dbe
000001e0: 34e2 6501 81bd fd3c e23a 2abe df3a b402
000001f0: e24e a43d af88 643d 6fde e982 5c22 8002
00000200: 9779 35be f3f5 983d d9dc f3bd 9e03 c3bd
00000210: edaa 20be 1c88 943c 5ea8 2fbd 0f36 bd02
00000220: 88ca d53c 11c5 e03d d90d 053e d613 83bd
00000230: 217a 3fbe fe7f e3bd d5c3 2503 ad8d 64bd
00000240: a9b0 903e 8980 2e3e d832 72bc 6d3b af02
00000250: e35a 1e3d a359 24bd c2b0 0582 ca3f 33be
00000260: b672 783d 9357 24be 1699 863d 307f 9d3d
00000270: 8f4f e73d b7ee c93d ebdc 243d 40b8 b4bd
00000280: e1fb d1bd 9dab 32be fe42 a2bd 99b0 9d02
00000290: ebf8 e73d a5ce 80bd c26e e8bc c9d8 8b3d
000002a0: 619d 83bd 69ea 47bd c831 c53d 81e5 af82
000002b0: ff0f c63d 34c8 1383 5ad4 8e3c 409e e3bd
000002c0: 3222 68bb 3efd 01bd 4aa4 b03c fa37 b93d
000002d0: 694a c9bd 9a32 183e 9e67 86bd 6116 063e
000002e0: bd00 6abd 5044 8c3c 13cc 043d 77c4 8402
000002f0: 39d1 853d 8a8d 0abd 51f0 133e 1e53 903d
00000300: 3216 49bd 7bb3 903d db1f f13d 7a0e ee3d
00000310: 0db8 99bb 03c8 c1bd 7a59 6fbe b7ca b13d
00000320: dbc7 4fbe 3a8c f23a a985 87bd 502b 903d
00000330: b61e b002 4e90 083e fe71 c2bd 42db c802
00000340: ecae 06be 5a50 e13c 5c6c 5d02 03f3 9f02
00000350: 0ec0 133e 66ae c5bc 02e0 903d 869f debc
00000360: 7443 af3b 6f79 933d 3c23 793d 28aa d082
00000370: 5732 bb3d 8e52 8fbd 1bae 0d3c 0c15 42be
00000380: 32f7 51bc 1293 483d 3427 aa82 2279 4fbe
00000390: 931e 9abd ca29 c03c e510 3fbd bb96 b582
000003a0: 3469 58bd 08b1 8c3d 95bb 8702 caa2 1fbd
000003b0: ea88 96bd 13cf 39bd 542f 223e 6dff 89bd
000003c0: e336 ccbd b5c1 c7bd 4e92 c2bc 0222 a43d
000003d0: d612 e23d 1bef 013e 32ed af3c 7860 2f82
000003e0: e967 303d deb5 963d d901 3c3e 7e8c 8dbc
000003f0: 5401 1f3d 1cb0 45bd b454 1abe 4279 ab82
-0.22623043 -0.070636444 0.030970553 -2.4283686e-37 0.14511755 2.8187033e-37 0.06756647 0.08481979
0.061624933 0.051120773 0.075625926 0.017703293 -0.06683222 0.08305041 0.13074864 -0.13526943
-0.040441837 0.000772807 0.08527649 -5.937652e-37 0.14149047 0.056525156 0.08680517 0.028691642
0.08031157 -0.15598924 0.13718502 -0.0945036 -0.005576005 -0.085069686 -0.05081551 -0.14787804
-0.07730487 -0.04377222 0.040660184 0.09927345 -2.833717e-37 0.051703308 0.10148404 -2.4145404e-37
-0.1681135 0.04815135 8.4390117e-38 -3.320134e-37 0.0069533214 0.01487459 -0.06660037 -0.16828394
0.037916653 -0.13847506 -0.15844052 1.7626743e-37 0.007980333 0.030845175 -0.12316541 -0.07953154
0.016061747 -0.03724115 1.7044662e-37 -0.0752864 -0.033138543 0.093001924 0.085085034 -2.9249937e-37
0.034307133 0.019321846 2.01994e-37 0.11334364 0.031685486 0.034298893 0.0657423 -0.17086466
-0.11271935 -0.08270231 -0.09439083 0.008101089 -0.10053613 -0.039092246 -0.14785627 -1.7643353e-37
0.083257675 -0.2548946 -0.0659619 0.03367681 0.023221938 -0.03948626 0.10800098 -2.930741e-37
-0.06327879 -1.639556e-37 -0.031719677 0.07163394 -0.0003808373 0.13925578 -0.08584004 0.10654577
-0.19465673 -0.030836402 0.10540832 -0.041775674 -0.07465374 -0.054148104 0.024177799 2.0022448e-38
0.09208726 0.117654935 0.07618277 -0.05453676 -0.14591907 -0.032404017 0.010842423 0.056299686
0.0014253102 0.05983333 0.08502653 -0.017580286 -0.15554988 0.07374964 -0.09941557 -0.18543716
4.222295e-38 0.030974152 -0.16624025 2.6482413e-37 0.08022858 0.055794414 -3.4363944e-37 1.882763e-37
-0.17722164 0.07468786 -0.11907358 -0.09522174 -0.15690203 0.018131308 -0.042885177 2.7802082e-37
0.026097551 0.109750874 0.12993564 -0.06400268 -0.18698932 -0.11108397 4.8713946e-37 -0.055799175
0.2825978 0.1704122 -0.01478263 2.5748048e-37 0.038660895 -0.040124547 -9.822024e-38 -0.17504802
0.060656272 -0.16049032 0.065721676 0.07690275 0.112944715 0.09859984 0.040249746 -0.088242054
-0.1025312 -0.17448278 -0.07922934 2.3170439e-37 0.11326774 -0.06289414 -0.028373126 0.06828458
-0.06426502 -0.048807535 0.09628636 -2.5845668e-37 0.0967102 -4.342924e-37 0.017435241 -0.11114168
-0.0035420773 -0.03173565 0.021562714 0.0904388 -0.09828646 0.14863053 -0.06562732 0.13094474
-0.05712961 0.017122418 0.032421183 1.9508422e-37 0.06534047 -0.03382639 0.14447142 0.07047103
-0.049093433 0.07065483 0.11773654 0.11623855 -0.00469113 -0.09461977 -0.23373976 0.08681243
-0.20291083 0.0018504926 -0.066172905 0.07039511 2.5878503e-37 0.13336298 -0.094943985 2.9513207e-37
-0.13152665 0.027504135 1.6267613e-37 2.3502432e-37 0.14428732 -0.024131011 0.07073976 -0.027175676
0.005348617 0.07200896 0.060824618 -3.0660518e-37 0.09140461 -0.06998168 0.008647467 -0.18953341
-0.012815284 0.048968382 -2.5001756e-37 -0.20261052 -0.07525363 0.023457427 -0.04664697 -2.6682075e-37
-0.052834705 0.068697035 1.9944134e-37 -0.038973607 -0.07350333 -0.045363497 0.15838367 -0.06738172
-0.09971406 -0.097537436 -0.023751404 0.08014299 0.11038749 0.12688868 0.021475408 -1.2884655e-37
0.043067846 0.07358907 0.1836008 -0.017278906 0.038819626 -0.048263654 -0.15071374 -2.519579e-37

fc3.bias f4 [10]
00000000: fdc2 4dbd e46a 8bbd 6b0d b43c 7d68 2cbd
00000010: b17a 77ba f929 19bd 73bb b23d 7af9 8a3d
00000020: 4057 0d3e 4789 e0bc
-0.050234783 -0.06807497 0.021979054 -0.042091835 -0.00094405847 -0.037393544 0.08727159 0.06785865
0.13802814 -0.027409209
