Models/lenet_mnist_lr_0.0001_wd_0.0001_16_120.pth (torch, 250922 bytes, 10 tensors)

conv1.weight f4 [6, 1, 5, 5]
000000 74 63 3a 3e 4a 0c 1a bb 5b 3e 1e be 6c 66 18 bd
       0.18202001 -0.002350586 -0.15453474 -0.037207052
000010 16 59 63 3c be 20 ad 3e 94 06 ca 3d 07 78 9b be
       0.01387622 0.33814043 0.09864536 -0.3036501
000020 b5 f3 80 be 0c d5 9e bd 97 66 11 3e 3b 07 d7 3c
       -0.25185934 -0.07755479 0.14199291 0.026248565
000030 22 ae 62 3e 83 cb d8 3d db b1 5e 3e e3 67 84 bd
       0.22136739 0.10585692 0.21747534 -0.06465127
000040 8d f0 98 3e 07 a3 b6 3e 77 61 23 3e f5 bf 1e 3e
       0.29871026 0.35671255 0.15955149 0.15502913
000050 b4 cc c4 bb 4e c4 d1 bc 73 62 2e be e5 27 b2 bd
       -0.006005848 -0.0256063 -0.17029743 -0.086990155
000060 75 00 2a bd aa bb d3 bd 8c 3d 27 bd eb 94 87 be
       -0.041504342 -0.103385285 -0.04083018 -0.26480803
000070 9a b5 8c 3d b4 7a d8 3d b1 a9 a2 3d ce ed 1c 3e
       0.06870575 0.10570279 0.07942522 0.1532509
000080 92 8b 45 be f5 6f 44 3d 65 c9 ee bc cc 32 04 bd
       -0.19291523 0.047958333 -0.029148767 -0.032275006
000090 ff 1b 3f 3d 49 ae 36 ba 94 cc 96 3d 16 94 87 3d
       0.04665756 -0.00069687195 0.07363239 0.06620042
0000a0 3d ec 9b 3d fb 0c 81 3e de 4f 22 3e 0c 57 99 3e
       0.07613418 0.25205216 0.1585078 0.29949224
0000b0 f7 bb b8 bd a5 12 c1 3e 0d ea ef 3e dc c7 a3 3e
       -0.090202264 0.37709537 0.46858254 0.31988418
0000c0 67 0f ad 3e ae 67 a0 3d c6 d2 17 3d ee bd 64 3e
       0.33800814 0.07832275 0.037066244 0.22338077
0000d0 c3 41 47 3e 1b 4c 11 3e 31 ac f5 bd 22 60 d6 3e
       0.1945868 0.14189188 -0.119957335 0.4187022
0000e0 ea 5c f8 3e 3e cb 05 3e 6d db e2 3d 67 cf 24 3e
       0.48508388 0.13065812 0.110770084 0.16094743
0000f0 87 2d aa 3c e2 97 7f 3e 8c bb 86 3e 1a 38 89 bd
       0.020773662 0.24960282 0.26314962 -0.06700154
000100 c6 e2 cc bd 8c 06 f9 bd 51 4a 95 be e6 16 67 3e
       -0.10004191 -0.12159452 -0.2915826 0.22567329
000110 42 5d 2b 3e 93 e7 0f bd 56 fb d2 be bb 97 ed bc
       0.16734794 -0.035132956 -0.4120738 -0.029003015
000120 58 20 52 bd 6b af af 3d 2c a3 7c bd 1f 3e 00 be
       -0.051300377 0.0857838 -0.06167905 -0.12523697
000130 ba 27 ac bd d6 6d b6 3d 62 b0 8b 3e 3e 32 d5 3d
       -0.08406015 0.08907668 0.27283007 0.104099736
000140 74 86 a7 bd 68 36 4a be 8f ba 7a 3e 70 02 bc 3d
       -0.08179942 -0.19747317 0.24485229 0.091801524
000150 9e 10 8c 3e 13 fd 5f be 6b 0c 5e 3c a0 a5 8f 3e
       0.27356428 -0.21873884 0.013552765 0.2805605
000160 da 25 d7 3e 12 c0 b0 3e f0 22 d1 bd 11 06 50 3e
       0.42021066 0.34521538 -0.10211742 0.20314814
000170 e6 84 85 3e e9 35 b3 3e 65 ae 71 3e 4d 6b 88 3d
       0.26077956 0.35002068 0.23601682 0.06661091
000180 a4 38 b1 3e cf 5f b1 3e 08 01 70 3e 6b 59 28 3d
       0.34613526 0.3464341 0.23437893 0.0411009
000190 f0 e4 97 bc bb f4 82 3d 19 64 0c 3e e3 e5 17 3e
       -0.018541783 0.06394335 0.13710059 0.14833789
0001a0 c5 2f ac 3d d5 88 6a be 93 1c c8 be cf 54 a5 be
       0.08407549 -0.2290376 -0.390843 -0.32291266
0001b0 f4 ad 1b be 3c 28 02 bd 17 ad 88 be 8e 3d 77 be
       -0.15203077 -0.03177665 -0.26694557 -0.24144575
0001c0 d9 38 83 be a6 a6 8e be c1 02 1a be c8 d0 4e 3e
       -0.2562931 -0.27861518 -0.15040113 0.20196831
0001d0 98 5a db 3d 46 d9 2a 3d e8 d9 2e 3e 44 a7 3d bc
       0.10710639 0.041711114 0.17075312 -0.011575524
0001e0 88 65 de 3e 85 7d a3 3e 9c e8 d8 3e 7d 4d f1 3d
       0.43436837 0.319317 0.42364967 0.11782358
0001f0 63 6d 2f 3e 5b af 1e 3d 88 d9 20 be 5a c2 0e be
       0.17131571 0.03874145 -0.15707982 -0.13941327
000200 30 bb 0b be a9 80 d8 3d e8 e9 9b bc 2b 0b 98 be
       -0.13645625 0.10571415 -0.019032434 -0.2969602
000210 5e f0 42 be 18 1f 6d bd 3c 15 b1 3e 9c dd 5a be
       -0.19037005 -0.05789098 0.34586513 -0.213736
000220 10 ff 3a be f5 12 89 be 1f 5f ee 3d 80 8b ac 3e
       -0.18261361 -0.26772276 0.11639237 0.3370018
000230 49 d4 1d be 42 65 7c be 98 65 72 3d c1 0d 31 3e
       -0.15413012 -0.24648002 0.05917892 0.17290403
000240 84 1c 16 3e 1c 71 1f be 3f ea fe bd 3c 20 dc bd
       0.14659315 -0.15570492 -0.12447023 -0.10748336
000250 ba 24 53 3e e9 3a 78 3e
       0.20619479 0.24241222

conv1.bias f4 [6]
000000 d4 86 ae 3e 00 8b a8 3e 0f 2a 2b 3e 50 ce 4c 3e
       0.3408724 0.3291855 0.16715263 0.20000577
000010 ed 9d 6d 3e f6 e9 06 3e
       0.23204775 0.13175187

conv2.weight f4 [16, 6, 5, 5]
000000 db 3b b9 bd e8 fc c9 3d c5 1f 14 3e ef 78 66 3d
       -0.0904462 0.09862691 0.14465244 0.056267675
000010 4a d8 33 3d c8 a5 c0 bc 0a b5 3a 3b f3 1c 10 3e
       0.04390744 -0.02351655 0.0028489255 0.14073543
000020 37 a0 16 3e 80 f2 9e 3d f7 e4 e7 bd 59 8e b7 bd
       0.14709555 0.07761097 -0.113229685 -0.089626975
000030 8a 19 c8 bd 3b 8c 60 bc 67 d4 fe 3d 5d e2 b2 bd
       -0.09770496 -0.013705309 0.12442856 -0.087345816
000040 82 77 01 be 9a d5 d9 bd 01 a7 45 bd fa 2f 2c 3d
       -0.12643245 -0.106364444 -0.04825497 0.04203794
000050 b3 e6 10 3e a5 15 74 bd 55 f0 a4 bd a3 72 d8 bd
       0.14150505 -0.059590954 -0.08053652 -0.1056874
000060 01 fc 10 3d cc bf 52 bd ae 38 a0 3d 03 cf 64 3d
       0.03539658 -0.051452443 0.07823311 0.055861484
000070 95 cd 09 3e ad 52 6b bc c7 55 25 be 48 7f f5 bc
       0.1345733 -0.014362973 -0.16146003 -0.029967919
000080 4f 32 cb bd 2c 23 6e 3d 5e 4b f5 3d 5a 5a ad bd
       -0.09921705 0.05813901 0.11977266 -0.08464499
000090 f7 90 08 bd 11 cd 21 be 63 78 94 bd 99 53 54 3c
       -0.033341374 -0.15800883 -0.072495244 0.012959384
0000a0 b1 e1 e3 39 28 1b 2c bd a3 8e 29 bd 0c 37 ec bb
       0.00043464967 -0.042018086 -0.041395795 -0.0072087105
0000b0 71 01 79 3c be aa b5 3d 21 ba c9 3d 9b ee d6 3d
       0.015198098 0.08870457 0.098499544 0.10494729
0000c0 6a bf 2a bb d2 75 39 bc 41 ed 89 3d cb fe d1 3d
       -0.0026054033 -0.011319594 0.06734706 0.10253676
0000d0 34 7a 0a 3e c3 56 9f 3c 76 f8 62 bd 27 b2 c5 bc
       0.1352318 0.01945055 -0.055412732 -0.024132801
0000e0 a9 ff 83 3d 73 d8 80 3d fe 25 e4 3d 65 ff fa 3d
       0.06445248 0.062912844 0.11140059 0.12255744
0000f0 b4 1a 96 bd 67 2d c8 bc b7 16 9c 3d 4d 93 fa 3d
       -0.07329312 -0.024435712 0.0762152 0.12235127
000100 cd e0 12 3e 25 b7 f4 bd 90 36 2c be 07 11 02 be
       0.14343567 -0.119489945 -0.16817689 -0.12701808
000110 26 58 a4 3d 60 9b 00 3e 03 79 75 3d 9f eb 17 be
       0.080246255 0.12559271 0.05992986 -0.14835976
000120 9d e0 72 bc 22 b8 8c bd af 6b e5 b9 fe cd 06 bc
       -0.01482406 -0.06871058 -0.00043758514 -0.008227823
000130 90 9b 77 3b 68 57 e0 bb 7a ea c2 3c 8c ba c3 bc
       0.0037781931 -0.006846357 0.023793448 -0.023892663
000140 66 9b bc bd c8 6a 38 3d 9a 90 4b 3d 72 56 0c 3c
       -0.092093274 0.04502371 0.04969845 0.008565532
000150 45 71 9a bd 7e 84 ef bd 89 b5 c8 bd 1e d1 22 bd
       -0.07541136 -0.11695193 -0.0980025 -0.03975021
000160 43 25 2e 3e 08 6a 7a 3d 19 fd 83 bd e8 7b 10 be
       0.17006402 0.061136276 -0.06444759 -0.14109766
000170 e3 a5 77 3d 3f ae 91 3d e2 11 93 bd 81 53 d2 3d
       0.060460936 0.07113313 -0.07181145 0.10269833
000180 0a b9 d5 bc d7 5b 12 bd 7b c8 d1 3d 41 1b 78 bd
       -0.02608921 -0.035732117 0.10243317 -0.060572866
000190 77 e4 95 bd 2d 48 f2 3c 04 e5 1f 3e 21 2f 34 3e
       -0.07318967 0.029575432 0.15614706 0.17596103
0001a0 d7 b4 36 3e 38 64 e1 3c 48 ac a1 3c b6 49 ea bc
       0.17842422 0.027513608 0.01973547 -0.028599601
0001b0 1a ce e6 3c 7d f2 5e 3d 44 c0 ff 3d c0 91 eb 3d
       0.028174449 0.054430474 0.12487844 0.11502409
0001c0 b5 03 89 3c ab 1d ab bc 35 00 0e bd 71 b0 16 3e
       0.0167254 -0.02088817 -0.034668166 0.14715745
0001d0 f0 0a 92 3d e4 ff 87 3d ac 17 c1 bc 24 a7 52 be
       0.071309924 0.06640604 -0.023570858 -0.20571572
0001e0 9c c6 f8 bc ba da 10 3d 49 53 8a bc cf 5f 05 be
       -0.030368142 0.035364844 -0.016885417 -0.1302483
0001f0 c1 f8 2b be 45 5f 18 3d 30 d9 06 bd f2 7a 14 be
       -0.16794111 0.03720023 -0.03292197 -0.14500025
000200 bf 6c 40 be 01 bb 4d be 9b 11 f4 bc 5d 73 76 bd
       -0.18791483 -0.20090868 -0.029793551 -0.060168613
000210 28 51 1d be 2e de 3a be 10 e5 09 be a9 67 fb bc
       -0.1536299 -0.18248817 -0.13466287 -0.030689077
000220 46 4c ef bd 8f bb a0 3c 9a 5c 39 3d 57 31 96 bc
       -0.1168447 0.019620685 0.045254327 -0.018334074
000230 95 1b b8 bc 50 2e 06 be 55 0d 84 3b 08 15 9c 3d
       -0.02247409 -0.13103604 0.0040299096 0.07621199
000240 a4 35 60 3d 2c fe c3 bb 36 08 6e 3c e2 36 87 bc
       0.054738656 -0.0059812274 0.014528325 -0.016505662
000250 2b 04 72 3d 8c 25 e4 3d a7 02 df 3b 6c 92 7e 3d
       0.059086006 0.11139974 0.006805736 0.062151358
000260 13 90 3e 3d e3 94 f6 3d 8e c2 6c 3d 5b da 81 b9
       0.04652412 0.12040117 0.05780273 -0.00024767485
000270 d9 67 cb 3d ab 3e 43 3d 47 6c b5 bd 2b f3 b7 3c
       0.09931917 0.047667187 -0.08858543 0.022454819
000280 00 c0 26 3d 69 41 90 bd 98 b4 e0 bd 36 9a 2c be
       0.04071045 -0.07043726 -0.109719455 -0.16855702
000290 bf 3e d3 3b 3e cc eb bd 6f da 27 be d8 c1 d7 bd
       0.006446689 -0.115135655 -0.1639192 -0.1053502
0002a0 3e d2 7d bd 66 4f cb 3b 67 1a 98 bc b9 8c ad 3b
       -0.06196808 0.0062045334 -0.018567277 0.0052963165
0002b0 c2 aa bd 3c 42 d8 96 3a 87 b8 bd bd bc 8f 48 3d
       0.023152713 0.0011508542 -0.092637114 0.0489652
0002c0 a7 e7 8c 3d 61 2d 38 bd 66 83 70 3d 65 88 5e 3d
       0.06880122 -0.04496515 0.05871906 0.054329295
0002d0 2a dc 91 3c 2f f1 a4 bd f8 d5 01 be ab 92 ff bd
       0.017805178 -0.080538146 -0.12679279 -0.124791466
0002e0 e0 bd d0 3c d4 cc 90 bc df c2 22 be 9a f2 86 bd
       0.025481164 -0.017675795 -0.1589465 -0.06589241
0002f0 2f 03 81 3b a8 ea d0 3d 31 20 0d be 7b 97 a6 bc
       0.003937147 0.10201007 -0.13781811 -0.020335903
000300 ac c0 be 3d 6f e7 88 3c e7 8d 04 3d 2b 30 46 3d
       0.09314093 0.016711919 0.03236189 0.04838578
000310 2d ae 63 3d 3b 79 e1 3d c8 8e 73 3d 2d f9 ac bd
       0.05558603 0.11009451 0.05946234 -0.08445964
000320 15 3f 87 3d e8 b2 a4 bd bf 72 9c bd a1 3e 1b bc
       0.06603829 -0.08041936 -0.076390736 -0.009475381
000330 64 e4 d3 3d ea ce 93 3d 3a 70 90 3c 34 74 85 bd
       0.103462964 0.072172 0.017631639 -0.065163046
000340 00 28 4f 3d 3a 0a 01 3e ee 4c 1a 3e 1b 2a c9 bc
       0.050575256 0.12601557 0.15068409 -0.02455621
000350 10 26 89 3c dd 6b 9d bc ff 7d af bc c8 b1 dc bd
       0.016741782 -0.019216472 -0.021422384 -0.107760966
000360 4a 2d 4b be b9 df 30 be a7 e1 f7 bd 8f f3 5b bd
       -0.19841495 -0.17272843 -0.12103587 -0.053699072
000370 07 ab 21 be b0 57 09 be d6 ee e7 bd 2a 7a 18 3d
       -0.15787898 -0.13412356 -0.11324851 0.03722588
000380 75 f3 3e 3d 01 8c 29 3e 07 86 86 3b 57 9c 42 bd
       0.046618897 0.16557314 0.004105333 -0.04751238
000390 8a b6 33 bc 48 54 85 3d b6 48 0e 3e e1 79 75 bd
       -0.010968814 0.06510216 0.13894925 -0.059930686
0003a0 08 53 63 bc f7 58 c5 bb 12 34 f8 3c 37 5f e8 bd
       -0.013874777 -0.0060225683 0.030298267 -0.11346286
0003b0 9b 3a 1a be 63 c9 cb bd b6 cb eb 3c d3 24 21 3e
       -0.15061419 -0.09950521 0.02878366 0.15736704
0003c0 76 6d 31 be f0 09 b8 bd 6a bc 37 3d ad ef 33 3e
       -0.17326912 -0.089862704 0.04485742 0.17571898
0003d0 fa 98 b3 3d c8 c1 50 3d fd a0 21 3e e0 5d ad 3d
       0.08769412 0.050966054 0.15784068 0.08465171
0003e0 fc bc ba 3d 2a fa 7e bd cf de 4b bd 74 f4 a3 bd
       0.09118077 -0.062250294 -0.049773034 -0.0800561
0003f0 3d a7 58 3d dc aa cf 3c 23 8a 20 3d 93 27 bc bd
       0.052893866 0.025350027 0.039194237 -0.09187236

conv2.bias f4 [16]
000000 49 3b a8 bc a5 84 eb bc 95 53 21 bd c3 c3 2f 3c
       -0.020536082 -0.028749773 -0.03938635 0.010727826
000010 a8 83 4d 3c 60 1d 5f 3c 22 81 d7 3c c9 dc 15 3d
       0.012543596 0.013617843 0.026306693 0.03658751
000020 e6 9e 0f bc 8e 5f 17 3c b4 4f 24 bd b9 c2 8b 3d
       -0.008765912 0.009239091 -0.040115073 0.0682425
000030 da 8d 82 3d da 05 5b 3d 57 b9 2a 3d 26 a8 99 3d
       0.06374712 0.053472377 0.04168066 0.07502775

fc1.weight f4 [120, 400]
000000 33 8d bf 3b 6f df 4a bd be f1 0b 3d 1e 2c b5 bc
       0.0058456897 -0.04952949 0.03416609 -0.022115763
000010 22 d2 1c bd 60 25 52 3c d1 2a ac ba 37 f2 8f bd
       -0.038286336 0.012826294 -0.0013135319 -0.07028621
000020 74 a5 ca bd 54 61 9a 3d 07 15 dd 3c 82 16 57 bc
       -0.09894839 0.07538095 0.026987566 -0.013127925
000030 19 b9 93 bb 91 db ef 3c 8f 12 57 3d 8c 2a 8b b9
       -0.0045081493 0.029279502 0.052507933 -0.00026543846
000040 99 67 8b bd f4 28 d9 bc 27 c2 a8 bb a2 7b 50 bd
       -0.06806869 -0.026508786 -0.005150098 -0.050899155
000050 f3 c7 25 3d 38 35 33 bc bb 59 47 bb 9d de 31 3d
       0.04047389 -0.010937981 -0.0030418474 0.04342519
000060 ab 3c 08 bd 56 78 6b bd a8 0f 02 bc 28 e2 04 3d
       -0.033260982 -0.05748781 -0.007938303 0.032442242
000070 c6 56 bc 3d c9 5d 24 3d 16 6b c6 3c 76 29 71 3d
       0.09196238 0.040128503 0.024220984 0.05887743
000080 1b 98 57 bc 3d f3 1a bc 4b 13 4e 3d 7c 7a e3 3c
       -0.013158823 -0.009457407 0.050311368 0.027768366
000090 61 7a 6e 3c eb a6 b1 ba 29 53 7e 3c a1 bf d3 bd
       0.014555545 -0.0013553774 0.015522757 -0.10339285
0000a0 f5 0d 65 ba a8 9e 17 bd 20 77 15 bc 44 29 f6 bc
       -0.00087377365 -0.03701654 -0.00912264 -0.030048974
0000b0 ba 6a 24 bd 34 59 63 bd 0f 1e b5 bd 80 39 01 bd
       -0.040140845 -0.055504993 -0.08843624 -0.031548977
0000c0 ad 7c 7e 3d e5 ce da 3d 5f 28 0d 3d 4e 50 28 bd
       0.06213062 0.10683993 0.03446233 -0.04109221
0000d0 8e 78 08 bd 51 b9 11 3d d4 5f c6 3c 4e 4d d0 bc
       -0.033318095 0.035577122 0.024215616 -0.025427487
0000e0 75 0c 1c bd 37 2e a1 3d 4b bb 16 bd 10 db c7 bc
       -0.038097817 0.07870143 -0.03679971 -0.02439645
0000f0 6f f4 31 3c d1 76 fc 3a 8f f1 f1 bc c3 1c 22 3c
       0.0108615 0.0019261484 -0.02953413 0.009894553
000100 bb 32 5f bd 9c e7 81 3d ce 24 6c 3d a4 cb 04 bd
       -0.05449174 0.06343004 0.057652287 -0.03242077
000110 f4 04 1b bd 05 6c 7b bd 7f 0f 02 bc 90 de 94 3c
       -0.03784652 -0.061382312 -0.007938265 0.018172532
000120 85 c0 84 bd d5 03 a1 bc 4d af de 3c 43 78 31 b9
       -0.06482033 -0.019655148 0.0271832 -0.00016924836
000130 6d e5 5f 3b ee ee 5b 3c 3c a5 88 3c 4e 7d 0c bc
       0.0034163848 0.0134236645 0.016680352 -0.008574797
000140 a1 26 54 bd a0 62 5e bc 77 d0 41 bc 69 d0 27 3c
       -0.051794652 -0.013573319 -0.011829487 0.01024256
000150 17 e2 19 3c 24 aa a8 bc c1 01 2a bd 08 10 25 3d
       0.009392283 -0.020588942 -0.04150558 0.04029849
000160 53 e2 8e 3b e4 80 da bc 26 a4 51 3d f1 5b 00 3b
       0.004360476 -0.026672788 0.051181935 0.0019586051
000170 05 5d 38 3d 26 5a fc bc c4 6a 55 3b 9f 9c 83 bc
       0.045010585 -0.030804705 0.0032564858 -0.016065894
000180 ba 06 28 bd fe 46 38 bd 0d 93 05 bb 26 b9 44 bc
       -0.04102204 -0.04498958 -0.0020381839 -0.012007033
000190 c6 12 61 3c 3d ac 09 3d f9 4d d3 3c 24 e3 a7 bc
       0.013737386 0.033611525 0.025794016 -0.020494051
0001a0 01 cf e8 3c 28 d1 88 bd 16 a2 72 bd 32 b5 7d bb
       0.02841902 -0.066805184 -0.05923661 -0.0038712737
0001b0 44 3b 84 bb 8e ed e3 3c 2d 59 38 bd 77 d4 5a 3d
       -0.0040353853 0.027823236 -0.04500692 0.05342528
0001c0 48 8a 46 3d e2 b9 18 bd 5a 3e 16 3d 2c dc f8 3c
       0.04847172 -0.037286647 0.036680557 0.030378424
0001d0 1b 1b 41 3d e3 75 2b 3d c9 b4 0f 3d 30 70 82 bc
       0.04714499 0.041860472 0.03508452 -0.015922636
0001e0 ec f0 91 bc 87 f2 9c 3c d0 d1 59 3d 03 cb 01 bd
       -0.017815076 0.019158615 0.05317861 -0.031687748
0001f0 90 0c fc bc f3 60 5d 3c db 0a 23 3d 67 3e 38 3d
       -0.030767709 0.013511884 0.039805274 0.044981387
000200 1c 6d cb 3a 51 d5 5f 3d 43 3f 21 bc 33 f1 80 bc
       0.0015520188 0.054646794 -0.009841743 -0.015740013
000210 e6 a9 60 3d 06 41 02 bd ff 39 8f bc a3 33 7a 3d
       0.054849528 -0.031800292 -0.01748371 0.0610844
000220 13 58 c1 bc 7b 3f 4d 3d 2c 1a 18 bd d5 3e 8b bd
       -0.023601567 0.050109368 -0.037134334 -0.06799094
000230 92 de 01 3d be 9c cc 3c c9 03 4a bc d7 e2 5b 3d
       0.0317064 0.024977084 -0.012330004 0.05368313
000240 b5 2c 8c bd 2c 3e a1 bb ae 7e 49 bd 95 cb 33 bd
       -0.06844465 -0.0049207415 -0.049193077 -0.043895323
000250 45 21 22 3d 3d 00 47 bd 59 4a ef 3c ed 1b 09 3d
       0.03958251 -0.04858421 0.029210256 0.033473898
000260 1c af 6d 3d 35 d5 c3 3d 1e 38 ae 3d 4d cb 6e bc
       0.058028325 0.095621504 0.08506797 -0.014574838
000270 b4 3a 83 bb ca a6 28 bc 1e 99 b1 3c 1a 89 5a 3c
       -0.0040048007 -0.010293672 0.021679457 0.013338352
000280 bc 2a cc bc 41 1e 19 bc 63 d6 66 3b 67 77 9d 3a
       -0.024922721 -0.009345592 0.0035223 0.0012013734
000290 c4 a9 25 bc 4c 0a a5 3c cc c2 76 3c d7 ee 8c 3c
       -0.010111276 0.020146511 0.015061092 0.017203731
0002a0 e6 8f 8d 3c d4 44 2e 3d 8c 91 89 3c 1c 54 fe 3c
       0.01728053 0.04254611 0.016793035 0.031045966
0002b0 84 e1 ab bc 23 31 d1 bc 91 59 4f 3d c1 50 03 bc
       -0.020981558 -0.025536126 0.050622527 -0.008014859
0002c0 15 3b 0f bd c4 1d 26 bd 4c ae 99 3c 22 14 f2 3c
       -0.034968454 -0.04055573 0.018759869 0.029550616
0002d0 9c 24 6f 3c 8d 84 5b bd ed ef f8 bc 91 bf 95 3d
       0.014596131 -0.053593207 -0.030387843 0.07311929
0002e0 22 89 dc 3c cd ea c5 bc 76 af b4 3c ab 71 fb 3b
       0.026920859 -0.024159813 0.022056323 0.0076734624
0002f0 d0 0b 8a bc d8 43 01 bd b7 71 11 bd cb ac de 3b
       -0.016851336 -0.03155884 -0.035508838 0.006795501
000300 cd be 37 bc ac 31 32 3d de 6a 63 3d 70 4e b8 3c
       -0.011214924 0.043504402 0.05552184 0.02249834
000310 cf aa c1 b9 8a 5c e0 3c b5 16 f8 3a 9a d4 68 bd
       -0.0003693909 0.027387876 0.0018927666 -0.056843378
000320 68 c6 8e bc 31 83 84 bd 5c 44 f2 bd 74 03 50 bd
       -0.017428592 -0.06470335 -0.11829445 -0.050784543
000330 9a 94 b2 39 36 11 99 bc a3 7f 2d bd 9f 47 41 bd
       0.00034061522 -0.018684965 -0.042358052 -0.047187444
000340 17 b1 8c bd 84 d5 52 bd 61 ea 3f 3d db a3 7d bd
       -0.06869715 -0.051473156 0.04685438 -0.061923843
000350 60 b1 1a bc 7e 3a 0b 3d ef 7a ae 3c af b3 0f 3e
       -0.009441704 0.03399133 0.021298854 0.14033388
000360 79 4d 43 3d c7 47 ff 3c 84 e0 9b 3d cd 25 3a 3d
       0.047681306 0.031162156 0.07611182 0.045446206
000370 78 db 50 3b 8c 49 e2 3c 17 c1 8b 3d 61 0c bc 3b
       0.0031869095 0.02762296 0.06823938 0.0057387804
000380 f9 ea 4a bd 95 cb 7f 3b 6f c7 c9 3c 77 1d a6 bc
       -0.049540494 0.0039031256 0.02463123 -0.020277722
000390 f9 3b 22 bd 0d 79 fe bc 7b c0 0a bd fe a0 0e bd
       -0.039607976 -0.03106358 -0.03387497 -0.034821503
0003a0 0c c7 34 3c 9f 3c 98 3c 5e ae 69 bb 45 19 47 3c
       0.011033785 0.018583594 -0.003565691 0.012152021
0003b0 9d c4 04 bd c8 86 a6 bd e1 09 a6 3c 81 10 1f 3d
       -0.032414068 -0.08131176 0.020268383 0.0388341
0003c0 0f 9d 4d 3c 18 a0 03 3b c2 27 b2 bc 09 54 4e 3c
       0.012549653 0.0020084437 -0.021747474 0.012593278
0003d0 7c 26 19 bc a9 78 c6 3c 67 a9 54 3d 0a 18 57 3d
       -0.009347554 0.024227457 0.051919367 0.05251316
0003e0 43 cf 5d bc 77 9a b9 bc ee 47 25 3c 78 89 52 b9
       -0.013538185 -0.022656662 0.01008795 -0.00020078372
0003f0 21 40 a1 bb af c3 92 3d d2 91 dd 3c 1e bc 36 bd
       -0.004920975 0.0716623 0.027047072 -0.044612996

fc1.bias f4 [120]
000000 73 ae 93 3c d7 0a 57 bb a3 c6 ca ba 03 1d c6 bb
       0.01802752 -0.0032812858 -0.0015470575 -0.006045939
000010 34 e8 52 3c b5 d6 55 3c 87 ab f1 3c 61 c0 57 bc
       0.012872744 0.013051678 0.029500736 -0.013168425
000020 54 e3 03 3d f7 0b 8e 3c 5a c2 64 b4 2f 18 86 bb
       0.03219922 0.01733969 -2.130486e-07 -0.0040922384
000030 65 47 b7 ba 51 51 b0 3c 26 f9 39 3b b8 1e cf 3b
       -0.0013983069 0.02152315 0.0028377264 0.0063208006
000040 e4 9f 74 bc 8f 55 3b 3c fa 93 7e 3a da b4 54 bc
       -0.014930699 0.011433973 0.0009711381 -0.0129825715
000050 5f 75 73 3c f6 9a b8 3c 9d aa ea 3c 8f 8a d0 3b
       0.014859526 0.022534829 0.028645808 0.0063641737
000060 d4 e4 34 3c 61 8a 57 bc 1e db 43 bc a5 4b 6d b2
       0.011040885 -0.013155551 -0.011954097 -1.3812415e-08
000070 ea 77 e4 bb 1f 54 ba aa 26 1a 97 3b 1f 3e 2d bc
       -0.0069723027 -3.3098608e-13 0.0046112714 -0.010573893
000080 c0 06 e6 3c 21 9e 13 3c 1d d0 55 3b 21 6a e9 3b
       0.02807939 0.009009869 0.0032625266 0.0071232473
000090 b8 62 ae bb ed df 82 3c 80 5c 9e 3b ec e9 ad bb
       -0.005321827 0.015975917 0.004832804 -0.0053074267
0000a0 61 df ae bc 5f aa 1c 3a 15 af 34 3c d7 bc af 3c
       -0.02134675 0.0005976315 0.011028071 0.02145235
0000b0 33 cf 3f 3a c0 76 be bc 2a f6 a2 bb e9 de d8 3b
       0.0007316947 -0.023249984 -0.0049731927 0.00661837
0000c0 24 59 1a bc 5d 6b c1 3b b2 b6 08 bc d2 2b 46 bb
       -0.009420667 0.0059026913 -0.008344339 -0.0030238521
0000d0 2f 83 67 3c 0c 76 e0 ba 94 80 e0 3c d7 57 f7 3c
       0.014130398 -0.0017125024 0.02740506 0.030193252
0000e0 8f e0 9a bc 99 af f7 3c 15 33 8d bb f3 e9 93 ba
       -0.018905906 0.030235099 -0.004309068 -0.0011284932
0000f0 22 82 98 01 42 83 9e 39 19 2f 24 bb d3 cc 00 3d
       5.6022713e-38 0.00030233903 -0.0025052486 0.031445336
000100 06 14 81 3c 31 b3 ef bb be 7d 3a bc 01 0a 89 3c
       0.015756618 -0.0073150625 -0.011382518 0.016728403
000110 4d 4a 09 bc 0e 21 5d bc 9b f9 58 bc 65 b6 71 3c
       -0.008379531 -0.01349665 -0.013243104 0.014752959
000120 4b b7 74 3b 08 09 14 3c c7 c1 4a bc e2 07 cb b6
       0.0037340696 0.009035356 -0.012375302 -6.050789e-06
000130 b4 3f b5 3c 14 38 4a 39 e9 58 4a bc 36 ef fa 3b
       0.022125103 0.00019285112 -0.012350299 0.0076579107
000140 c3 22 8a 3c cc 8d c0 bb 3d 52 f5 bb 87 b7 55 bb
       0.016862279 -0.0058762785 -0.00748661 -0.0032610612
000150 97 a9 e1 3c 36 e1 80 bb 95 bd d7 3c b9 bf b0 00
       0.027546687 -0.0039330972 0.026335517 1.6231824e-38
000160 c6 1b df b8 a3 af a0 ba bd b9 14 3d 72 83 ef bb
       -0.00010638642 -0.0012259375 0.036309946 -0.0073093707
000170 28 88 4a bc 51 bf 13 3c c6 c6 ad 3c d9 b4 9f 3b
       -0.012361564 0.009017781 0.021212947 0.0048738536
000180 93 d0 fc b4 e6 10 02 bc 27 d8 ad 3c 1a 77 0c 3a
       -4.7090415e-07 -0.007938599 0.021221234 0.00053583237
000190 de 23 9f 3b 33 e0 bb ba eb 6a 40 3c bd 04 fb 3c
       0.0048565706 -0.0014333784 0.011744241 0.030641908
0001a0 97 c3 50 bb 0d 37 2b 3d c7 13 45 bb b9 cd 90 3b
       -0.0031854862 0.041800547 -0.0030071603 0.0044190553
0001b0 3f 0f d9 bc 32 30 a9 bb 11 c8 2e 3c 84 0f 3c bc
       -0.026496528 -0.005163216 0.010667817 -0.011478309
0001c0 4d a8 96 b9 f1 e3 46 b3 0a df 70 bb 1d b6 1f 3c
       -0.00028735623 -4.630778e-08 -0.0036754035 0.009748009
0001d0 fe 32 e9 3c 71 c5 fd 3b bb b7 59 3c a2 57 71 3c
       0.028466698 0.007744484 0.013288434 0.014730366

fc2.weight f4 [84, 120]
000000 c6 ba 2c 3e 44 07 f8 3d f0 ba b2 bb 91 40 1a 3d
       0.16868123 0.12110761 -0.0054544136 0.03765923
000010 17 af 7b bd 96 63 8a bd 76 22 de bc 6f 52 59 bd
       -0.061446276 -0.06757276 -0.027116042 -0.05305713
000020 54 43 a4 3d 46 6d 74 bd 6a 34 7f 3b 0e 8f 05 be
       0.08020654 -0.059674524 0.0038941153 -0.13042852
000030 f1 4d 97 bd 6e 60 24 3d 5b d0 91 3c b1 c8 0c bb
       -0.07387913 0.040131025 0.017799547 -0.0021481926
000040 82 37 de 3c ec 5e 2e bd 1b 92 91 bc b8 f7 ee 3c
       0.027126078 -0.042570993 -0.017769864 0.029170856
000050 ef 6f 13 bd c2 45 a0 3d 88 c0 03 be 48 09 90 3d
       -0.03599542 0.07825805 -0.12866414 0.0703302
000060 cd 00 35 bd 1f 33 33 3d aa 83 f0 3d 79 3e 14 ba
       -0.044190217 0.043749925 0.11743863 -0.0005655061
000070 e4 dd 72 3c 97 6e 00 bb 5e a6 03 3d 6a 14 ae 3d
       0.014823411 -0.0019597167 0.032141082 0.084999874
000080 2a 51 da 3a b5 f1 76 3d 7a f0 08 be ff 26 ba 3d
       0.0016656269 0.060289104 -0.13372985 0.09089469
000090 5b bd a9 3c 9b 59 fc bc e9 6f 0a 3d 7b 34 28 bd
       0.020720175 -0.030804446 0.033798132 -0.041065674
0000a0 a4 8e df 3d a9 f1 7c 3d 4f 26 22 3d b7 20 b2 bd
       0.109158784 0.061753903 0.039587315 -0.08697646
0000b0 5b d6 a5 3d 84 70 e3 bc b6 a6 2d 3d 08 e6 60 bc
       0.08097526 -0.027763613 0.042395316 -0.013726719
0000c0 a9 b3 43 bc a3 4d be 3d 12 da 69 bd b6 b6 db bd
       -0.01194469 0.09292152 -0.057092734 -0.10728209
0000d0 dd dc 1a bd 05 89 a9 3d 80 d7 a2 3c 90 8c e9 bc
       -0.037808288 0.082780875 0.019878149 -0.028509408
0000e0 a8 93 33 bd 7c ac b1 bd cb 30 ab 3c de 43 93 3d
       -0.043841988 -0.08675477 0.02089729 0.07190679
0000f0 b3 ac b8 b8 3b 39 62 3c 77 29 fb 3c f8 5f a5 3d
       -8.8059714e-05 0.01380759 0.03065942 0.08074945
000100 98 46 ec 3c de e1 62 3c 0c d0 a5 3d dd 5c 40 3d
       0.028842255 0.013847796 0.080963224 0.04696356
000110 4b 2c cc 3d 5f 0f 3a 3d 8a 93 a6 3d ad f1 12 3d
       0.09969386 0.045424815 0.081336096 0.03587501
000120 a4 28 e7 bd 9e a2 7d bc 32 bb 76 bd 26 59 50 bb
       -0.112870485 -0.0154806655 -0.060237117 -0.0031791418
000130 d9 43 8b ba 55 0e 98 bd 6c a4 1d 3e 89 55 b8 3c
       -0.0010625079 -0.074246086 0.15394753 0.022501724
000140 c7 c5 0e bd 61 b1 fd bd 43 c1 81 3b 7f 2e da bc
       -0.034856584 -0.12387348 0.003959806 -0.0266335
000150 52 bd b0 bc 67 c4 93 3d 6f 26 0e bd 5e 6c 38 2a
       -0.02157465 0.07215195 -0.034704622 1.638008e-13
000160 d6 1d 17 3e e6 73 28 3c 74 5f c6 bb cb 98 19 3e
       0.14757475 0.010281539 -0.0060538594 0.14999692
000170 84 ab 7b bd e0 e8 74 bd 8d bb 99 bd aa e1 a0 bd
       -0.061442867 -0.0597924 -0.075064756 -0.07855542
000180 50 96 99 bb 40 2c 99 bd fd 0e ec bd 98 02 90 bb
       -0.004687108 -0.07479143 -0.11526296 -0.0043948404
000190 44 e0 21 3e ce af 8f 3d 4a 6c f3 bc f4 d8 14 3d
       0.15808207 0.07015954 -0.029714722 0.036339715
0001a0 39 bf 78 bc 1d 00 c3 bd f5 0c db 3d 90 99 c9 3d
       -0.01518231 -0.09521506 0.10695831 0.09843743
0001b0 de 8b da 3d 9e 2d 8b bc 0c 9a 22 bd bf 8b 60 3d
       0.10671209 -0.016989525 -0.03969769 0.054820772
0001c0 9a 3a 1d 3c e7 64 64 35 bd 3d 11 3c 08 5f 1b 3e
       0.009596491 8.508345e-07 0.008864817 0.1517297
0001d0 0d ad f1 3d 45 4d eb 3d 69 5c d2 bd 2a f3 82 3d
       0.11800585 0.11489347 -0.10271532 0.06394036
0001e0 3a 3a d9 3b 89 79 06 3d dd 33 59 3c be 78 1d 3d
       0.0066292556 0.03283075 0.013256994 0.038445227
0001f0 f3 a7 5e 3d c7 f5 4a 3d 08 4c 89 bd 76 6c e9 3d
       0.054359388 0.049550798 -0.06703955 0.113976404
000200 2b 09 1e bc b2 82 67 3a 9b 5d cc ba 13 c6 93 3d
       -0.0096457405 0.0008831426 -0.0015591861 0.07215514
000210 b6 63 ef 3d 1d ec 46 3d cd 00 e6 bd bb a2 99 3d
       0.1168894 0.04856502 -0.112306215 0.075017415
000220 75 a2 67 3d 59 df 51 bd 86 c1 87 3d 9b e0 4c bd
       0.056551415 -0.05123839 0.066287085 -0.050018888
000230 88 a0 2c bd 39 38 19 bd e6 08 12 3d e7 ae ee 3c
       -0.042145282 -0.037407134 0.035653017 0.029136134
000240 3b a6 f0 3d 61 e2 c5 bd 3c 5f b7 3c 34 67 bf ba
       0.11750456 -0.09662319 0.022384278 -0.00146029
000250 d7 ba a2 bd cc 1b 3e 39 57 99 f2 3b 94 74 97 3d
       -0.07945793 0.00018130167 0.0074035334 0.073952824
000260 83 f8 91 3c f1 0c a7 bc 69 50 29 3d 2c 63 8d 3c
       0.017818695 -0.020391913 0.04133645 0.017259203
000270 c6 60 54 3d c8 d3 8f bd 56 50 15 bd 47 a4 e4 bd
       0.051850103 -0.07022816 -0.036453567 -0.11164146
000280 45 8e 08 3c 73 da ac 3d 79 d4 08 bd 96 20 93 3d
       0.008334701 0.084401034 -0.033405755 0.0718395
000290 e5 68 d0 bd 56 45 04 bd 06 ef a3 3b 7e db 34 3d
       -0.10176257 -0.032292686 0.005002859 0.044154637
0002a0 84 52 8c bd 85 2a 30 3d ef 2b 72 3d 06 6a 30 bd
       -0.06851676 0.0430093 0.05912393 -0.04306986
0002b0 f0 2b da 3a 9c 97 95 bd e1 cf 0e 3d 2f 13 98 3d
       0.0016645174 -0.07304308 0.034866218 0.07425534
0002c0 f0 26 be bd ae 6e e2 bd 77 92 f5 bb 85 33 3a 3c
       -0.092847705 -0.11056267 -0.0074942666 0.011364822
0002d0 11 36 86 3a c1 10 97 3c 47 8e 96 3c ec 51 e6 bc
       0.0010239502 0.018440606 0.01837839 -0.028115235
0002e0 60 36 6b bc 4f 9c 8a bb 9f 05 04 bc 19 5f b9 3c
       -0.014356226 -0.004230059 -0.008057981 0.022628354
0002f0 1a 74 00 3e 55 d7 d7 3b 0c 00 f2 bc 70 da 96 3d
       0.12544289 0.006586949 -0.029541038 0.073658824
000300 29 08 b2 3d 6d c6 2a 3d d8 54 22 bd a3 01 80 3a
       0.08692963 0.04169314 -0.039631695 0.0009766113
000310 cf fc 3a 3b 64 a8 3f 3d d2 69 a0 bc 3e fa 35 bd
       0.0028532033 0.04679145 -0.019581709 -0.044428103
000320 08 90 2b bd cf fd 8e bd ed bf 4a 3d 1d 71 a3 bc
       -0.041885406 -0.06982004 0.04949944 -0.019951398
000330 22 89 6d 3d df 5b fa 3d 8b 59 89 bd 14 15 be 80
       0.05799211 0.12224554 -0.06706532 -1.7456306e-38
000340 59 91 86 3d 49 e7 db 3d 4e 20 f4 bc 63 c8 9f 3a
       0.065706916 0.107374735 -0.02980056 0.0012190457
000350 16 12 b1 3c 24 a2 5b bd 97 44 08 3d c8 fc 45 3d
       0.02161507 -0.053621426 0.033268537 0.048336774
000360 e5 f2 8e b9 89 cf f6 bb 78 77 72 bc 6b 2a 6c 3d
       -0.0002726532 -0.0075320643 -0.014798991 0.05765764
000370 67 3b 1d 3d 64 7c 23 3d 1c 44 df bd 02 e3 55 3d
       0.03838673 0.03991355 -0.10901663 0.052218445
000380 62 52 e1 3d 9b 01 32 3d e8 58 83 3d 5e 24 a9 3d
       0.110020414 0.043458562 0.06413442 0.082588896
000390 a6 bf 05 3e 56 30 c3 bd 4f ea d8 3d 04 64 f2 bd
       0.1306139 -0.09530704 0.10591566 -0.11835483
0003a0 98 ed e6 ba 3b 54 b0 35 4a fb cc bb 32 fd 60 3d
       -0.0017618416 1.3137536e-06 -0.006255542 0.054928966
0003b0 7d 0e a9 bd 47 8e 98 3c c9 e3 13 bd 58 3c a7 3c
       -0.082547165 0.01862253 -0.036105905 0.020414516
0003c0 07 68 86 bc d9 cb 18 3d 6d 10 83 3d de 33 77 3c
       -0.016407026 0.03730378 0.06399617 0.01508805
0003d0 64 74 55 3e 21 41 e4 bc 16 04 86 3d 19 3e 67 3d
       0.20845181 -0.027863087 0.06543748 0.056455705
0003e0 e0 39 b6 3d 1f fa 00 3d 1a 3a 8b ba c7 82 5a 3d
       0.088977575 0.031488534 -0.0010622174 0.053347375
0003f0 43 da 59 bd 46 52 c0 bc c0 9f 7b bc 32 18 52 bc
       -0.053186666 -0.023476731 -0.015357912 -0.012823151

fc2.bias f4 [84]
000000 fc e2 f1 3c 97 c0 cd 3c 32 94 36 3d 02 dc f0 00
       0.02952718 0.025116248 0.044574924 2.2119443e-38
000010 66 59 a6 3d 09 15 fa b9 d9 6f 2f 3c 1f 34 8c 3c
       0.0812252 -0.00047699388 0.010707819 0.017114697
000020 d3 d6 73 3c ee b2 cd 3c ae 30 e9 3a 4e b5 ac 3c
       0.014882761 0.025109734 0.0017790997 0.021082547
000030 c1 03 1e 3d b6 93 57 3d 5a 06 22 3d 53 fd d3 3a
       0.0385778 0.052631103 0.03955684 0.0016173519
000040 91 75 82 b1 f2 bb db 00 b3 f9 bd 3b d0 4c 5e 01
       -3.7968637e-09 2.0179396e-38 0.0057975887 4.083007e-38
000050 4d ad 7d 3d f1 e9 99 bc 6f 4a 6c bc 8a f4 8d 3c
       0.06193285 -0.01878831 -0.014422043 0.01732852
000060 a0 e9 12 3d 62 9c 43 bb 23 bf 28 3c 0d 7a 34 bc
       0.035867333 -0.002984785 0.010299477 -0.011015427
000070 62 36 c6 b8 e4 7f 39 bc 39 cb 50 3d ce be 01 3d
       -9.451505e-05 -0.011321995 0.05097506 0.031676106
000080 35 7a 37 3d d6 3e 82 3c e0 1d a8 3d f0 e9 7c 3d
       0.04479428 0.015899103 0.08208823 0.061746538
000090 91 15 a2 bc b6 2e 39 bc 8b b8 77 3d 7c 90 1e ac
       -0.019785674 -0.011302641 0.06047873 -2.2533355e-12
0000a0 03 2e 16 3d 80 13 c9 3c 6d 47 2c 3a aa 43 08 80
       0.036664974 0.024545431 0.00065719226 -7.58957e-40
0000b0 78 5b 2c 3b cd 97 c6 3c 01 4c 32 b7 4e 5a 08 3d
       0.0026299637 0.024242306 -1.0627323e-05 0.033289246
0000c0 ec c9 9a 3c 81 31 57 3d 29 bb 28 3d f9 fd 36 96
       0.018895112 0.052537445 0.041194115 -1.4781983e-25
0000d0 47 c6 ff bb e8 95 f6 3c f5 2d 25 3d bf 29 53 3d
       -0.007805619 0.030100778 0.04032703 0.051553484
0000e0 bd fc c0 3c f7 9c 14 3b f1 db ec b0 22 ec 2f 3d
       0.023558015 0.0022676566 -1.7233771e-09 0.042949803
0000f0 66 57 5e bc 5f c8 a5 bc db 70 38 bc 15 b5 fc 3b
       -0.013570642 -0.020237146 -0.011257376 0.0077120163
000100 25 2f 23 3d 22 81 b1 bc 74 f0 1d b7 31 0b dc bc
       0.039839882 -0.02166802 -9.413914e-06 -0.026860805
000110 79 a3 2a 3c 42 3d 9f bc 95 bc 6d 3d c6 f9 7a ba
       0.0104149515 -0.01943839 0.058041174 -0.00095739623
000120 9b d3 c5 3b b0 07 1f bc 80 df 20 b9 bd 81 0b 3d
       0.006037188 -0.009706423 -0.0001534205 0.034059275
000130 b7 c6 59 bc 02 30 1e 3d 4c 7f 02 bb 6f 51 e1 00
       -0.013292006 0.038620003 -0.00199123 2.06922e-38
000140 0f 48 2b 3c 8e 5f 92 aa f7 6d f0 bc e2 2d f6 3c
       0.010454192 -2.6001114e-13 -0.02934931 0.030051176

fc3.weight f4 [10, 84]
000000 3e a6 6a be 1f b2 90 bd 54 98 ea 3c d9 f2 80 38
       -0.22914979 -0.07065224 0.028637089 6.1487495e-05
000010 ca e5 19 3e 86 5f ec b8 18 96 88 bd b8 82 c1 3d
       0.15029064 -0.000112711496 -0.06669253 0.09448761
000020 91 b4 d3 3c 22 69 5e 3d 4a 55 98 3d e0 85 a4 ba
       0.025842937 0.05429948 0.074381426 -0.0012552105
000030 c6 4e ab bd 34 9f 91 3d e9 62 0a 3e 66 97 15 be
       -0.08364634 0.07110444 0.13514294 -0.14608535
000040 30 a8 27 bb fb 17 a3 b3 e6 2e a6 3d 22 03 8b 36
       -0.0025582425 -7.594641e-08 0.08114414 4.1428875e-06
000050 c4 7d 11 3e 90 fd 6e 3d 5f 40 8b 3d ae 97 4b 3b
       0.14208132 0.058347285 0.06799387 0.003106575
000060 e8 c4 b6 3d f2 9a 14 be 16 17 17 3e 0c 41 ce bd
       0.08924276 -0.14512232 0.147549 -0.100710005
000070 16 12 5f bb 7a 6e bc bd 81 1a 74 bd 30 83 2b be
       -0.003403788 -0.09200759 -0.05959559 -0.16749263
000080 47 e0 94 bd 78 22 5a bd 84 89 2c 3d e0 da d6 3d
       -0.0726934 -0.05325553 0.042123333 0.10490966
000090 68 f1 de 3c 88 0b da 3d 59 7d e0 3d 45 9f 78 ba
       0.02721472 0.10646731 0.10961408 -0.0009484182
0000a0 f5 98 2e be f2 db 1c bd 46 9a a9 3c c0 c2 4b 11
       -0.17050536 -0.038295694 0.020703446 1.6073888e-28
0000b0 3a 61 3d 3c 17 35 7f 3c fa da ce bb a8 9b 30 be
       0.011558825 0.015576622 -0.006312725 -0.17246878
0000c0 c3 70 20 3d a7 63 20 be 41 be 1e be 33 28 0c 01
       0.039170038 -0.15663014 -0.15502264 2.574278e-38
0000d0 f3 91 b4 3c 8e a9 b1 3c 97 6c 04 be 19 a1 99 bd
       0.02204225 0.021687295 -0.12932049 -0.0750143
0000e0 a4 cb b7 3c 66 34 e6 bc 3d 35 12 3b f1 c2 9f bd
       0.02243597 -0.028101157 0.0022309565 -0.07800854
0000f0 ac 54 a7 3c ae 7c c3 3d 47 70 b6 3d ad de 3b bd
       0.020426117 0.09545265 0.08908134 -0.045866657
000100 35 0e 2f 3d e4 23 c2 3c c5 c4 bb 3a 3c bf f4 3d
       0.04273816 0.023698755 0.001432561 0.119505376
000110 71 46 07 3d e1 ef 1c 3d 84 37 7f 3d 13 15 0f be
       0.033026163 0.038314704 0.062308803 -0.13972883
000120 80 0c be bb 06 df a6 bd a3 69 7e bd af 26 81 3b
       -0.00579983 -0.08148007 -0.06211246 0.003941379
000130 ec e9 d3 bd ca e9 2e bd 99 3b 33 be 17 1b d4 37
       -0.103473514 -0.042703427 -0.17503203 2.5284984e-05
000140 44 55 bb 3d d3 61 4c b9 b6 a8 68 bd ca 01 a6 3c
       0.091471225 -0.00019491398 -0.05680152 0.020264525
000150 17 2f 1d 3d c8 a0 23 bd 6d 28 df 3d 04 8c 20 b9
       0.038374986 -0.039948255 0.108963825 -0.00015310949
000160 ed 0e 8b bd 33 ca 62 3b fa f4 85 bd 7c 0e 8b 3d
       -0.06789956 0.0034605383 -0.06540866 0.06789872
000170 f1 a0 ae 3b 2e 18 16 3e a2 c1 ca bd 0e 95 e4 3d
       0.0053292443 0.14657661 -0.09900214 0.111612424
000180 eb e1 3e be 42 24 2a bd b9 ee ce 3d 28 d9 43 bd
       -0.18640868 -0.041538484 0.101041265 -0.04781452
000190 d0 0f 3d ad 7b c5 ba b3 24 64 24 3d a9 a0 30 39
       -1.0746917e-11 -8.6972214e-08 0.040134564 0.00016844519
0001a0 ae 78 bb 3d 75 7e 00 3e c9 ef bc 3d 16 99 6c bd
       0.09153877 0.1254824 0.09225423 -0.05776318
0001b0 6c 01 17 be 3b 9f 75 bd a6 9a 95 3c 2b 14 47 3d
       -0.14746636 -0.059966307 0.018262219 0.048603218
0001c0 b6 0f 50 bb 20 43 58 3d cb 9a c9 3d c5 db ce bc
       -0.0031747646 0.05279839 0.098439775 -0.025251279
0001d0 29 dc 21 be b7 a4 a6 3d 5f 7d cb bd 70 7e 4c be
       -0.1580664 0.081368856 -0.09936022 -0.19970107
0001e0 8d be 95 bc 82 df 52 3d 1c a2 2f be 0b 33 7c bb
       -0.018279338 0.051482685 -0.17151684 -0.0038482572
0001f0 33 a1 a4 3d d6 7d 75 bc 2b 92 6a 3d 75 66 66 97
       0.08038559 -0.014983615 0.057268303 -7.4446327e-25
000200 ba 96 20 be 60 33 8f 3d 02 58 28 3b 24 9e c3 bd
       -0.15682498 0.06992221 0.0025687222 -0.09551647
000210 ff d3 25 be 19 0c 65 3c 9a 39 0c bd ea 25 57 01
       -0.16194151 0.013979935 -0.03423462 3.9516465e-38
000220 0d b2 3e bc df 10 d0 3d e2 b6 fd 3d 2e 62 73 bd
       -0.01163913 0.10159468 0.12388398 -0.059419803
000230 41 24 5f be 51 10 c0 bd b6 26 11 b5 83 ca 84 bd
       -0.21791174 -0.09378112 -5.407304e-07 -0.064839385
000240 28 53 65 3e 91 5d 2e 3e 50 db bc bc 14 25 03 bd
       0.22395003 0.1702788 -0.023053795 -0.032017782
000250 2a 9e 3a 3d 81 96 36 bb d7 2d 63 bb b1 f5 01 be
       0.045560993 -0.0027860703 -0.0034664774 -0.1269138
000260 df e5 69 3d f5 1e 1a be a3 f7 72 3d 1a ed b6 3d
       0.057103988 -0.15050872 0.059318196 0.08931942
000270 74 e8 1a ba 6d 0c bd 3d 8b a0 48 3d 92 be bc bd
       -0.0005909272 0.09230886 0.04898123 -0.09216036
000280 66 d9 bc bd d6 87 3c be c1 d9 b6 bd 83 2d c0 b4
       -0.09221153 -0.18411192 -0.08928252 -3.57959e-07
000290 18 85 ef 3d 90 78 4d bb ab 36 99 bc d7 dc 99 3d
       0.116953075 -0.0031352378 -0.018702826 0.07512825
0002a0 eb 34 a4 bd 39 51 61 bd 80 88 c4 3d a8 f0 ad b8
       -0.08017906 -0.0550091 0.09596348 -8.2941086e-05
0002b0 5d 65 ce 3d f1 6b b3 bb f0 a5 78 3d 7e 73 e6 bd
       0.10077927 -0.005475514 0.060705125 -0.11252497
0002c0 31 06 cf 3d 07 21 26 bd f1 72 23 3d a0 a3 ab 3d
       0.10108603 -0.04055884 0.03990454 0.08380818
0002d0 c1 0f d2 bd 31 0d 23 3e d7 ad 77 bd 22 c8 08 3e
       -0.10256911 0.15923001 -0.06046852 0.13357595
0002e0 fd 54 27 3b 6a d7 3f 37 9a ec b2 3c b3 e3 0e 3a
       0.0025532835 1.1434642e-05 0.021841336 0.00054508
0002f0 21 35 89 3d 32 6c 2e bd 16 a0 72 3d b5 7d 9c 3d
       0.06699587 -0.04258365 0.0592347 0.07641164
000300 6b 1e 18 bd ec 6c fb 3c f3 cb d9 3d 0d af fe 3d
       -0.037138384 0.030691586 0.10634603 0.12435732
000310 c3 31 d9 3a d1 8f a1 bd 92 72 86 be d3 a5 bc 3d
       0.0016570616 -0.07888759 -0.26259285 0.09211316
000320 eb 4c 4b be 5f 66 80 3c 7e 37 b5 bd a9 52 a1 3d
       -0.1985356 0.015673814 -0.08848475 0.07877094
000330 ea 99 59 3d 9e aa ca 3d 89 1a c7 bd ac c7 87 3a
       0.0531253 0.09895824 -0.09721858 0.001035919
000340 cc 52 fe bd c2 ab af 3c a0 5b be bd 43 ae 8d ac
       -0.12418136 0.021444205 -0.0929482 -4.026808e-12
000350 dc b1 19 3e 20 45 10 bc ec e0 4a bb 8d 34 ec 3b
       0.15009254 -0.008805543 -0.0030956818 0.007208413
000360 73 3f e0 3b 93 a0 9d 3d 77 a8 58 3d 82 01 ee a3
       0.0068435012 0.07696643 0.052895036 -2.580465e-17
000370 7b af 4b 3d 6b 26 77 bd 15 d6 22 3c c2 1c 45 be
       0.049727898 -0.060339373 0.009938736 -0.19249251
000380 90 aa 23 bc 70 d4 25 3d 73 a9 95 ba e5 38 39 be
       -0.009989396 0.0404858 -0.0011418298 -0.1808811
000390 37 8c aa bd dc 39 8e 3d 9f 39 16 bd 66 ba 81 bd
       -0.08327525 0.069446295 -0.036676046 -0.06334381
0003a0 65 78 43 bd 80 4c d3 3d 35 b1 a1 ba cf 1a e8 bc
       -0.04772224 0.103173256 -0.0012336137 -0.028333096
0003b0 5e b8 9e bd 31 b8 39 bd fb 21 23 3e 1e 38 5b bd
       -0.07750009 -0.045341674 0.15930931 -0.053520314
0003c0 50 b2 d6 3b b7 6d bc bd e6 c4 92 bc 5d 48 b4 3d
       0.006552018 -0.09200614 -0.017916154 0.08802865
0003d0 6b 34 e2 3d a1 52 f6 3d 89 11 e6 3c 58 35 0f 37
       0.11045154 0.12027479 0.028084533 8.535884e-06
0003e0 08 17 24 3d 6d fa 53 bb c4 12 3d 3e b3 5d 96 bc
       0.040061027 -0.003234531 0.1846419 -0.018355226
0003f0 fd 3b 27 3d 08 64 55 bd 8a 82 42 be af 5c 96 21
       0.040828694 -0.05209735 -0.18995109 1.0188929e-18

fc3.bias f4 [10]
000000 dd f3 16 bd d2 0b 54 bd 79 19 c2 3c c9 09 0b bd
       -0.03685366 -0.051769085 0.023693787 -0.03394488
000010 3e 65 9b bb ee f4 f8 bc 27 8c 95 3d f9 9e 53 3d
       -0.0047422936 -0.03039023 0.073021226 0.05166528
000020 c8 1c d6 3d 1b 49 a3 bc
       0.10454708 -0.01993232
