Models/lenet_mnist_lr_0.001_wd_1e-05_12_100.pth (torch, 169678 bytes, 10 tensors)

conv1.weight f4 [6, 1, 5, 5]
0	0x3dc96d0a	0.09835251
1	0xbc20120e	-0.00976993
2	0xbece41e4	-0.40284646
3	0xbe93d41a	-0.28872758
4	0xbd352dc0	-0.044233084
5	0x3ec1690f	0.37775466
6	0x3ec2b859	0.3803127
7	0xbeed99a8	-0.46406293
8	0xbf106213	-0.5639965
9	0xbd4e0c61	-0.050304774
10	0x3da34713	0.07972541
11	0x3f03e490	0.51520634
12	0x3eeb238b	0.45925555
13	0x3dcb3ec0	0.09924078
14	0x3e34b9f4	0.1764906
15	0xbe88d378	-0.26723838
16	0x3eab53b1	0.3346229
17	0x3f01fe37	0.50778526
18	0x3d285edc	0.04110609
19	0xbd905e7e	-0.07049273
20	0xbed8feeb	-0.42381987
21	0xbefdb5c0	-0.49552727
22	0xbec65931	-0.38739923
23	0xbd978505	-0.07398418
24	0xb9a85d57	-0.00032113
25	0x3d7450f3	0.05964751
26	0xbdf1e492	-0.118111745
27	0xbed03b94	-0.40670455
28	0xbe7e8bc8	-0.2485801
29	0xbe08cc3c	-0.13359159
30	0xbd6d25e5	-0.057897467
31	0xbde21135	-0.11038438
32	0xbe9d6501	-0.30741122
33	0xbca99a30	-0.020703405
34	0xbb57c169	-0.0032921678
35	0xbe415f60	-0.18884039
36	0xbe409435	-0.18806536
37	0x3d20cc51	0.03925735
38	0x3ec9f768	0.39446568
39	0x3e909300	0.28237152
40	0xbe30b1c4	-0.17255312
41	0x3de001f3	0.10937872
42	0x3eb69a89	0.35664776
43	0x3ed55c6e	0.4167208
44	0xbe53443a	-0.20631495
45	0x3e6cbf83	0.23119931
46	0x3ebe47d3	0.37164173
47	0xbc911c95	-0.017713824
48	0xbdf835ca	-0.121196344
49	0xbedc1527	-0.42984888
50	0xbcd94c8e	-0.026525762
51	0x3e0f48ba	0.13992587
52	0x3e5ff89a	0.21872178
53	0x3e8b4fdd	0.27209368
54	0x3dedb7a1	0.1160729
55	0x3f1e37d9	0.61803967
56	0x3f144724	0.5792105
57	0x3ea73112	0.32654625
58	0x3ed701fc	0.419937
59	0x3ec3a220	0.3820963
60	0xbd23b0a4	-0.03996338
61	0x3e1fdb13	0.15610914
62	0x3e443d62	0.1916404
63	0xbd7ad3de	-0.06123721
64	0xbd85de77	-0.065365724
65	0xbeb6ac55	-0.35678354
66	0xbf162687	-0.5865254
67	0xbe8c9d7e	-0.27463907
68	0xbe09a0a8	-0.13440192
69	0xbe192862	-0.14956811
70	0xbf30d382	-0.69072735
71	0xbecdbe80	-0.40184402
72	0xbf08ff9e	-0.5351504
73	0xbe5f3f8e	-0.21801588
74	0xbde0f01a	-0.10983296
75	0x3d90548c	0.07047376
76	0x3d983555	0.07432047
77	0x3e38d6f8	0.18050754
78	0x3e952bb5	0.29134908
79	0x3ce85b4c	0.028363846
80	0xbdb2f45d	-0.08738015
81	0xbdf969fc	-0.12178418
82	0x3e856e35	0.26060644
83	0x3dc5d73a	0.09660192
84	0x3e2459f8	0.16049945
85	0xbee33088	-0.44372964
86	0xbdd29b7b	-0.10283562
87	0x3e90db09	0.2829211
88	0x3f1495ff	0.58041376
89	0x3df6781c	0.12034628
90	0xbea18c6a	-0.3155244
91	0x3e25055e	0.16115329
92	0x3eba82ca	0.3642791
93	0x3eeee9e2	0.46662813
94	0xbe2a7e88	-0.1664983
95	0xbdbbc70b	-0.09168824
96	0x3e6568d6	0.22403273
97	0x3e6edd87	0.23326693
98	0x3e2c24be	0.16810891
99	0xbe80c659	-0.25151327
100	0xbcae4034	-0.021270849
101	0x3e4319bd	0.19052787
102	0x3e81dd21	0.2536402
103	0x3ed27daf	0.41111514
104	0x3e9aebb7	0.3025796
105	0xbe846747	-0.25860044
106	0xbf29a4c7	-0.66267055
107	0xbf3eab9b	-0.744806
108	0xbe6ddaab	-0.23227946
109	0xbc089d97	-0.008338354
110	0xbe27d2a2	-0.16388944
111	0xbf132d9f	-0.5749149
112	0xbf3803dc	-0.7188089
113	0xbf106a57	-0.5641226
114	0xbeae8cad	-0.34091702
115	0x3ec4cb31	0.38436273
116	0x3e3af043	0.18255715
117	0x3d414f2a	0.047194637
118	0x3e144618	0.14479864
119	0xbdd1640e	-0.10224162
120	0x3ef3515a	0.47523004
121	0x3f035db5	0.5131486
122	0x3f1b3d34	0.60640264
123	0x3e5ee1d6	0.21765837
124	0x3e33eeb1	0.17571522
125	0x3cd951fa	0.026528347
126	0xbef2f086	-0.4744913
127	0xbf1aced6	-0.60471857
128	0xbec648f9	-0.3872755
129	0xbc081f91	-0.008308307
130	0xbe939604	-0.2882539
131	0xbf2ffe91	-0.6874781
132	0xbece4977	-0.40290424
133	0xbda67812	-0.0812837
134	0x3ed3ef8d	0.413937
135	0xbf122902	-0.5709382
136	0xbee8c2d9	-0.45461157
137	0xbe25f506	-0.1620675
138	0x3e489fdd	0.19592233
139	0x3ee2f081	0.44324115
140	0xbefd19f5	-0.49433866
141	0xbebb2993	-0.36555156
142	0x3e3f2aa1	0.18668605
143	0x3eaacbc3	0.33358583
144	0x3e8a3490	0.26993227
145	0xbf0572c1	-0.52128226
146	0xbe42b3c8	-0.19013894
147	0xb8caad49	-9.6643875e-05
148	0x3ea55a13	0.32295284
149	0x3e8c07da	0.2734974

conv1.bias f4 [6]
0	0xbeb0e3fd	-0.3454894
1	0xbea5132d	-0.32241192
2	0xbe3ca6e8	-0.18423045
3	0xbe84bcb2	-0.25925213
4	0xbd5e4abb	-0.054270487
5	0xbdb22489	-0.08698375

conv2.weight f4 [12, 6, 5, 5]
0	0x3e1275d2	0.14302757
1	0x3e6c1e5a	0.23058453
2	0xbe25c0f9	-0.16186894
3	0xbe882c0a	-0.265961
4	0x3cf1cfa2	0.029517952
5	0x3e5903d2	0.21192864
6	0x3ee5e0d9	0.44898108
7	0x3e653785	0.2238446
8	0x3e1d2ee7	0.15349923
9	0x3e6c0a86	0.2305089
10	0xbe7244fb	-0.23659126
11	0x3e6bfdc4	0.23046023
12	0x3e59e146	0.21277341
13	0x3e64a62e	0.22329018
14	0x3ead84c7	0.33890364
15	0xbe4c2840	-0.19937229
16	0xbee25dbe	-0.44212145
17	0xbee8fc30	-0.45504904
18	0xbe3d9cf4	-0.18516904
19	0x3c3dec55	0.0115919905
20	0x3ed1b80d	0.40960732
21	0x3e01b8b6	0.12668118
22	0xbe1f604e	-0.15564081
23	0xbead5051	-0.3385034
24	0xbe0a9bdb	-0.13536017
25	0x3dd9544e	0.10611783
26	0x3ebb8dcc	0.3663162
27	0x3ea07d9d	0.31345835
28	0x3e9c098a	0.30476028
29	0xbdd7dfe3	-0.1054075
30	0xbdea814a	-0.11450441
31	0x3dd451b1	0.10367144
32	0xbc81cba8	-0.015844181
33	0x3d7b3a25	0.061334748
34	0x3eb217d0	0.34783792
35	0xbf0c1117	-0.5471358
36	0xbf395fb8	-0.7241168
37	0xbf0cde92	-0.55027115
38	0xbe261fa4	-0.16223007
39	0x3e1ee401	0.15516664
40	0x3c5d65fa	0.013513083
41	0x3d9ab02b	0.075531326
42	0xbe9c4127	-0.30518457
43	0xbf04f59e	-0.5193728
44	0xbebc84e1	-0.3682013
45	0x3dd6c95e	0.104876265
46	0x3d92fb59	0.07176847
47	0x3d55b4d2	0.052174397
48	0xbc601c53	-0.013678628
49	0xbdcbd351	-0.09952415
50	0x3e31094c	0.17288703
51	0xbdd993bf	-0.106238835
52	0xbe278255	-0.16358311
53	0xbe39c5e9	-0.18141903
54	0x3e03c990	0.12869859
55	0x3e0151fb	0.1262893
56	0x3ea10793	0.3145109
57	0x3e311251	0.17292143
58	0x3da81a4f	0.08208143
59	0x3e5a221d	0.21302076
60	0x3ddab14d	0.10678349
61	0x3eee6a08	0.4656527
62	0x3eeec1bb	0.4663218
63	0x3ea33ed5	0.31883875
64	0x3e9a7910	0.30170488
65	0xbf1441fe	-0.57913196
66	0xbf006aab	-0.5016276
67	0xbe4fc564	-0.20290142
68	0x3df1f3ef	0.11814105
69	0x3e5a3055	0.213075
70	0xbd8a6a7a	-0.0675859
71	0xbee2e273	-0.44313392
72	0xbf0aa2f5	-0.541549
73	0xbf443120	-0.7663746
74	0xbf0d871d	-0.5528429
75	0x3c981c13	0.018568074
76	0xbe469133	-0.19391327
77	0xbe220820	-0.15823412
78	0x3c601a77	0.013678185
79	0xbdf97667	-0.121807866
80	0x3cbb2682	0.02284551
81	0xbddcc157	-0.10779064
82	0xbb87615e	-0.00413148
83	0xbe020854	-0.1269849
84	0xbd525278	-0.05134818
85	0xbed0561d	-0.406907
86	0xbf013f5a	-0.5048729
87	0xbeb15210	-0.3463292
88	0xbd42db09	-0.04757217
89	0x3d297d63	0.041379344
90	0xbea3c015	-0.31982484
91	0xbf1afbb4	-0.6054032
92	0xbf2b461f	-0.6690387
93	0xbecc3ed2	-0.39891678
94	0xbe2a6935	-0.16641696
95	0x3debada7	0.11507731
96	0xbec39709	-0.38201168
97	0xbee94e94	-0.45567763
98	0xbdcf05f2	-0.10108556
99	0x3ca2e6c2	0.019885425
100	0x3e0f1693	0.13973455
101	0x3e991e97	0.2990615
102	0x3eb57b8a	0.35445815
103	0x3e3528da	0.17691365
104	0x3e5cfd3c	0.21580976
105	0x3bb9e884	0.00567347
106	0x3d1cde97	0.038298216
107	0xbd1954f5	-0.037434537
108	0x3dced043	0.100983165
109	0x3e958821	0.2920542
110	0x3d39c58f	0.045354422
111	0xbd6aa6c7	-0.057287958
112	0xbe099ea8	-0.13439429
113	0xbe0720e5	-0.13196142
114	0xbd883f9f	-0.0665276
115	0x3f345ced	0.70454293
116	0x3f0dae9c	0.5534456
117	0x3ec12829	0.37725952
118	0x3e4f7162	0.20258096
119	0xbcdcd60a	-0.02695753
120	0xbd57dea5	-0.052702565
121	0x3e2e0d55	0.16997273
122	0x3dbbf239	0.0917706
123	0xbce71148	-0.028206483
124	0xbe3df69e	-0.18551108
125	0x3c9ac128	0.018890932
126	0xbc820d04	-0.015875347
127	0x3ddea76d	0.10871778
128	0xbdc81af9	-0.097707696
129	0xbeb56ca0	-0.35434437
130	0xbce327e7	-0.027728988
131	0xbe0bd31e	-0.13654754
132	0xbdc2d042	-0.09512378
133	0xbe33616e	-0.17517635
134	0xbd4b95b3	-0.04970331
135	0xbe942a4a	-0.28938514
136	0xbea74864	-0.32672417
137	0xbe29e4df	-0.16591214
138	0x3d0ee862	0.034889586
139	0xbe11d5e3	-0.14241748
140	0xbe28d73d	-0.16488357
141	0xbedfa792	-0.43682534
142	0xbec6b176	-0.38807267
143	0xbcb4086b	-0.02197667
144	0xbd35e7c6	-0.04441049
145	0xbdb77907	-0.08958631
146	0xbe68f3c8	-0.22749245
147	0xbe25d068	-0.16192782
148	0xbc636f4e	-0.013881518
149	0x3d9a3639	0.075298734
150	0x3cfa00fd	0.03051805
151	0x3ddb9194	0.10721126
152	0x3def7d3e	0.1169381
153	0x3d417cfd	0.04723834
154	0x3e089429	0.13337769
155	0x3e95929c	0.29213417
156	0x3ecdc23a	0.40187246
157	0x3e813d50	0.2524209
158	0xbceca949	-0.028889315
159	0x3b46594c	0.0030265627
160	0xbe957a7e	-0.29195017
161	0xbef04dac	-0.4693426
162	0xbf0a43ed	-0.54009897
163	0xbf0c975c	-0.54918456
164	0xbe55fa07	-0.20896159
165	0xbec8ecb6	-0.39243096
166	0xbe30e533	-0.17274933
167	0x3dcc3673	0.09971323
168	0xbd1ae9b6	-0.03782054
169	0xbe3f69e0	-0.18692732
170	0x3d542316	0.051791273
171	0x3e6df724	0.23238808
172	0x3e93a2cc	0.28835142
173	0x3ece836f	0.4033465
174	0x3d0b489b	0.03400479
175	0x3d8c4074	0.06848231
176	0xbe9d6b86	-0.30746096
177	0xbe1fd8a4	-0.15609986
178	0x3e85ef17	0.26158974
179	0x3eaa66af	0.33281466
180	0xbf45e2c5	-0.7729915
181	0xbe720a31	-0.236367
182	0xbf01d894	-0.50721097
183	0xbefb69cc	-0.49104154
184	0xbf1bbcc9	-0.6083494
185	0x3c01b994	0.00791778
186	0xbd15e064	-0.03659095
187	0xbe4f0276	-0.20215783
188	0xbe73eb4f	-0.23820232
189	0x3d39e0bf	0.04538035
190	0x3e9424bb	0.28934273
191	0x3e349a83	0.17637067
192	0x3e1dba0d	0.15403004
193	0x3e12b2c3	0.14326005
194	0x3ea154fb	0.31510147
195	0x3cbd0cdd	0.023077423
196	0xbcf03c0f	-0.029325513
197	0x3cfb4be6	0.03067584
198	0x3e0a8545	0.13527401
199	0x3d2c7571	0.04210419
200	0x3e638227	0.22217618
201	0x3e8c8772	0.27447087
202	0xbc613783	-0.013746145
203	0xbd9b574e	-0.075850114
204	0x3e989866	0.2980377
205	0x3f0b961c	0.54525924
206	0x3e826d6f	0.25474116
207	0x3d99ec56	0.07515781
208	0x3eac9f67	0.33715364
209	0x3eebf2ce	0.46083683
210	0x3e826e9d	0.25475016
211	0xbd9d6770	-0.07685745
212	0x3e4ea6a6	0.20180759
213	0x3e20a657	0.15688454
214	0xbdfef30a	-0.124487
215	0xbf244fcd	-0.64184266
216	0xbefed4b1	-0.49771646
217	0xbedcf162	-0.4315291
218	0xbeaf228f	-0.34206054
219	0xbe433015	-0.1906131
220	0x3b3272d9	0.00272291
221	0xbbf8a9d2	-0.0075886035
222	0xbd9a4080	-0.07531834
223	0x3de79adc	0.11308834
224	0x3e286656	0.16445288
225	0x3eb99b00	0.36251068
226	0x3d22317d	0.039597977
227	0x3ba07dee	0.0048978245
228	0x3e1966ba	0.14980593
229	0x3e8224d2	0.25418717
230	0xbed7b027	-0.4212658
231	0xbea836b7	-0.32854244
232	0xbe44e9d0	-0.19229817
233	0xbe808728	-0.25103116
234	0xbe7ce6ee	-0.24697468
235	0xbf39e769	-0.7261873
236	0xbf2b4146	-0.66896474
237	0xbf4a6675	-0.7906259
238	0xbf0157b6	-0.5052446
239	0xbdf44367	-0.119269185
240	0xbe66b5f2	-0.22530344
241	0xbdff5914	-0.12468162
242	0xbe6186b9	-0.22024049
243	0xbba90ea9	-0.0051592183
244	0xbc217e61	-0.009856791
245	0x3d9e3dbf	0.07726621
246	0x3e32be7d	0.17455478
247	0xbb80dbac	-0.003932437
248	0x3ccbf70f	0.02489808
249	0xbe4eb6b0	-0.20186877
250	0xbe0c150d	-0.13679905
251	0xbf0d030e	-0.55082786
252	0xbebbb92e	-0.36664718
253	0xbed3f6e0	-0.41399288
254	0xbe801261	-0.25014022
255	0xbf131e0c	-0.5746772

conv2.bias f4 [12]
0	0xbd6820c6	-0.05667188
1	0xbe2614f6	-0.16218933
2	0x3c9c3423	0.01906783
3	0xbe8471d7	-0.25868103
4	0xbe555910	-0.20834756
5	0xbc85ef5d	-0.016349489
6	0xbe1d1502	-0.15340045
7	0xbda1d99c	-0.07902834
8	0xbe113ffb	-0.14184563
9	0xbe542ff1	-0.20721413
10	0xbe0eeeda	-0.13958302
11	0xbdd38ce7	-0.10329609

fc1.weight f4 [100, 300]
0	0x3c56620a	0.013084898
1	0x3c4b3387	0.012402422
2	0xbc3aeda3	-0.011409196
3	0xbc10f7b8	-0.008848123
4	0xbd5fc48c	-0.0546308
5	0xbd81bed8	-0.06335229
6	0x3b3133cc	0.002703893
7	0xbc9df480	-0.019281626
8	0xbd3f2b49	-0.04667214
9	0xbada5786	-0.0016658164
10	0x3b614a53	0.0034376576
11	0xbc973686	-0.018458616
12	0xbd91f3e3	-0.07126596
13	0xbcbdfc8e	-0.023191717
14	0xbcccbd15	-0.024992505
15	0xbd521b21	-0.051295403
16	0xbd1fd19d	-0.039018262
17	0xbc52e0c0	-0.012870967
18	0x3c9f384d	0.019436026
19	0xbc60a9fb	-0.0137124015
20	0xbd288db6	-0.04115077
21	0xbd47dd5a	-0.04879508
22	0xbd758c21	-0.05994809
23	0xbd3e6686	-0.046484493
24	0xbcd2d427	-0.025735928
25	0xbd9f1447	-0.077675395
26	0xbccf57bc	-0.02531039
27	0xbd235e37	-0.039884772
28	0xbd21edab	-0.0395333
29	0xbc77aff4	-0.015117634
30	0x3c4fa666	0.01267395
31	0xbcc8117f	-0.024422405
32	0x3c0c34d4	0.008557517
33	0xbd51fadb	-0.051264625
34	0xbc7094f6	-0.014683953
35	0xbd997a45	-0.07494024
36	0xbd8993f9	-0.06717677
37	0xbdd7b4b3	-0.105325125
38	0xbd866ec7	-0.06564098
39	0xbc0b6f92	-0.008510487
40	0xbd0c47d3	-0.034248184
41	0xbd951d61	-0.07280994
42	0xbcebe3da	-0.028795172
43	0xbbae89bb	-0.0053264773
44	0xbbb67c51	-0.005569019
45	0xbbc64650	-0.0060508624
46	0xbd22350c	-0.03960137
47	0xbaef7a8f	-0.0018270778
48	0xbc7a7c00	-0.015288353
49	0xba101d2b	-0.00054975104
50	0xbd82c171	-0.06384552
51	0xbbcb46e6	-0.00620352
52	0xbc8a6e2f	-0.016898243
53	0x3c950a9f	0.018193541
54	0x3ce2e31c	0.027696185
55	0x3c9f0d23	0.019415444
56	0xbd30d232	-0.043169208
57	0xbc35ccb6	-0.01109617
58	0xbc9d9118	-0.019234225
59	0x3baffc4f	0.0053706537
60	0xbd6d57dc	-0.057945117
61	0xbc84004c	-0.016113423
62	0xb9e5bd92	-0.00043819525
63	0xbce0a43a	-0.02742206
64	0xbcdbe314	-0.026841678
65	0xbdb52f71	-0.08846939
66	0xbdf6ee1a	-0.12057133
67	0xbcd0e72a	-0.025500853
68	0xbcdae115	-0.026718656
69	0xbd6fe8fc	-0.0585718
70	0xbd9a3482	-0.07529546
71	0xbda7d791	-0.08195413
72	0xbd1ff212	-0.039049216
73	0xbba0750e	-0.0048967665
74	0x372154b8	9.616073e-06
75	0xbab9c37e	-0.0014172641
76	0xbdca0edd	-0.09866116
77	0xbd87896f	-0.0661801
78	0xbd3944b2	-0.04523153
79	0xb564fab8	-8.530146e-07
80	0x3b5993c3	0.0033199645
81	0xbd6ac2fd	-0.05731486
82	0x3b7f38c6	0.0038943752
83	0xbd46395d	-0.04839455
84	0xbc519e10	-0.012794033
85	0x3a00930a	0.0004904723
86	0xbd5b1949	-0.05349091
87	0xbaa85bde	-0.0012844761
88	0xbd2d7a36	-0.042352878
89	0x8064083e	-9.186506e-39
90	0xbd715dcf	-0.058927353
91	0x3c58b05e	0.013225643
92	0xbc61d2ee	-0.0137832
93	0xbda1aa8d	-0.07893858
94	0xbc26e1f0	-0.010185704
95	0xbd27c1d8	-0.04095635
96	0x3c8ab638	0.016932592
97	0x3b850ecc	0.004060602
98	0x3b065287	0.0020495967
99	0x366da412	3.5411254e-06
100	0x0196ccbc	5.5395077e-38
101	0x819f60e0	-5.8546384e-38
102	0xb6799972	-3.7193208e-06
103	0xbc4e9cfd	-0.012610671
104	0xbba787e8	-0.005112637
105	0x01398741	3.4076173e-38
106	0x24f32858	1.05452796e-16
107	0xbad6d59f	-0.0016390568
108	0xbd2fb09d	-0.04289304
109	0xbd9ea303	-0.07745936
110	0x00253da4	3.420026e-39
111	0x810aaa00	-2.5468566e-38
112	0xbd8e63fc	-0.06952664
113	0xbccb2a61	-0.024800481
114	0xbb043bf8	-0.0020177346
115	0x00817142	1.1887408e-38
116	0x80fff290	-2.3505067e-38
117	0xbd035e64	-0.03207244
118	0xbc785a08	-0.015158184
119	0xbd646cb3	-0.055767726
120	0x019da3ba	5.790763e-38
121	0xbbf2354f	-0.007391609
122	0xbda1db11	-0.07903112
123	0xbccbad78	-0.02486299
124	0xbd41f5ab	-0.047353428
125	0xbb9675a0	-0.0045916587
126	0xbcba6fcb	-0.022758385
127	0xbca2cc68	-0.01987286
128	0xbb06c2e4	-0.0020562941
129	0x3d4ab941	0.04949308
130	0xbc35941e	-0.011082677
131	0xbda81890	-0.0820781
132	0xbd748c63	-0.059704196
133	0xbd36a070	-0.0445866
134	0x3d12eb33	0.035868835
135	0xbce7bcaa	-0.028288204
136	0xbdb5d50a	-0.088785246
137	0x3be96bdc	0.0071234535
138	0xbce83445	-0.028345237
139	0xbc35bd42	-0.011092486
140	0x29534971	4.6915112e-14
141	0xbcef534d	-0.029214526
142	0xbcbe51d0	-0.02323237
143	0xbd7409e5	-0.05957975
144	0xbab7826b	-0.001400066
145	0xbbf84754	-0.0075768624
146	0x3c15798e	0.009123219
147	0x3c0a4c03	0.008440974
148	0xbda41f0a	-0.08013733
149	0xbc23e112	-0.010002391
150	0xbc07d5b8	-0.008290701
151	0xbd2ff147	-0.04295471
152	0xbd48dd91	-0.049039427
153	0x3c6d5e28	0.014487781
154	0xbcd7882e	-0.026310053
155	0xbd4a5f58	-0.049407333
156	0xbb171d6e	-0.0023058313
157	0xbae2465d	-0.0017263402
158	0x3da7d812	0.08195509
159	0xbb35caa3	-0.002773919
160	0xbd058242	-0.032594927
161	0xbb1f6c20	-0.0024325922
162	0xbbbaa88d	-0.0056963624
163	0xbbb90c4e	-0.005647219
164	0xbdc3be72	-0.09557809
165	0xbd5cdcfd	-0.05392169
166	0xbc29507a	-0.0103341285
167	0xbd3e47e2	-0.04645527
168	0x3c328184	0.010895137
169	0xbdbc6259	-0.09198446
170	0xbaf357f7	-0.0018565644
171	0x3be766b7	0.007061805
172	0xb7c4afdd	-2.3446913e-05
173	0x3c4fa7aa	0.012674252
174	0xbccc8a06	-0.024968158
175	0xbcc5cdf6	-0.024146061
176	0x3d0ca51c	0.034337148
177	0xbcd62468	-0.026140407
178	0xbd1a02fa	-0.037600495
179	0xbcf933b0	-0.030420154
180	0xbd0fa0ff	-0.035065647
181	0xbd6c798b	-0.0577331
182	0xbdb0690f	-0.08613788
183	0xbca92650	-0.020648152
184	0xbc5fc384	-0.013657454
185	0xbd2090e3	-0.039200675
186	0xbbdb0007	-0.006683353
187	0x3bcbc33f	0.0062183435
188	0xbd7c634e	-0.06161814
189	0xbc87ed44	-0.01659263
190	0xbc94adff	-0.018149374
191	0xbc683771	-0.0141733745
192	0xbc2b907f	-0.010471462
193	0xbd4cc5da	-0.049993373
194	0xbd5e7b77	-0.054316964
195	0xbda0b9e7	-0.07847958
196	0xbc914c49	-0.01773657
197	0xbd8d69e9	-0.069049664
198	0xba1a50ed	-0.00058866927
199	0xbd928446	-0.071541354
200	0xbccbcf1d	-0.024879033
201	0x3baedc75	0.005336339
202	0xbcb4715f	-0.022026716
203	0xbc349a19	-0.011023068
204	0xbd4564d8	-0.048191875
205	0xbd0403e1	-0.03223026
206	0xbd9a9298	-0.07547492
207	0xbd0df105	-0.034653682
208	0xbc99e69d	-0.018786723
209	0x3aa469e9	0.0012543771
210	0x3cc4679c	0.023975186
211	0xbc88d64b	-0.016703745
212	0xbcd66856	-0.026172798
213	0xbc9016dd	-0.017589027
214	0x376f2230	1.425347e-05
215	0xbd739162	-0.05946482
216	0xbcf6946b	-0.030100068
217	0xbccebff5	-0.025238017
218	0xbc820579	-0.01587175
219	0x3c3eebf5	0.011652936
220	0xbd8565cf	-0.06513559
221	0xbd89a747	-0.06721359
222	0xbceee64a	-0.029162545
223	0x3b5f8ad1	0.003410984
224	0xbc1a745c	-0.009427156
225	0x3ba4df3a	0.0050314935
226	0xbd710f00	-0.058852196
227	0xbd5bfb64	-0.05370654
228	0x3b754794	0.0037426697
229	0xbc19e81c	-0.009393718
230	0xbcfca532	-0.03084049
231	0x3c15bc6b	0.009139161
232	0xbd281af1	-0.04104132
233	0xbd85483f	-0.065079205
234	0xbcea4b9e	-0.02860051
235	0xbce7090a	-0.028202552
236	0xbdb663f1	-0.08905781
237	0xbd750d89	-0.05982736
238	0xbd944617	-0.07239931
239	0xbcd917dd	-0.026500637
240	0xba0e06b8	-0.0005417871
241	0x3cbd7455	0.02312676
242	0x3cee1780	0.02906394
243	0xbbbcb75a	-0.005759162
244	0xbc748de0	-0.014926404
245	0xb9dfecd0	-0.00042710314
246	0x3c5a4226	0.013321435
247	0xbd1bd6b9	-0.038046572
248	0xbbb6187f	-0.0055571194
249	0x011c61cc	2.872284e-38
250	0xb3898533	-6.4037884e-08
251	0xbcc8011a	-0.024414588
252	0xbd6160b2	-0.055023856
253	0xbb0ee8bd	-0.0021806203
254	0xbb72740a	-0.0036995434
255	0x3c304e6b	0.010760884

fc1.bias f4 [100]
0	0xbd181728	-0.03713146
1	0xbd0dd81c	-0.034629926
2	0x3d2e302d	0.042526413
3	0xbca62e7a	-0.020285834
4	0xbd030bb9	-0.0319936
5	0xbb18b2a5	-0.002329984
6	0x3b17099a	0.0023046494
7	0x3cf48a6e	0.029851165
8	0xba8d7cf7	-0.0010794689
9	0xbcf35318	-0.029702708
10	0xbd7ca1b8	-0.061677665
11	0xbc88caf0	-0.01669833
12	0x3d5e26d2	0.05423624
13	0x3e45ba41	0.19309331
14	0x3d73996e	0.059472494
15	0xbd9e576b	-0.077315174
16	0xbdfe09f3	-0.124042414
17	0x3e5d9547	0.21638976
18	0xa10e47a1	-4.820627e-19
19	0x001baadd	2.540853e-39
20	0xbc4ef076	-0.012630573
21	0xbd13628b	-0.03598265
22	0xbdd9c00d	-0.10632334
23	0xbc719a05	-0.014746194
24	0x3a952764	0.0011379537
25	0xbcf243dd	-0.029573375
26	0xbdef69d8	-0.1169011
27	0xbc2195c3	-0.009862366
28	0x3e0e150d	0.13875218
29	0x81a0b67c	-5.903657e-38
30	0xbbcda477	-0.0062757093
31	0xbd5e747d	-0.05431031
32	0x3d29bb3b	0.041438323
33	0x3cdcdb77	0.026960118
34	0x3bcdf378	0.0062851273
35	0xbc3e0629	-0.011598148
36	0xbe362b34	-0.17789918
37	0xbe1b3004	-0.15155035
38	0x3af8f957	0.0018995208
39	0xbca054ad	-0.019571627
40	0xbdc7e259	-0.09759969
41	0xb908c686	-0.00013043926
42	0xbb80e5ea	-0.003933658
43	0xbd1c62f2	-0.0381803
44	0xb937a295	-0.00017512807
45	0xbd1c26a5	-0.03812279
46	0xbe179d0f	-0.14806007
47	0xbe04da7c	-0.1297397
48	0x8017ad48	-2.174378e-39
49	0xbc4666f9	-0.0121095115
50	0xbd059408	-0.032611877
51	0x2124c63a	5.582771e-19
52	0xbd9509ea	-0.072772816
53	0x3c85e9e1	0.016346874
54	0xb00a2066	-5.025015e-10
55	0xbc88a3c7	-0.016679658
56	0xbd8a6e0e	-0.067592725
57	0xbd4abb3c	-0.049494967
58	0xbd482f19	-0.04887304
59	0xbd612c5b	-0.05497394
60	0x3dc39e00	0.095516205
61	0xbd431f4f	-0.04763728
62	0xbe44b729	-0.19210495
63	0xbcb7d04d	-0.022438193
64	0x3d4697a3	0.048484456
65	0xbaa098e2	-0.0012252594
66	0xb710e051	-8.635297e-06
67	0xbda80314	-0.08203712
68	0x00687533	9.592935e-39
69	0xbd9346e8	-0.07191259
70	0xa0cf4867	-3.5115076e-19
71	0x3d135728	0.03597179
72	0xbd7f2d9f	-0.062299367
73	0x3cb56245	0.022141585
74	0xbc27d0cd	-0.010242653
75	0x21164675	5.0915226e-19
76	0xbbf2ffc6	-0.0074157445
77	0xbd9128f4	-0.07087889
78	0xbd046595	-0.03232344
79	0x3d2e93aa	0.042621292
80	0xbd36ffdd	-0.044677604
81	0xbdbdb2f9	-0.09262652
82	0xb4567386	-1.997233e-07
83	0x3cffede2	0.031241361
84	0xbdbdd539	-0.092691846
85	0x8d12942b	-4.5168074e-31
86	0x2fe960af	4.245115e-10
87	0xbcb36a07	-0.021901144
88	0xbd7620a3	-0.06008972
89	0xbd8528e1	-0.06501938
90	0x3da6829e	0.08130382
91	0xbd020d9d	-0.031751264
92	0xba5f418d	-0.0008516543
93	0x819258fb	-5.375961e-38
94	0xbcbfb28e	-0.023400571
95	0x27543f0e	2.9455092e-15
96	0xbd34a0b8	-0.044098586
97	0xbdf1d985	-0.11809067
98	0xbd33db21	-0.04391015
99	0xbcf9501f	-0.030433713

fc2.weight f4 [84, 100]
0	0x3cb4f800	0.022090912
1	0x3d869d8a	0.06573017
2	0x3d701086	0.058609508
3	0x3d742fff	0.059616085
4	0xbd8ce5eb	-0.06879791
5	0x1ebeb8c8	2.0193456e-20
6	0x3d5389c2	0.051645048
7	0xbdc21ced	-0.094781734
8	0x00a0d5f3	1.477043e-38
9	0xbced3511	-0.028955968
10	0xbd16c24a	-0.036806382
11	0x3da2290e	0.07917987
12	0x3ce5d3e5	0.02805514
13	0x3c8de98d	0.01732328
14	0xbba0b8ab	-0.0049048266
15	0x3c3a3ea9	0.011367478
16	0xbd339b66	-0.04384937
17	0x3dc7b21c	0.097507685
18	0x8173874e	-4.4729127e-38
19	0x00a66328	1.5280263e-38
20	0x3d1dac46	0.03849437
21	0x3cb582cd	0.022157097
22	0xbcd682d0	-0.026185423
23	0x3e0651dc	0.13117164
24	0x3c76be27	0.015059984
25	0xbdc01e16	-0.093807384
26	0x3d7db143	0.061936628
27	0x8043c38b	-6.223126e-39
28	0x3de5bc13	0.11217513
29	0x80f9edfb	-2.295241e-38
30	0x3b93d347	0.00451127
31	0xb9d1880c	-0.0003996495
32	0x3dc18596	0.094493076
33	0xbd8476dc	-0.06467983
34	0x3e1172e2	0.1420398
35	0xbcfa648f	-0.030565528
36	0xbde4130b	-0.11136445
37	0xbd8eeb78	-0.06978506
38	0x3d96f381	0.073706634
39	0xbdfd18a2	-0.12358214
40	0x3cc1abd2	0.0236415
41	0x0199610e	5.634259e-38
42	0xa5e24d94	-3.925732e-16
43	0x3de3b889	0.11119182
44	0x16ab05e4	2.7630257e-25
45	0x3dfdfbe5	0.12401561
46	0xbd9edf88	-0.07757479
47	0x3df2062f	0.11817586
48	0x80cb7736	-1.868537e-38
49	0xbc15686a	-0.0091191325
50	0x3c94a043	0.018142825
51	0x1ee7d0a8	2.4544375e-20
52	0x910ddddc	-1.1191304e-28
53	0x3a24b4cb	0.0006283044
54	0x80d58a63	-1.9610604e-38
55	0xbd80a30d	-0.062810995
56	0x3d3fa28b	0.046785872
57	0xbd771789	-0.06032518
58	0x3d9b3163	0.07577779
59	0xbd2badc8	-0.041913778
60	0x3dfb2522	0.12262942
61	0x3c9ba52e	0.018999662
62	0xbd16d55f	-0.03682458
63	0x3bb81692	0.005617925
64	0x3d87e03a	0.06634565
65	0x3d4b8d8b	0.049695533
66	0x28023173	7.227172e-15
67	0xbce258f1	-0.027630301
68	0x00b9a150	1.7047435e-38
69	0xbd126153	-0.035737347
70	0x9dab9c22	-4.542476e-21
71	0xbd51c576	-0.051213704
72	0x3cf9693d	0.03044569
73	0x3de06615	0.109569706
74	0xbc67f4a8	-0.014157452
75	0xa3134b84	-7.984877e-18
76	0x3d85f96c	0.06541714
77	0x3da481a0	0.080325365
78	0xbcd96f1c	-0.026542239
79	0x3cde28ca	0.02711906
80	0x3c8b8846	0.017032754
81	0x3c34c6db	0.011033739
82	0x010eece9	2.6251256e-38
83	0x3d85652e	0.06513439
84	0x3cfac585	0.030611763
85	0x099a002f	3.7074324e-33
86	0x3143dbf7	2.850127e-09
87	0x3cf2fae9	0.029660659
88	0xbd7eea9f	-0.06223547
89	0x3d9e2d2b	0.07723459
90	0x3da90088	0.082520545
91	0xbd87e6f3	-0.06635847
92	0xbd84c9c1	-0.06483794
93	0x80fdf826	-2.33234e-38
94	0x810d4394	-2.5946095e-38
95	0xba1fc15d	-0.0006094182
96	0xbd3614c2	-0.04445339
97	0x3d373ee6	0.04473772
98	0x3cfa35ec	0.03054329
99	0xbcc5f3f9	-0.024164187
100	0x3d39dc72	0.04537625
101	0x3dad5d69	0.08465082
102	0xbdd27018	-0.102752864
103	0xbd385c68	-0.04501
104	0xbe648f2e	-0.22320244
105	0x3c8f0ba9	0.017461615
106	0x3e9c57a3	0.30535612
107	0x3e2eb303	0.17060475
108	0xbd3bf4c4	-0.045887724
109	0xbc2a9bce	-0.010413123
110	0xbc58d093	-0.013233322
111	0xbd2ddcee	-0.042447023
112	0xbe669452	-0.22517517
113	0x3dc964ba	0.09833665
114	0x3cb870c2	0.022514705
115	0xbd87ab35	-0.06624452
116	0xbe7601b9	-0.24024095
117	0xbdbd9151	-0.092562325
118	0x26a9c768	1.178078e-15
119	0x3a0ec18e	0.0005445712
120	0xbc887b84	-0.01666046
121	0xbdb6a24f	-0.08917677
122	0xbd8a57eb	-0.0675505
123	0x3e1673f4	0.1469267
124	0xbdeb478c	-0.11488256
125	0xbde901df	-0.1137731
126	0xbcf03a18	-0.029324576
127	0xbc821725	-0.015880177
128	0xbed8471e	-0.42241758
129	0x01664b7e	4.229849e-38
130	0xbc6afcfa	-0.014342541
131	0xbdebc581	-0.1151228
132	0xbe81e106	-0.25366992
133	0xbd6d5448	-0.057941705
134	0xbd4d96e9	-0.050192747
135	0x3d10ec8c	0.03538184
136	0x3da1746e	0.07883535
137	0xbd936602	-0.07197191
138	0xbe5b4c03	-0.21415715
139	0xbcb095a4	-0.02155573
140	0xbe716bee	-0.23576328
141	0xbb01763f	-0.0019754318
142	0xbcc4c3d0	-0.024019152
143	0xbe3ef7e2	-0.18649247
144	0x380d921e	3.3753102e-05
145	0xbd8d9bb9	-0.06914467
146	0xbe829922	-0.25507456
147	0xbe1d8aec	-0.15385026
148	0xad908033	-1.6427837e-11
149	0x3dd62cc2	0.104577556
150	0x3d1cd8d8	0.038292736
151	0x203c5882	1.5953504e-19
152	0xbdb73eda	-0.08947535
153	0xbd36ac03	-0.044597637
154	0x36027e89	1.9445163e-06
155	0x3e1089a6	0.14115009
156	0xbd6f395b	-0.058404308
157	0xbda4edb8	-0.08053154
158	0xbd6b07e7	-0.057380583
159	0x3bb498e1	0.0055113886
160	0x3d32889f	0.043587323
161	0x3d38736a	0.045031942
162	0x3b1f350c	0.0024293093
163	0xbd69bafa	-0.05706308
164	0xbcf71e13	-0.030165708
165	0xbe504b60	-0.20341253
166	0xb71a1723	-9.184502e-06
167	0xbe7edbc2	-0.24888518
168	0xa4cdbb93	-8.922234e-17
169	0xbe672771	-0.2257364
170	0x12cbb24e	1.2855057e-27
171	0x3ee0cdb6	0.43906945
172	0x3d220d93	0.039563727
173	0x3cd4db20	0.025983393
174	0x3e8837b8	0.2660501
175	0x24356fa2	3.9342675e-17
176	0xbcd4e1fd	-0.025986666
177	0x3d49552d	0.049153496
178	0x3e1600f4	0.14648801
179	0x3e795f76	0.24352822
180	0x3dd5f6cd	0.10447464
181	0x3e03fa33	0.12888412
182	0x3b094fbf	0.0020952073
183	0x3da76eae	0.08175407
184	0xbe79f33a	-0.2440919
185	0x8e27ed50	-2.0698601e-30
186	0xaa79a692	-2.2173433e-13
187	0xbd46a665	-0.04849853
188	0xbd7fa6ff	-0.06241512
189	0xbe543039	-0.2072152
190	0x3d036bc0	0.03208518
191	0x3defc430	0.11707342
192	0x3ed08c73	0.40732154
193	0x0171d842	4.4419867e-38
194	0xbcab670d	-0.020923162
195	0x3b140221	0.0022584277
196	0x3ebcd46b	0.36880812
197	0xbe1e3299	-0.15448989
198	0xbd6cfc8d	-0.05785804
199	0x3e0ab159	0.13544215
200	0x3ca76893	0.020435607
201	0x3e3f6f4b	0.18694799
202	0x3e90dc33	0.28293
203	0x3cb3254a	0.021868367
204	0x3e48257a	0.19545546
205	0x3c469d22	0.012122424
206	0xbdaf276a	-0.085524395
207	0x3c914f4c	0.017738007
208	0x3cc530fa	0.024071205
209	0x3dd54145	0.1041284
210	0x3e34f5d6	0.17671904
211	0x3d8fd603	0.07023241
212	0x3e6457c1	0.222991
213	0x3ec04bbd	0.37557784
214	0xbbd4b4bb	-0.0064912713
215	0x3ea7a8ed	0.32746068
216	0xbef3c5bd	-0.476118
217	0x3eaa98bd	0.33319655
218	0x39c08c94	0.00036725833
219	0x3c0c1cd9	0.0085518
220	0x3d087b4a	0.033320703
221	0x3dd0aac1	0.10188819
222	0x3ebae9d7	0.3650653
223	0xbe64438f	-0.22291397
224	0x3d044e45	0.032301206
225	0xbe7cf992	-0.24704579
226	0xbe23811c	-0.1596722
227	0x3c1087c6	0.008821433
228	0x3e1ddd3c	0.15416425
229	0x3b603398	0.003421044
230	0xbb0e0297	-0.0021669024
231	0xbeac5e8d	-0.33665887
232	0x3da1a94e	0.078936204
233	0x3c584480	0.013199925
234	0xbdab2f6c	-0.083586544
235	0x3df78d9d	0.120875575
236	0xbd640c21	-0.05567563
237	0xbe3ae80e	-0.18252584
238	0xbe0456d3	-0.12923746
239	0xba9630e9	-0.0011458668
240	0xbaa84819	-0.001283887
241	0xbbc3e64e	-0.005978382
242	0x3ac42996	0.0014966007
243	0x3e17448b	0.14772241
244	0x3b42da02	0.0029731994
245	0x3e883ea0	0.2661028
246	0xbeabde56	-0.33568066
247	0x3e064fff	0.13116454
248	0xbaff2a26	-0.0019467517
249	0xbe28317c	-0.16425127
250	0xbe33e2f3	-0.17567043
251	0x9e22cd13	-8.618617e-21
252	0xbaa8ded2	-0.0012883788
253	0x3c5e61d6	0.013573131
254	0x3d382058	0.04495272
255	0x3e3fc85a	0.18728772

fc2.bias f4 [84]
0	0x3d2e517c	0.04255818
1	0xbbc6e445	-0.0060696923
2	0x3e3a58da	0.18197957
3	0x3e0d0726	0.13772258
4	0xacf2b77d	-6.898425e-12
5	0x810ad0ce	-2.5496407e-38
6	0xbd360b8b	-0.044444602
7	0xbc49a734	-0.012307931
8	0xb215b93b	-8.715058e-09
9	0x3dccec2d	0.100059845
10	0x3d22899b	0.039682012
11	0x3b601c21	0.0034196454
12	0x3c3228fe	0.010874031
13	0xbcce2d67	-0.025168134
14	0x3e11824d	0.14209862
15	0x3e104f5e	0.14092776
16	0xbdec6cd5	-0.115441956
17	0xbd240e83	-0.040052902
18	0x3d1040a0	0.03521788
19	0xbc99739f	-0.01873189
20	0xbe0533ba	-0.13008013
21	0xbd5a985b	-0.053367954
22	0x3cd9e00c	0.026596092
23	0xbc8bbb03	-0.017056948
24	0xbdcffd46	-0.1015573
25	0xba1c7417	-0.00059682265
26	0x3c1f2109	0.009712466
27	0x8c0dccc2	-1.0923862e-31
28	0x3dc95e15	0.09832398
29	0x3bc43bf2	0.0059885914
30	0xbb791681	-0.0038007798
31	0xbccfa781	-0.025348427
32	0xbd99f056	-0.075165436
33	0x81b1a50f	-6.525638e-38
34	0x3db6d011	0.08926404
35	0xbc919940	-0.01777327
36	0x3e7e94dc	0.24861473
37	0xaa8ab182	-2.4636895e-13
38	0x3cc8e36d	0.024522508
39	0xbd0cc648	-0.034368783
40	0x3d659c59	0.056057308
41	0x3a6443e7	0.0008707628
42	0x3e22e339	0.15906991
43	0xbe110283	-0.14161114
44	0xbd50b06b	-0.050949495
45	0x3c48c816	0.012254735
46	0xbdb57824	-0.08860806
47	0x3d677de0	0.056516528
48	0xbd4277b7	-0.04747745
49	0xbc9b3aa3	-0.018948859
50	0x3c8fbe45	0.017546782
51	0x3bda42ca	0.006660794
52	0xbdb95dae	-0.09051071
53	0x3cb5d5b5	0.02219663
54	0x3cc2374d	0.02370801
55	0xbe07014d	-0.1318409
56	0xbd9a22ca	-0.07526167
57	0x017a045e	4.592088e-38
58	0xbda988c9	-0.08278043
59	0x3c90e74f	0.017688422
60	0x3d89f500	0.06736183
61	0xbde44bf2	-0.11147298
62	0xbda3bf50	-0.07995474
63	0xbdac183e	-0.08403061
64	0x3da8fd07	0.08251386
65	0xbc61afdf	-0.013774841
66	0xbafb5944	-0.0019176384
67	0xbbcf7b78	-0.0063318573
68	0xbc3a78ac	-0.0113813095
69	0xbd63eff2	-0.05564875
70	0x3d9e964f	0.07743513
71	0xbd66dd2c	-0.05636327
72	0xbc1f2513	-0.009713429
73	0xbc72ee37	-0.014827303
74	0xbd120832	-0.035652347
75	0x3e0f5fd1	0.14001395
76	0x802bebc0	-4.033497e-39
77	0x817d7398	-4.6551696e-38
78	0xbca943c3	-0.020662194
79	0xbd1e692c	-0.03867452
80	0xbd56c846	-0.05243709
81	0x96dc8ab6	-3.5630456e-25
82	0x3c9a8530	0.018862337
83	0x3bb779e1	0.005599246

fc3.weight f4 [10, 84]
0	0xbdb3bccb	-0.08776244
1	0x39decb35	0.0004249454
2	0xbd7c786c	-0.06163828
3	0xbd820aae	-0.06349693
4	0x02ec26b7	3.4699305e-37
5	0x000d4874	1.219853e-39
6	0x3c3042b9	0.010758095
7	0xbdf17a52	-0.11790909
8	0xbb8ff935	-0.0043937215
9	0xbe32f93c	-0.17477888
10	0x3d1e3059	0.038620327
11	0xbe889bd6	-0.26681393
12	0xbb054b50	-0.002033908
13	0xbcaa3b79	-0.020780312
14	0xbe0dfa14	-0.13864928
15	0xbe0aa600	-0.13539886
16	0x3e6b3c15	0.22972138
17	0xbe9f2135	-0.31080022
18	0x3dba756b	0.09104427
19	0xbdfa0d01	-0.122095115
20	0xbda2e240	-0.0795331
21	0xbe088679	-0.13332547
22	0x3d112e7b	0.035444718
23	0x3e183f15	0.14867814
24	0x3d8ac098	0.067750156
25	0x3b40e4ca	0.0029433244
26	0x3f03eac5	0.51530105
27	0xb3af2c8f	-8.157178e-08
28	0xbe98ea91	-0.2986646
29	0x3d5225c3	0.051305544
30	0x3deb017e	0.11474894
31	0x3dd7050a	0.10499008
32	0xbe139da0	-0.14415598
33	0x818f7beb	-5.270772e-38
34	0xbe9c00ff	-0.3046951
35	0xbebe4a88	-0.37166238
36	0x3e330661	0.17482902
37	0x3b7299de	0.0037017982
38	0xbeefca1c	-0.46833885
39	0xbb2b3bff	-0.002612829
40	0xbf0d64c6	-0.55231893
41	0x3defb2be	0.11704014
42	0x3e4d5f3a	0.20055857
43	0xbd0f714b	-0.035020154
44	0x3e8692fd	0.26284018
45	0xbe1efb72	-0.15525606
46	0x3ea55106	0.32288378
47	0xbe89f430	-0.26944113
48	0x3d342c2a	0.04398743
49	0xbd90a4cb	-0.07062682
50	0xbea5ab39	-0.32357195
51	0xbd88f0c9	-0.06686551
52	0x3da838d1	0.08213962
53	0x3c8dc039	0.017303573
54	0x3b203eb8	0.0024451446
55	0xbd0ce38f	-0.034396704
56	0xbe890e17	-0.26768562
57	0x8110cb0c	-2.6594302e-38
58	0xbda216da	-0.07914515
59	0xbadfe8c5	-0.001708292
60	0xbc31554f	-0.010823562
61	0xbec0a1cd	-0.37623444
62	0x3cfaa856	0.030597847
63	0xbe25362d	-0.16133948
64	0x3d852954	0.06502023
65	0x3d21ee0e	0.039533667
66	0x3da5402e	0.08068882
67	0xbde5757e	-0.112040505
68	0xbe8b27d5	-0.27178827
69	0x3cecdba4	0.028913327
70	0xbce18961	-0.027531328
71	0x3e8a25ed	0.2698206
72	0x903ab94d	-3.6824783e-29
73	0xbe036389	-0.12830938
74	0x3d2b4d90	0.041822016
75	0x3d0b70fa	0.03404329
76	0x0057584c	8.021363e-39
77	0x007add1f	1.1283254e-38
78	0xbd350485	-0.044193763
79	0x3d94f183	0.07272627
80	0xbb8e1615	-0.0043361285
81	0x808a358c	-1.2692507e-38
82	0x3e68d9f9	0.227394
83	0x3dd3e492	0.10346331
84	0x3e32d56b	0.17464225
85	0xbe95aa08	-0.29231286
86	0x3c0b70fb	0.008510823
87	0xbe2754dd	-0.16340967
88	0x3c16297a	0.009165162
89	0x812e4260	-3.2006374e-38
90	0x3ce61ce0	0.02808994
91	0x3e34dd82	0.17662624
92	0x8186a5ba	-4.946163e-38
93	0x3e7661be	0.24060723
94	0x3c015238	0.007893138
95	0x3dfadf7e	0.12249659
96	0xbd4b6e55	-0.049665768
97	0x3cda815a	0.026673008
98	0xbee2089c	-0.44147193
99	0xbe76f0df	-0.24115323
100	0x3c60b936	0.013716033
101	0xbe2da788	-0.1695844
102	0xbe6791ec	-0.22614259
103	0x3e2a9c36	0.16661152
104	0xbe9e36e1	-0.30901244
105	0x3e8402d8	0.2578342
106	0x3dff45a2	0.12464453
107	0xbe050cac	-0.12993115
108	0xbe8c9f19	-0.27465132
109	0xbd5919f9	-0.053003285
110	0xbe8b080d	-0.2715458
111	0x2ccfc3d3	5.9050347e-12
112	0xbde58d74	-0.11208621
113	0xbea602a5	-0.32423893
114	0xbec552d2	-0.3853975
115	0xba3d3065	-0.0007216989
116	0xbdaddbc7	-0.08489185
117	0x8042dbb0	-6.139952e-39
118	0xbe4bb776	-0.19894204
119	0x3ec7e142	0.39039046
120	0xbe7b0652	-0.2451413
121	0xbca1be6a	-0.019744117
122	0x3db69743	0.0891557
123	0xbcee09ce	-0.02905741
124	0xbd6fb446	-0.05852153
125	0x3e8e2df1	0.27769426
126	0xbe6d2167	-0.23157273
127	0x3dedb840	0.116074085
128	0xbe4da459	-0.20082225
129	0x3e8ce8d2	0.27521378
130	0x3e15bfd3	0.14623956
131	0xbf05cfa9	-0.5226999
132	0x3db02f34	0.08602753
133	0xbe6a3f60	-0.22875738
134	0x3cf97b45	0.030454287
135	0x3d838929	0.064226456
136	0xbd6a9c47	-0.057277944
137	0x3e718101	0.23584367
138	0x3d7fb5f4	0.062429383
139	0xbe9b1e69	-0.3029664
140	0x3d62ccdf	0.05537116
141	0x01af7054	6.444603e-38
142	0x3e9b9a26	0.30391043
143	0xbbf53fc0	-0.0074844062
144	0x3e6b533a	0.22980967
145	0x3d3a09d3	0.045419525
146	0x3cb055c2	0.021525268
147	0x3e20e799	0.15713347
148	0x3ec849cb	0.391188
149	0x231d55dd	8.529169e-18
150	0xbe7ba3d2	-0.24574211
151	0xbd63c70e	-0.055609755
152	0xbdb4050e	-0.087900266
153	0xbcf7c290	-0.030244142
154	0xbe0fe08e	-0.14050505
155	0xbdbed496	-0.09317891
156	0x3d906984	0.070513755
157	0xbe23dd80	-0.16002464
158	0x3cab787f	0.02093148
159	0xbeb743a6	-0.357938
160	0x3290a791	1.6840007e-08
161	0x81248568	-3.0217757e-38
162	0x3d61b7b7	0.055106845
163	0xbd4bddcb	-0.049772065
164	0x3c8f78c5	0.017513642
165	0x01b30c27	6.5771653e-38
166	0x3edbebc5	0.42953315
167	0xbd8a9466	-0.06766586
168	0x3c8e14a0	0.01734382
169	0xbdd437a6	-0.103621766
170	0x3e859d6d	0.2609667
171	0xbe45e832	-0.19326857
172	0x396941bc	0.000222451
173	0x0113a6b2	2.7119234e-38
174	0x3c86cabb	0.016454091
175	0xbd2229d9	-0.03959069
176	0x2398b564	1.6556695e-17
177	0x3dbbe757	0.09174984
178	0xbd8a5e85	-0.067563094
179	0x3e986771	0.2976642
180	0x3a8cbdbf	0.0010737701
181	0x3cf72e60	0.03017348
182	0xbea9301f	-0.33044526
183	0xbe94d624	-0.29069626
184	0x3c4c2f8b	0.012462507
185	0x3e924ac3	0.28572664
186	0xbe8956c3	-0.26824006
187	0x3c1a5f80	0.009422183
188	0xbe846679	-0.2585943
189	0xbe99e940	-0.30060768
190	0xbec2faab	-0.3808187
191	0xbde0d894	-0.10978809
192	0xbe4f07af	-0.20217775
193	0x3b621c43	0.0034501709
194	0xbef26859	-0.47345236
195	0x3caee125	0.021347592
196	0x3e53c0f7	0.20679079
197	0x3e9e66c7	0.30937788
198	0x3e4e41fd	0.2014236
199	0xbe4e8387	-0.20167361
200	0x3e4eea70	0.20206618
201	0x017b8397	4.619583e-38
202	0x3ea0313b	0.3128756
203	0xbe6746b2	-0.22585562
204	0x3dd0b0e0	0.10189986
205	0x3d4ba53f	0.049718138
206	0xbe8bcf91	-0.27306798
207	0x3ccbb280	0.024865389
208	0xbe8f3098	-0.27966762
209	0xbe9a2271	-0.30104402
210	0xbe44c0d9	-0.1921419
211	0xbebda5d9	-0.37040594
212	0x3eaef968	0.34174657
213	0xbedd6832	-0.43243557
214	0x3e3a1c0d	0.18174763
215	0xbe83c9d6	-0.25739926
216	0xbdbeab24	-0.09309986
217	0xbe758526	-0.23976573
218	0xbdf63f87	-0.12023836
219	0xbe75fc0d	-0.24021931
220	0x3e256be4	0.16154438
221	0x3e772be0	0.2413783
222	0xbda46788	-0.080275595
223	0xbe907ac7	-0.28218672
224	0xbd429cdc	-0.047512874
225	0x9f41a480	-4.100541e-20
226	0xbe2b9d07	-0.1675912
227	0x39f0f60f	0.00045959695
228	0xbf0abdd7	-0.5419592
229	0x3eaafc68	0.33395696
230	0x3d5e22f6	0.05423256
231	0x3e4c8b91	0.19975115
232	0xbdc5e5de	-0.09662984
233	0xbbd48a21	-0.006486193
234	0xbedc0910	-0.42975664
235	0xbdc84dd7	-0.09780472
236	0xbeebd62d	-0.4606184
237	0xbd52c69f	-0.05145895
238	0xbeaca692	-0.33720833
239	0x3d793d75	0.060849626
240	0x3a240f97	0.00062584266
241	0xbe114063	-0.14184718
242	0x3ee62d3b	0.44956383
243	0x3b77e807	0.0037827508
244	0x00789c47	1.1076321e-38
245	0x802c1554	-4.048413e-39
246	0xbd73351e	-0.05937683
247	0x3df34f0e	0.11880313
248	0xbd843001	-0.064544685
249	0x80d19698	-1.9247642e-38
250	0x3d9fbe0f	0.07799923
251	0xbeb85351	-0.36001065
252	0xbc4f3dfc	-0.012649056
253	0x3d7da926	0.06192889
254	0x3e61b925	0.22043283
255	0x3eab10dc	0.334113

fc3.bias f4 [10]
0	0x3b4a5a3a	0.0030876533
1	0x3b07f07a	0.00207427
2	0xbdf22c61	-0.11824871
3	0x3d940e4d	0.0722929
4	0xbdab13aa	-0.0835336
5	0xbd984a77	-0.07436078
6	0xbdbca00c	-0.09210214
7	0xbd5df193	-0.05418546
8	0x3e613be4	0.21995503
9	0x3dd1b47f	0.10239505
