Models/lenet_mnist_lr_0.0001_wd_1e-05_12_100.pth (torch, 169692 bytes, 10 tensors)

conv1.weight f4 [6, 1, 5, 5]
0	0x3e88101d	0.26574793
1	0x3d2c4589	0.0420585
2	0xbe3e171b	-0.18563502
3	0xbc573ac0	-0.013136566
4	0x3dc6ca2e	0.097065315
5	0x3ec29e2b	0.38011298
6	0x3e36431a	0.17799035
7	0xbe7c6f42	-0.24651816
8	0xbe344ac4	-0.17606646
9	0x3d171657	0.03688654
10	0x3e0daf88	0.13836491
11	0x3d99f7d5	0.07517973
12	0x3e97bc44	0.29635823
13	0x3e10f7a9	0.14156975
14	0x3e8c16b2	0.27361065
15	0xbdbbec55	-0.09175936
16	0x3e9f567f	0.3112068
17	0x3eb418b9	0.35175112
18	0x3e025bd6	0.12730345
19	0x3e2f48cc	0.17117614
20	0xbd532f6e	-0.051558904
21	0xbd3afc78	-0.04565093
22	0xbe6288b9	-0.22122468
23	0xbdfc0538	-0.12305683
24	0xbd1c8e2a	-0.038221516
25	0xbe6781e7	-0.22608148
26	0xbe365138	-0.1780442
27	0xbe8c0cee	-0.27353615
28	0x3dd7e8fd	0.10542486
29	0x3e20ca59	0.1570219
30	0xbdb0aa73	-0.086262606
31	0x3c467b5a	0.01211437
32	0xbe15b2cf	-0.14618991
33	0x3e0df672	0.13863543
34	0x3cfdabc6	0.030965697
35	0xbdf7527f	-0.12076282
36	0xbb3636cf	-0.0027803665
37	0x3da844ea	0.08216269
38	0x3e390bf6	0.18070969
39	0x3dcc3dde	0.09972738
40	0x3d814cfe	0.06313513
41	0x3e52c889	0.2058431
42	0x3e0efef7	0.13964449
43	0x3eae56d0	0.34050608
44	0xbde56b8b	-0.11202153
45	0x3ee125c4	0.43974125
46	0x3ef80e88	0.48448586
47	0x3e909d5a	0.2824505
48	0x3ea743ce	0.32668918
49	0x3d3254c8	0.043537885
50	0x3d515367	0.05110493
51	0x3e9d0c7b	0.30673584
52	0x3e74fd85	0.23924835
53	0x3e629c21	0.22129871
54	0xbd37d51d	-0.044880975
55	0x3eda79e9	0.42671135
56	0x3ede3536	0.43399972
57	0x3d8cd1e4	0.06875971
58	0x3e03c761	0.12869026
59	0x3e575191	0.21027209
60	0xbbe7a159	-0.0070687947
61	0x3e5870c0	0.2113676
62	0x3e5b4939	0.21414651
63	0xbdc0e17f	-0.0941801
64	0xbddbd9ed	-0.107349254
65	0xbe155ee1	-0.14586975
66	0xbe9b2952	-0.30304962
67	0x3e5b0e8f	0.21392272
68	0x3e19c227	0.1501547
69	0xbd7a391d	-0.061089624
70	0xbef9e6a9	-0.48808792
71	0xbd6acde6	-0.057325266
72	0xbdcb4108	-0.09924513
73	0x3d56c1f5	0.052431066
74	0xbdb2a47f	-0.087227814
75	0xbd80207a	-0.062561944
76	0xbd16e092	-0.03683526
77	0x3dcbc3f2	0.09949483
78	0x3e9911e2	0.29896456
79	0x3e0c336a	0.13691488
80	0xbd159518	-0.03651914
81	0xbe2efa0c	-0.17087573
82	0x3e816446	0.25271815
83	0x3dce764b	0.10081156
84	0x3e8fff27	0.28124353
85	0xbe439f27	-0.1910368
86	0x3da71789	0.08158786
87	0x3ea7579a	0.32684022
88	0x3eebb11b	0.46033558
89	0x3eb1a613	0.34697017
90	0xbdaf3181	-0.08554364
91	0x3e821bbe	0.2541179
92	0x3ea75bd1	0.32687238
93	0x3ed30284	0.41212857
94	0x3e82051d	0.25394526
95	0x3d13541b	0.03596888
96	0x3ebce02f	0.36889789
97	0x3ec55f2d	0.38549176
98	0x3e8cf422	0.2753001
99	0x3d75843c	0.05994056
100	0x3c5fb134	0.013653088
101	0x3b90f623	0.004423873
102	0x3cce0c37	0.025152309
103	0x3cf8a76e	0.030353274
104	0x3cc8dae0	0.02451843
105	0xbe41d13e	-0.18927476
106	0xbede05b1	-0.43363717
107	0xbec5f97c	-0.38666904
108	0xbe22e567	-0.15907823
109	0x3d1b349a	0.03789196
110	0xbe81add1	-0.25327924
111	0xbe5fee7f	-0.21868323
112	0xbe42994e	-0.19003794
113	0xbe5a49d2	-0.21317223
114	0xbdd0ec90	-0.10201371
115	0x3e8311a7	0.25599405
116	0x3e46e2c2	0.19422439
117	0x3dfe8f2d	0.12429652
118	0x3e5d11a6	0.21588764
119	0xbc735f83	-0.014854315
120	0x3ef25ad2	0.47334915
121	0x3ebe0c93	0.37118968
122	0x3ee9ea60	0.45686626
123	0x3dc6bbf5	0.09703819
124	0x3e108e5c	0.14116806
125	0x3d287c60	0.04113424
126	0xbe3b5f72	-0.18298128
127	0xbe4b694d	-0.19864388
128	0xbe33aac3	-0.17545609
129	0x3dd2aaba	0.1028647
130	0xbc124c42	-0.008929314
131	0xbeabc474	-0.3354832
132	0xbe6ff707	-0.23434077
133	0xbd412927	-0.047158387
134	0x3ebb289e	0.36554426
135	0xbe821989	-0.25410107
136	0xbe75cfb9	-0.24005021
137	0xbe74827c	-0.23877901
138	0x3e318e67	0.17339478
139	0x3eb9ae8c	0.3626598
140	0xbe7341c3	-0.23755555
141	0xbe9abbc7	-0.30221388
142	0x3df85865	0.12126235
143	0x3e3c1e4d	0.18370934
144	0x3e19057a	0.14943495
145	0xbe573ef9	-0.21020116
146	0xbde17427	-0.110084824
147	0xbd8e453a	-0.06946798
148	0x3e551cdc	0.2081179
149	0x3e75eee0	0.24016905

conv1.bias f4 [6]
0	0x3ed31448	0.4122641
1	0x3e70a8a8	0.23501837
2	0x3e20ff7b	0.15722458
3	0x3e6f86ef	0.23391317
4	0x3e7ea1d8	0.24866426
5	0x3e0e8f27	0.13921796

conv2.weight f4 [12, 6, 5, 5]
0	0xbce849da	-0.028355528
1	0x3d903b43	0.07042553
2	0x3c6a8111	0.014312998
3	0xbdec6394	-0.115424305
4	0xbd941258	-0.07230061
5	0x3e34fab3	0.17673759
6	0x3e0d2e6a	0.13787237
7	0x3e325ff5	0.17419417
8	0x3e032440	0.12806797
9	0x3d0f0604	0.034917846
10	0xbdb795c0	-0.089641094
11	0x3d08019b	0.033204656
12	0x3d1dc1ef	0.038515028
13	0x3d8d20e6	0.068910405
14	0x3e037c59	0.12840404
15	0xbe2fb376	-0.17158303
16	0xbe046ae6	-0.12931404
17	0xbd925dee	-0.07146822
18	0x3d810985	0.06300644
19	0x3d6c6695	0.057715017
20	0x3d89515c	0.06704971
21	0xbda99455	-0.08280245
22	0xbde9d1f8	-0.114170015
23	0xbd84643d	-0.064644314
24	0x3bf99c68	0.007617522
25	0x3d2b9591	0.041890685
26	0x3e3a6e54	0.1820615
27	0x3dbd7057	0.09249943
28	0x3e006db4	0.12541848
29	0xbbfc13d5	-0.007692794
30	0xbe1caa03	-0.1529923
31	0x3d9c34d7	0.07627266
32	0xbc0ff7c3	-0.008787098
33	0x3dd10dc5	0.102077045
34	0x3e2c8240	0.16846561
35	0xbe18697b	-0.14883988
36	0xbb4ab4b7	-0.0030930468
37	0xbe0ca5d2	-0.1373513
38	0xbde8d705	-0.11369137
39	0xbd3f08ee	-0.046639375
40	0xbd20fb7f	-0.039302345
41	0xbcfb5168	-0.030678466
42	0xbda3142f	-0.07962834
43	0xbd2e66dd	-0.042578567
44	0xbc81a35e	-0.01582497
45	0x3c4d754f	0.012540176
46	0x3da72ee3	0.0816324
47	0x3dad552e	0.08463512
48	0x3cc4fa68	0.024045184
49	0x3d8b7180	0.06808758
50	0x3dc6d802	0.09709169
51	0x3d6ade3b	0.05734084
52	0x3bfad4c5	0.0076547586
53	0xbe1b0489	-0.15138449
54	0xbe14092f	-0.14456628
55	0x3d65e95c	0.056130752
56	0x3e0ad2d3	0.13556986
57	0x3d468bd0	0.04847318
58	0xbc763c6f	-0.015029057
59	0x3ad7ebeb	0.0016473507
60	0x3d41ca5c	0.047312126
61	0x3e2f54c7	0.17122184
62	0x3e6ea1f9	0.23303975
63	0x3e0013bc	0.12507528
64	0x3e141875	0.14462455
65	0xbe20ea67	-0.15714417
66	0xbda433be	-0.080176815
67	0x3d017324	0.031603947
68	0x3dff2bea	0.12459548
69	0x3e0ea03e	0.13928315
70	0x3a2923af	0.00064521556
71	0xbe144d55	-0.14482625
72	0xbc7db388	-0.015484698
73	0xbde7e71c	-0.113233775
74	0xbd6cf3a7	-0.057849552
75	0xbce6150b	-0.028086206
76	0xbd104a6a	-0.035227217
77	0xbdcb154e	-0.09916173
78	0xbcb15a1b	-0.021649411
79	0xbc3d2f4c	-0.011546921
80	0xbd215ec9	-0.039397035
81	0x3dcc7e8f	0.09985077
82	0x3da10562	0.07862355
83	0x3c695522	0.014241489
84	0xbc7996af	-0.01523368
85	0xbdbcaec1	-0.09213019
86	0xbd665b11	-0.05623919
87	0xbd0b86a0	-0.034063935
88	0x3de0de60	0.10979915
89	0x3dd3475a	0.103163436
90	0xbda68cfa	-0.08132358
91	0xbdf0028c	-0.11719236
92	0xbc43e53d	-0.01195651
93	0xbd551dd3	-0.052030396
94	0xbd9305ab	-0.071788155
95	0x3d8abea8	0.06774646
96	0xbd8fdfb2	-0.07025088
97	0xbdb805df	-0.08985495
98	0x3d4b1575	0.04958101
99	0xbd075329	-0.033038292
100	0x3dd84ba7	0.105613045
101	0x3e755d6c	0.23961419
102	0x3e9f9589	0.31168774
103	0x3e7d26e8	0.24721873
104	0x3e501eb5	0.20324214
105	0x3d9bc2a9	0.07605488
106	0x3e1b166d	0.15145274
107	0x3e1fe06e	0.15612957
108	0x3e427565	0.18990095
109	0x3e2310bf	0.15924357
110	0x3ccc5132	0.02494106
111	0x3d4e39c7	0.05034807
112	0xbce8733c	-0.02837526
113	0x3ca5e2d3	0.02024976
114	0x3cc71ad0	0.024304777
115	0x3e5830b5	0.2111233
116	0x3e340092	0.17578343
117	0x3e1bd657	0.15218483
118	0x3e13b88d	0.1442587
119	0x3c90160a	0.017588634
120	0xbcaba257	-0.020951433
121	0x3dbd32dc	0.09238216
122	0x3d7592e9	0.059954558
123	0xbb75ebc6	-0.0037524565
124	0x3c9a7d3e	0.018858548
125	0xbd655681	-0.0559907
126	0xbe5c0620	-0.21486712
127	0xbe50a75b	-0.20376341
128	0xbe3eaa45	-0.1861964
129	0xbe2d9b59	-0.16953792
130	0xbd496621	-0.049169663
131	0xbe2e7354	-0.17036182
132	0xbe57df80	-0.21081352
133	0xbe3773b3	-0.1791523
134	0xbde0795c	-0.109606475
135	0x3c6f2d47	0.014598197
136	0xbde12ca1	-0.109948404
137	0xbcbaed37	-0.022818191
138	0xbd3e9cd0	-0.046536267
139	0xbcbfff48	-0.023437157
140	0x3cafb336	0.02144776
141	0xbe161655	-0.14656956
142	0xbd88b153	-0.06674447
143	0xbd14e62b	-0.036352318
144	0x3d9502d8	0.07275933
145	0xbd8ad210	-0.067783475
146	0x3d653ab9	0.055964205
147	0xbc8501be	-0.016236182
148	0x3ca188fc	0.01971864
149	0x3dd53cf4	0.104120165
150	0x3cce3f55	0.025176683
151	0x3dd7f8e4	0.10545519
152	0x3d81a6c8	0.06330639
153	0x3e00c593	0.12575369
154	0x3dd0f707	0.10203367
155	0xbc8ff308	-0.017571941
156	0x3e11aaa9	0.14225258
157	0x3bd402cf	0.0064700614
158	0xbe1aab44	-0.15104395
159	0xbd84b0f6	-0.06479065
160	0xbe167771	-0.14694001
161	0xbe6b2f23	-0.229672
162	0xbe7f752b	-0.2494704
163	0xbe8b2729	-0.27178314
164	0xbd8f9c87	-0.07012277
165	0xbe1a4bae	-0.15067932
166	0xbe014183	-0.12622647
167	0xbe1b0bf5	-0.1514128
168	0xbd87ae42	-0.06625034
169	0x3d21a361	0.03946245
170	0x3df07884	0.117417365
171	0x3da8dec2	0.08245613
172	0x3d3428a0	0.043984056
173	0x3d8cb1d6	0.06869857
174	0xbcd22c8c	-0.025656007
175	0x3b8a73b9	0.004225221
176	0x3cd2cb53	0.025731718
177	0xbda5a42f	-0.08087956
178	0x3c9cb4e7	0.01912923
179	0xbc97118c	-0.018440984
180	0xbded0dd7	-0.11574905
181	0xbe485e75	-0.19567282
182	0xbe96b58b	-0.2943538
183	0xbe8e56a0	-0.27800465
184	0xbdd651d3	-0.104648255
185	0x3cc0dfc9	0.02354421
186	0xbdb00422	-0.08594538
187	0x3cf98917	0.030460877
188	0x3d8c3f28	0.068479836
189	0x3e307f65	0.17236097
190	0x3dc15dd8	0.094417274
191	0x3e114057	0.141847
192	0x3df0769a	0.117413715
193	0x3c2f0d3d	0.010684309
194	0x3ddea7b0	0.108718276
195	0x3de62081	0.112366684
196	0x3d765e53	0.06014855
197	0x3d71ccb4	0.05903311
198	0x3d79c4ff	0.060978886
199	0x3c72b773	0.0148142455
200	0x3e2ab8ea	0.16672102
201	0x3bf5ee0c	0.007505184
202	0xbd18288e	-0.03714805
203	0x3d158b43	0.036509763
204	0x3e2450f3	0.16046505
205	0x3e0d5047	0.13800155
206	0x3d8f89c4	0.070086986
207	0xbd3917e9	-0.045188818
208	0x3d5e9662	0.054342635
209	0x3dea3cb7	0.11437362
210	0x3d7655c6	0.060140394
211	0xbdd93f39	-0.10607762
212	0xbdd8b8a4	-0.105820924
213	0xbe55fa7c	-0.20896333
214	0xbe3d1fc1	-0.18469144
215	0xbe777404	-0.2416535
216	0xbec5b901	-0.3861771
217	0xbe917d2b	-0.28415808
218	0xbe09badd	-0.13450189
219	0xbd9534d2	-0.07285465
220	0xbbac4d54	-0.0052582417
221	0x3ca4b0f1	0.020103903
222	0xbcce2eab	-0.025168737
223	0x3db34920	0.08754182
224	0x3d94a71e	0.072584376
225	0x3e2d577b	0.16927902
226	0x3beaeb2b	0.0071691475
227	0xbd4b6536	-0.04965707
228	0x3b13d7fb	0.0022559154
229	0x3d5d4236	0.05401822
230	0x3d350d4c	0.044202134
231	0xbe401261	-0.18757011
232	0xbe19c334	-0.1501587
233	0xbe277afb	-0.16355507
234	0xbd898938	-0.067156255
235	0xbe4df7f9	-0.20114125
236	0xbe9529d4	-0.29133475
237	0xbe18ec21	-0.14933826
238	0xbd55c4ad	-0.052189518
239	0x3dd86ec8	0.10568005
240	0xbc51da9f	-0.012808471
241	0xbbc97aa5	-0.0061486536
242	0x3d10c7fd	0.035346974
243	0x3e088e0b	0.13335435
244	0x3d8d2cf2	0.06893338
245	0x3e2e243b	0.17006008
246	0x3e10e5fd	0.14150234
247	0x3d2f3925	0.042779107
248	0x3daec6e5	0.0853403
249	0x39799546	0.00023802099
250	0xbd93ab74	-0.072104365
251	0xbdfd385d	-0.12364266
252	0xbcc93228	-0.02456005
253	0xbdcd39e6	-0.10020809
254	0xbd91e9ef	-0.071246974
255	0xbe11801b	-0.14209025

conv2.bias f4 [12]
0	0x3dd8cdf9	0.10586161
1	0x3d1304e5	0.03589334
2	0x3ca21b56	0.019788425
3	0xbd965ae5	-0.073415555
4	0xbc2d1d17	-0.010566018
5	0x3d4bc96e	0.049752645
6	0xbd249e4a	-0.04019002
7	0x3e22768a	0.15865532
8	0xbc817441	-0.015802504
9	0xbd071e33	-0.032987785
10	0xbcbf07f2	-0.023319218
11	0x3d2f7327	0.042834427

fc1.weight f4 [100, 300]
0	0x82bffd4e	-2.8210317e-37
1	0x82c9cdc4	-2.96524e-37
2	0x02cc2281	2.999491e-37
3	0x02bb1ce0	2.7493754e-37
4	0x02b8ff9b	2.718308e-37
5	0x82b84e0c	-2.7081167e-37
6	0x82cc8beb	-3.0055415e-37
7	0x82bf5e23	-2.811896e-37
8	0x82c1194a	-2.8373316e-37
9	0x82cffaa3	-3.0559775e-37
10	0x82d3915a	-3.1087091e-37
11	0x82c2d827	-2.8629803e-37
12	0x82bbbfbe	-2.7587235e-37
13	0x82c13b50	-2.8392845e-37
14	0x82b4144a	-2.6460268e-37
15	0x82bdb076	-2.7872338e-37
16	0x82c510ae	-2.8956122e-37
17	0x82c6928d	-2.9177601e-37
18	0x82c9321f	-2.9563064e-37
19	0x82cbdb50	-2.9954048e-37
20	0x02c73df5	2.9275984e-37
21	0x82dcd2ed	-3.244716e-37
22	0x82bb991a	-2.7565056e-37
23	0x82d20e31	-3.0864872e-37
24	0x82cf10ae	-3.042549e-37
25	0x82c3414f	-2.869016e-37
26	0x82bdc28d	-2.788272e-37
27	0x82c38a39	-2.873201e-37
28	0x82c1fc9c	-2.8503792e-37
29	0x82c2a6ad	-2.8601405e-37
30	0x82c24c99	-2.8549703e-37
31	0x02c6188b	2.9107572e-37
32	0x02c0fc8f	2.8356826e-37
33	0x82d8f2a7	-3.1877623e-37
34	0x82d4763d	-3.1218466e-37
35	0x82c0d480	-2.8333833e-37
36	0x82cc477b	-3.0016134e-37
37	0x82bfeb36	-2.8199932e-37
38	0x82c1a8bd	-2.8455652e-37
39	0x82b5c140	-2.670648e-37
40	0x82cfe09a	-3.0544831e-37
41	0x82b9ec2e	-2.7318867e-37
42	0x02cad3bc	2.9802762e-37
43	0x82be5dc4	-2.797181e-37
44	0x82d1bacc	-3.0817006e-37
45	0x82b924e7	-2.7204488e-37
46	0x82b7148a	-2.6901222e-37
47	0x82b4f23b	-2.6587656e-37
48	0x82d0db90	-3.0688876e-37
49	0x82c719cc	-2.9255229e-37
50	0x82c108c7	-2.836384e-37
51	0x82c3d3cc	-2.877424e-37
52	0x82b8d70f	-2.7159808e-37
53	0x82c70792	-2.9244767e-37
54	0x82bb14e1	-2.7489164e-37
55	0x82b8770c	-2.71047e-37
56	0x82c9cee5	-2.9653047e-37
57	0x82beb0ba	-2.8019427e-37
58	0x82caea22	-2.9815618e-37
59	0x82c510c4	-2.8956171e-37
60	0x82c4423d	-2.883763e-37
61	0x82c2f0f6	-2.8644043e-37
62	0x82c55180	-2.8993327e-37
63	0x82ccbf85	-3.0085033e-37
64	0x82c4e462	-2.8930697e-37
65	0x02be274d	2.7940548e-37
66	0x82dac708	-3.214646e-37
67	0x82c5f4fe	-2.9087167e-37
68	0x82bee9d0	-2.8052193e-37
69	0x82cfdae1	-3.0541547e-37
70	0x82cab748	-2.978643e-37
71	0x02c4c4ab	2.8912493e-37
72	0x82cabc24	-2.978922e-37
73	0x82cce0ba	-3.0104093e-37
74	0x82cacddb	-2.9799388e-37
75	0x82bd8eff	-2.785313e-37
76	0x82b60b88	-2.6749115e-37
77	0x82b52194	-2.6614833e-37
78	0x82b95007	-2.722924e-37
79	0x82b7ae96	-2.698964e-37
80	0x82bcf31b	-2.7763653e-37
81	0x82c82674	-2.940943e-37
82	0x82be1eba	-2.7935627e-37
83	0x82d29053	-3.0939565e-37
84	0x82bdad29	-2.7870443e-37
85	0x82d443be	-3.1189482e-37
86	0x82c4acc7	-2.889878e-37
87	0x82bf8e58	-2.814663e-37
88	0x82d17d92	-3.0781864e-37
89	0x82bed89c	-2.8042319e-37
90	0x82c450cc	-2.8845987e-37
91	0x82d1d18b	-3.0830062e-37
92	0x82c6b569	-2.919761e-37
93	0x82c7391d	-2.9273203e-37
94	0x82c25549	-2.855469e-37
95	0x82c04cfd	-2.8256054e-37
96	0x82be1bd0	-2.7933954e-37
97	0x82b90852	-2.7188082e-37
98	0x82bb0a1b	-2.748298e-37
99	0x82bc866a	-2.7701267e-37
100	0x82b4864c	-2.6525706e-37
101	0x82c8954e	-2.9473055e-37
102	0x82d3493f	-3.1045705e-37
103	0x82c9070b	-2.9538338e-37
104	0x82cc6f1e	-3.0038884e-37
105	0x82cc62b5	-3.003176e-37
106	0x82bb7317	-2.7543239e-37
107	0x82ca8a0a	-2.9760463e-37
108	0x82bb43ec	-2.7516166e-37
109	0x82ca75c8	-2.9748835e-37
110	0x82b2ef46	-2.6292086e-37
111	0x82d16e1b	-3.0772987e-37
112	0x82c82336	-2.9407569e-37
113	0x82d1397b	-3.0742782e-37
114	0x02d01ca1	3.0579285e-37
115	0x82c3bb7c	-2.8760286e-37
116	0x82cb0b94	-2.9834815e-37
117	0x82cbb7af	-2.9933598e-37
118	0x02d5390f	3.1330287e-37
119	0x02cbf45f	2.9968431e-37
120	0x02d5fe4f	3.1443503e-37
121	0x82c6ce8c	-2.9212037e-37
122	0x82b4962a	-2.6534813e-37
123	0x82c302e9	-2.8654345e-37
124	0x82c14c1d	-2.8402488e-37
125	0x82c0771e	-2.8280234e-37
126	0x82bb5953	-2.752845e-37
127	0x02d17863	3.0778889e-37
128	0x02ddc158	3.2584005e-37
129	0x82b2bbb9	-2.6262497e-37
130	0x82baa558	-2.7425146e-37
131	0x82be3c70	-2.795268e-37
132	0x82c63f4c	-2.9129816e-37
133	0x02c695b8	2.917942e-37
134	0x82d0689f	-3.0622903e-37
135	0x82c46f61	-2.886354e-37
136	0x82ccd39d	-3.0096566e-37
137	0x82c7da18	-2.9365602e-37
138	0x82c0a89f	-2.8308648e-37
139	0x02ca1d64	2.9698102e-37
140	0x82c361c2	-2.8708785e-37
141	0x82c86381	-2.9444471e-37
142	0x82bd2de0	-2.7797385e-37
143	0x02d41318	3.116156e-37
144	0x82c3468b	-2.8693164e-37
145	0x82c416ce	-2.88127e-37
146	0x02c76099	2.9295866e-37
147	0x82cc9d65	-3.0065446e-37
148	0x82bd95bc	-2.7856997e-37
149	0x82ba9abd	-2.741906e-37
150	0x82bedd01	-2.804484e-37
151	0x82c581cc	-2.9021048e-37
152	0x02cd21f0	3.0141522e-37
153	0x82c49622	-2.8885784e-37
154	0x02c2851f	2.8582146e-37
155	0x82c1cd9e	-2.847682e-37
156	0x82b84a28	-2.7078934e-37
157	0x82b85b91	-2.7088927e-37
158	0x82c3c290	-2.8764348e-37
159	0x82d08e8a	-3.0644667e-37
160	0x82cd9344	-3.020657e-37
161	0x82b93ec5	-2.7219335e-37
162	0x82bce078	-2.7752956e-37
163	0x82be5960	-2.796929e-37
164	0x82cc0225	-2.9976337e-37
165	0x82d62cd3	-3.1470202e-37
166	0x82bb4d6f	-2.7521625e-37
167	0x82c36957	-2.8713137e-37
168	0x82cc9769	-3.006201e-37
169	0x82d31476	-3.1015408e-37
170	0x02c7fa4a	2.938408e-37
171	0x82c9361a	-2.9565348e-37
172	0x82cbf30a	-2.9967667e-37
173	0x82c7c47a	-2.9353194e-37
174	0x82bdffcf	-2.791788e-37
175	0x82c41219	-2.881e-37
176	0x82bb0143	-2.7477905e-37
177	0x82c0aa7d	-2.830972e-37
178	0x82cd7fc7	-3.0195383e-37
179	0x82b590c5	-2.6678653e-37
180	0x82ccecf0	-3.0111101e-37
181	0x82becf1f	-2.8036873e-37
182	0x82bc78c5	-2.7693436e-37
183	0x82c89e7b	-2.9478322e-37
184	0x82c92996	-2.9558165e-37
185	0x82ca90c8	-2.9764333e-37
186	0x82b92bf0	-2.7208526e-37
187	0x82cba612	-2.9923489e-37
188	0x82bf71b0	-2.813018e-37
189	0x82c2cd03	-2.862341e-37
190	0x82bed20e	-2.8038556e-37
191	0x82c624e2	-2.9114655e-37
192	0x82c18a43	-2.843816e-37
193	0x82be1a64	-2.7933138e-37
194	0x02d222ab	3.0876625e-37
195	0x02cbf9a0	2.9971447e-37
196	0x02cab6e6	2.978621e-37
197	0x82c82d99	-2.941353e-37
198	0x82c15132	-2.8405405e-37
199	0x82c4dc99	-2.8926228e-37
200	0x82bbec61	-2.7612855e-37
201	0x82c23dbb	-2.854117e-37
202	0x02dc1726	3.2339381e-37
203	0x02d11fd1	3.0728052e-37
204	0x02d386cc	3.1081033e-37
205	0x82bb626a	-2.7533667e-37
206	0x82c51f19	-2.8964398e-37
207	0x82bf3e6e	-2.810076e-37
208	0x82c751af	-2.9287306e-37
209	0x82d084de	-3.0639115e-37
210	0x82d780d8	-3.1665363e-37
211	0x82b78c38	-2.6969915e-37
212	0x82b8ca98	-2.7152653e-37
213	0x82b9fce0	-2.732845e-37
214	0x82b6ae34	-2.6842484e-37
215	0x02d5f7cf	3.1439772e-37
216	0x02d5a58a	3.1392552e-37
217	0x82c5dd22	-2.9073472e-37
218	0x82cf7bcc	-3.0486972e-37
219	0x82c88e39	-2.946899e-37
220	0x02c9c8e8	2.964961e-37
221	0x02c66f6e	2.9157443e-37
222	0x82ca58a8	-2.9732119e-37
223	0x82c7144f	-2.9252079e-37
224	0x82c26e29	-2.8568967e-37
225	0x82b4754b	-2.6515946e-37
226	0x82bffef9	-2.8211275e-37
227	0x82c624ce	-2.911461e-37
228	0x82c0836f	-2.8287304e-37
229	0x82b816b8	-2.704941e-37
230	0x82c91751	-2.9547679e-37
231	0x82ca9d2a	-2.977144e-37
232	0x82b7eabe	-2.7024169e-37
233	0x82c0c8a6	-2.832703e-37
234	0x02ca31ff	2.9709929e-37
235	0x82c60c22	-2.910045e-37
236	0x82c35530	-2.870157e-37
237	0x82bf2d4f	-2.8090933e-37
238	0x82c5a286	-2.9039832e-37
239	0x82d5662a	-3.1356176e-37
240	0x82c5c553	-2.9059807e-37
241	0x82c6b5c6	-2.9197818e-37
242	0x82c2ce0c	-2.8624003e-37
243	0x82d0311c	-3.059104e-37
244	0x02da34b8	3.206248e-37
245	0x02c13e14	2.8394432e-37
246	0x82d0fa4e	-3.070652e-37
247	0x82ba875b	-2.7407934e-37
248	0x82b66bb0	-2.6804306e-37
249	0x82ce6d4f	-3.033172e-37
250	0x82b9b4cc	-2.728708e-37
251	0x82c1cc02	-2.8475896e-37
252	0x82ca59a8	-2.9732693e-37
253	0x82d0c0d2	-3.0673527e-37
254	0x82cf4b54	-3.0459153e-37
255	0x82bf5a57	-2.811678e-37

fc1.bias f4 [100]
0	0x82c72c61	-2.9265894e-37
1	0x3d2e419f	0.04254305
2	0x3dbd2eef	0.092374675
3	0x3c8f1367	0.017465306
4	0x3caacfed	0.0208511
5	0xbc3d632e	-0.011559291
6	0xbbb98548	-0.0056616403
7	0x3d39c889	0.04535726
8	0x3bbd5fcd	0.0057792426
9	0xbc9c26ac	-0.019061409
10	0x3c86b2f7	0.016442759
11	0xbc1a539c	-0.009419348
12	0x3c00cc60	0.007861227
13	0x3d9c9d71	0.07647217
14	0x3d7485c4	0.05969788
15	0x82ba230e	-2.7350364e-37
16	0x3d393bba	0.045222975
17	0x3da18af6	0.07887833
18	0x3ccc903b	0.024971118
19	0x3d49529c	0.049151048
20	0xbd44434f	-0.047915753
21	0xbd171633	-0.036886405
22	0xbd5d4767	-0.054023173
23	0x3c9acfe6	0.018897962
24	0x3af061da	0.0018339709
25	0x3bee0839	0.007264164
26	0x3d118a1b	0.0355321
27	0x82bcde06	-2.7751552e-37
28	0x3db99894	0.09062305
29	0x016fdb28	4.4054604e-38
30	0x3d7b694d	0.06137972
31	0x8299b1c4	-2.2583362e-37
32	0x3d71e776	0.05905863
33	0x82ad7a9e	-2.5490444e-37
34	0xbb977541	-0.004622132
35	0xbc17edc3	-0.009272995
36	0xbd1583bd	-0.03650259
37	0x3b0fd8c5	0.0021949273
38	0x3d1fb456	0.03899034
39	0xbc384682	-0.011247279
40	0xbc62ed71	-0.013850556
41	0x82bb9504	-2.7562711e-37
42	0x3c27b23c	0.0102353655
43	0x3d8510f6	0.06497376
44	0x3d281507	0.04103568
45	0x3ccb1a06	0.024792682
46	0xbb2f0de8	-0.002671117
47	0xbcba7841	-0.02276242
48	0x82711641	-1.771227e-37
49	0xbb32cc3c	-0.0027282378
50	0xbda2c490	-0.079476476
51	0xbcbb083f	-0.02283108
52	0xbc3d1b8d	-0.011542213
53	0x3d93e175	0.07220737
54	0xbcb110e9	-0.021614509
55	0x3d5fbbec	0.054622576
56	0xbbb583f7	-0.005539413
57	0xbc539038	-0.012912802
58	0x3d37198b	0.044702094
59	0xbb4b80e5	-0.003105217
60	0xbc9f02df	-0.019410549
61	0xbc6ec679	-0.014573687
62	0x3ad99aad	0.0016601883
63	0x82c8a4b5	-2.9481896e-37
64	0x3d847015	0.064666905
65	0x3c3e4882	0.011613967
66	0x3d84d93b	0.06486746
67	0x3c1e3f23	0.009658608
68	0xbcd80b20	-0.026372492
69	0x3c029f70	0.007972583
70	0x3cae75cd	0.021296406
71	0x3d1ad737	0.0378029
72	0x3c72fef9	0.014831298
73	0x3cf902be	0.030396815
74	0x3d253b73	0.0403399
75	0xba4b9b86	-0.000776701
76	0x3daacaa9	0.083394356
77	0xbc9c5501	-0.019083502
78	0xbd14b605	-0.0363064
79	0xbcd04be6	-0.025426816
80	0x3d659dc0	0.056058645
81	0x3c17a7c8	0.009256311
82	0x82455b9a	-1.4499563e-37
83	0xbca64a94	-0.020299233
84	0xbc9772bc	-0.018487327
85	0xbd3781ca	-0.04480151
86	0xbc9e5958	-0.019329712
87	0x3dbee39d	0.093207575
88	0x3ca5bbe7	0.0202312
89	0x3d5feda3	0.054669987
90	0x3d070aab	0.03296916
91	0xbc8a2d5e	-0.016867336
92	0xbd25b131	-0.040452186
93	0x02bb52a5	2.7524616e-37
94	0x02c2f568	2.8646594e-37
95	0x3c62fc0c	0.013854038
96	0xbc4e4ccc	-0.012591552
97	0xbd71bac2	-0.059015997
98	0xbc552460	-0.013009161
99	0xbcf59a7c	-0.02998089

fc2.weight f4 [84, 100]
0	0x02c2594c	2.8556992e-37
1	0xbd6719e2	-0.05642117
2	0x3e0e193a	0.1387681
3	0x3de02a1b	0.10945531
4	0x3d3fc619	0.04681978
5	0x3d7e1b46	0.06203773
6	0x3d20071e	0.039069287
7	0xbe12a8e0	-0.14322233
8	0xbc628347	-0.013825244
9	0xbe0ec8f8	-0.13943851
10	0x3dec6b64	0.11543921
11	0xbba3e6d8	-0.005001884
12	0xbcd7d5d5	-0.02634708
13	0x3dd093c3	0.10184433
14	0x3e121947	0.14267455
15	0x02b9822c	2.7258022e-37
16	0x3de28aeb	0.11061653
17	0xbc84bf79	-0.016204583
18	0xbd3e4f68	-0.046462446
19	0xbd8c1c8b	-0.06841382
20	0x3d8f8d48	0.07009369
21	0xbd06b897	-0.032890882
22	0x3cb1756c	0.021662436
23	0xbdcedf0e	-0.10101138
24	0x3dbf5236	0.09341852
25	0xbddd430c	-0.10803804
26	0x3c204848	0.009782858
27	0x82c4f147	-2.8938098e-37
28	0xbda550eb	-0.080720745
29	0x82bceadc	-2.775892e-37
30	0xbdaae71f	-0.08344864
31	0x82c107a6	-2.8363191e-37
32	0xbdd93027	-0.106048875
33	0x82c86d0a	-2.9449944e-37
34	0x3e10428e	0.14087889
35	0xbdb5b330	-0.08872068
36	0xbc55f09b	-0.013057853
37	0x3d463a55	0.048395474
38	0x3ce35e7d	0.027755016
39	0x3dbf6323	0.09345081
40	0xbdf9c238	-0.121952474
41	0x82bd7cb9	-2.7842641e-37
42	0xbc1bdb3d	-0.00951272
43	0x3d905405	0.070472755
44	0xbd1d6ac8	-0.038431913
45	0x3e10b343	0.14130883
46	0x3c178baf	0.009249612
47	0x3d518e1e	0.051160924
48	0x029446f7	2.1787377e-37
49	0x3d8dff4a	0.06933458
50	0x3db310eb	0.08743461
51	0x3dff6965	0.12471274
52	0xbd2fbbe9	-0.042903814
53	0xbcaf1390	-0.021371633
54	0x3dc1aad0	0.09456408
55	0x3dd3537b	0.10318657
56	0x3d1593a5	0.036517758
57	0x3d9c0656	0.07618396
58	0x3e02ddc5	0.12779911
59	0xbd23bd95	-0.03997572
60	0x3da7eb07	0.08199125
61	0xbb8469c3	-0.004040928
62	0x3de15566	0.110026166
63	0x82c3af5a	-2.8753322e-37
64	0xbe11bd4d	-0.14232369
65	0xbcc08090	-0.023498803
66	0x3de50a47	0.11183601
67	0xbe01af68	-0.12664568
68	0xbd20564c	-0.0391448
69	0xbd4db987	-0.05022576
70	0xbdb237b5	-0.087020315
71	0xbc88accc	-0.016683958
72	0xbdc2b92c	-0.09507975
73	0x3b93cdee	0.0045106327
74	0x3dce29b4	0.10066548
75	0x3d13d180	0.036088467
76	0x3d8c9536	0.06864397
77	0xbd9d64de	-0.076852545
78	0xbcfa6c78	-0.0305693
79	0xbd961168	-0.07327539
80	0xbd5a0603	-0.05322839
81	0xbd9291f5	-0.07156745
82	0x82c99dd9	-2.9624896e-37
83	0x3cb87db6	0.022520881
84	0xbcc7e260	-0.024399936
85	0xbd36f437	-0.044666495
86	0x3d98a1a0	0.074527025
87	0x3ddc233e	0.107489094
88	0x3d4d1fe3	0.050079238
89	0x3d1f7ed7	0.038939323
90	0x3ccf0e0a	0.025275249
91	0x3de1a8cf	0.11018526
92	0x3d54157c	0.0517783
93	0x02c079ae	2.8281705e-37
94	0x82bba827	-2.7573695e-37
95	0xbdf5b8be	-0.119981274
96	0xbb537e81	-0.0032271447
97	0xbd294201	-0.04132271
98	0x3dfedccd	0.12444458
99	0x3da550d9	0.08072061
100	0x0228d25c	1.2403061e-37
101	0x82c67407	-2.9160082e-37
102	0x82ce4f2a	-3.0314417e-37
103	0x82d57902	-3.1366992e-37
104	0x02cec6a1	3.0382987e-37
105	0x82bc3910	-2.765687e-37
106	0x82afba9c	-2.5821047e-37
107	0x82cd1cc9	-3.0138565e-37
108	0x82c1c56e	-2.847212e-37
109	0x82b429f2	-2.6472698e-37
110	0x82c5c3f1	-2.9059013e-37
111	0x82c7e23c	-2.9370274e-37
112	0x82bb5990	-2.7528587e-37
113	0x82d27058	-3.0921209e-37
114	0x02ce3f64	3.0305364e-37
115	0x8325935a	-4.8658293e-37
116	0x82bc4386	-2.7662874e-37
117	0x82b481d8	-2.652315e-37
118	0x82c89e60	-2.9478262e-37
119	0x82b45db2	-2.6502401e-37
120	0x82bf4ce7	-2.8109067e-37
121	0x82d3635a	-3.1060689e-37
122	0x82bc3648	-2.7655273e-37
123	0x82b36359	-2.6358709e-37
124	0x02baf374	2.746998e-37
125	0x82bc9774	-2.7711047e-37
126	0x82a9f724	-2.497417e-37
127	0x02babc3b	2.7438283e-37
128	0x82c529e0	-2.8970583e-37
129	0x8293b76e	-2.1704992e-37
130	0x82bf17e4	-2.807864e-37
131	0x027e4c28	1.8682829e-37
132	0x82bd057a	-2.7774197e-37
133	0x827012a0	-1.763776e-37
134	0x02bde165	2.7900424e-37
135	0x82b9c620	-2.7297025e-37
136	0x02cd4bc9	3.0165541e-37
137	0x82bff4b0	-2.8205371e-37
138	0x82c8a111	-2.9479806e-37
139	0x82beb72d	-2.8023129e-37
140	0x82b85b09	-2.7088622e-37
141	0x82a8d98a	-2.4810243e-37
142	0x82d9e821	-3.201852e-37
143	0x82cc642b	-3.00326e-37
144	0x82c6580f	-2.9144028e-37
145	0x02ce4e9a	3.0314095e-37
146	0x82b31e75	-2.6319168e-37
147	0x82cb0e7b	-2.983648e-37
148	0x02a31bd3	2.3966668e-37
149	0x82c0713f	-2.8276864e-37
150	0x82c15c5a	-2.8411808e-37
151	0x02b71794	2.6902966e-37
152	0x82bfb5d4	-2.8169292e-37
153	0x82c4106a	-2.8809033e-37
154	0x02bf04d4	2.8067699e-37
155	0x82cd3bfe	-3.0156477e-37
156	0x82b9e474	-2.7314433e-37
157	0x82d1f3d0	-3.0849731e-37
158	0x02d08681	3.0640055e-37
159	0x02bb28c2	2.7500574e-37
160	0x82c127ca	-2.838164e-37
161	0x02cd093b	3.012734e-37
162	0x82add56a	-2.554256e-37
163	0x827b051c	-1.8442034e-37
164	0x82b7e58a	-2.7021182e-37
165	0x82c65e44	-2.914759e-37
166	0x02c9689d	2.959434e-37
167	0x82c8acbd	-2.9486506e-37
168	0x82be82a2	-2.799297e-37
169	0x82b0cce1	-2.597847e-37
170	0x82bb1299	-2.7487855e-37
171	0x82bacbe0	-2.7447262e-37
172	0x82ca1e6f	-2.96987e-37
173	0x02d02d64	3.0588906e-37
174	0x82c05f7d	-2.8266672e-37
175	0x82ca6f72	-2.9745199e-37
176	0x02c50d01	2.8954012e-37
177	0x82c86fa8	-2.9451446e-37
178	0x82bdeb47	-2.7906097e-37
179	0x82c354bc	-2.870131e-37
180	0x82c5842c	-2.9022411e-37
181	0x82be7f33	-2.7991e-37
182	0x03384cd7	5.416095e-37
183	0x02c23089	2.8533596e-37
184	0x02d1a48b	3.0804233e-37
185	0x82c1c34d	-2.8470898e-37
186	0x82bfa226	-2.8157996e-37
187	0x82b827a9	-2.7059134e-37
188	0x82be8c10	-2.7998383e-37
189	0x82c85658	-2.9436918e-37
190	0x82c1db84	-2.8484797e-37
191	0x02b8c02c	2.7146671e-37
192	0x82bfba0c	-2.8171713e-37
193	0x02b02744	2.5883413e-37
194	0x82132a6b	-1.0812028e-37
195	0x82ba414b	-2.736772e-37
196	0x02ba4316	2.736875e-37
197	0x82d09563	-3.0648597e-37
198	0x82c48a6e	-2.8879066e-37
199	0x82d6ce98	-3.1563053e-37
200	0x82bf72a7	-2.8130735e-37
201	0x3c7eec88	0.015559323
202	0xbb57824a	-0.0032884055
203	0x3e0bc579	0.13649549
204	0x3ddb1032	0.106964484
205	0x3e5f1d1a	0.21788445
206	0x3c52cb48	0.012865849
207	0x3d0d515d	0.034501422
208	0x3d3ae89b	0.045631986
209	0x3d0cf59e	0.034413926
210	0x3d9cb06f	0.076508395
211	0x3d5f2f13	0.054488253
212	0x3a8c8278	0.0010720035
213	0x3dce32f1	0.1006831
214	0x3d501ffa	0.050811745
215	0x82bcd603	-2.7746954e-37
216	0xbe246007	-0.16052257
217	0x3df6a0d0	0.12042391
218	0x3d3bcd6b	0.0458502
219	0x3e246721	0.16054966
220	0xbd9a51fc	-0.075351685
221	0x3cf68569	0.030092912
222	0x3df5f3b4	0.12009373
223	0xbdae7f47	-0.0852037
224	0xbd9622d6	-0.07330863
225	0xbdc3d7fe	-0.095626816
226	0xbdef925a	-0.11697836
227	0x02c96d02	2.9596863e-37
228	0x3c93d314	0.018044986
229	0x02cae029	2.9809894e-37
230	0xbd48f804	-0.04906465
231	0x82bded0e	-2.7907117e-37
232	0x3d517d4f	0.051144894
233	0x82bb981e	-2.7564491e-37
234	0xbd0cfb8a	-0.034419574
235	0xbcd75349	-0.02628483
236	0xbd858335	-0.065191664
237	0xbd96d089	-0.07363994
238	0xbd593b40	-0.05303502
239	0x3dbc6537	0.09198993
240	0xbe083aa5	-0.13303621
241	0x82ce6270	-3.032548e-37
242	0xbe028b87	-0.12748538
243	0x3e0325cf	0.12807392
244	0xbc37d351	-0.011219815
245	0x3dbd7397	0.09250563
246	0xbda1ce1e	-0.07900642
247	0x3dbd3f72	0.09240617
248	0x022dea1c	1.2777219e-37
249	0xbdab9cb3	-0.083794974
250	0xbd51f034	-0.051254466
251	0xbdd93e20	-0.106075525
252	0xbe00f0be	-0.12591836
253	0x3d7c9355	0.061663944
254	0xb89b8b7f	-7.416959e-05
255	0xbd1e8573	-0.038701486

fc2.bias f4 [84]
0	0x3dcf6e27	0.10128432
1	0x82b55058	-2.6641675e-37
2	0xbd0d7cbc	-0.034542784
3	0xbbe0f7ac	-0.0068654623
4	0x3d026161	0.03183115
5	0x82b0220e	-2.5880422e-37
6	0x3d17e619	0.037084673
7	0x3dda7e77	0.106686525
8	0xbd383cdf	-0.044979926
9	0x3d72a545	0.059239645
10	0xbd86efd4	-0.06588712
11	0x3c998223	0.018738812
12	0x3c83fdf1	0.0161123
13	0x3dcefe56	0.101071045
14	0x3d8af6ef	0.0678538
15	0x3e0541de	0.13013408
16	0x3d5d553d	0.054036368
17	0x3d72dc6f	0.059292253
18	0x3d1db559	0.038503025
19	0xbd0744a3	-0.03302444
20	0x3d283f65	0.041076083
21	0x3b5ea922	0.0033975323
22	0xbcf0f674	-0.029414393
23	0xbdc70d2b	-0.097193085
24	0xbdd6f67e	-0.104962334
25	0xbc1f3ae4	-0.00971863
26	0xbc91a246	-0.017777573
27	0x3cfb1585	0.03064991
28	0x3db1375f	0.08653139
29	0x3d13a19a	0.036042787
30	0x3b1a2cc5	0.002352522
31	0x82bfe479	-2.8196064e-37
32	0x3dcc5ed8	0.099790275
33	0x82ade9e8	-2.555432e-37
34	0xbc6d3afd	-0.014479396
35	0x3cff4fb6	0.031165939
36	0x3dd7c5fc	0.105358094
37	0x82aca728	-2.5369072e-37
38	0x3db6a0d3	0.089173935
39	0xbb6bddc4	-0.0035990337
40	0x3d80eee5	0.062955655
41	0xbcd50dd5	-0.026007572
42	0x3d1b20d4	0.037873104
43	0xbe04917d	-0.12946124
44	0x3d6b11ac	0.0573899
45	0x3c24badb	0.010054315
46	0x396f94e2	0.0002284828
47	0x3d9c8eb3	0.07644405
48	0xbdd53700	-0.10410881
49	0x3da670a7	0.081269555
50	0x3dbae1a5	0.091250695
51	0x3bc6c4b6	0.0060659302
52	0xbc50319a	-0.012707138
53	0x3de37c27	0.111076646
54	0x3d0a0068	0.033691794
55	0x3c950cae	0.018194523
56	0xbd989f30	-0.074522376
57	0x3dbac55c	0.091196746
58	0xbb753346	-0.0037414595
59	0x82b71069	-2.6898852e-37
60	0x3c016dc8	0.007899709
61	0xbca3af69	-0.019981103
62	0x3d7e82db	0.062136512
63	0xbc047072	-0.00808345
64	0x3ca4f902	0.020138267
65	0x825d7cd2	-1.6272337e-37
66	0x3d499066	0.049209975
67	0x3dad9002	0.08474733
68	0xbc3fbf32	-0.011703299
69	0x02a4aa54	2.4195398e-37
70	0x3dd56253	0.104191445
71	0xbd3cc920	-0.046090245
72	0x3d8f903a	0.07009931
73	0x3d8ada4f	0.0677992
74	0x3d86e734	0.06587067
75	0x3d97c14f	0.074099176
76	0x8297336c	-2.221697e-37
77	0x82c70f09	-2.9249052e-37
78	0x3b9e1c21	0.0048251306
79	0x3c0c1b31	0.008551405
80	0xbd63a33a	-0.055575587
81	0x02ad7cb5	2.5491644e-37
82	0xbc120bc8	-0.008913942
83	0xbdd1ef7a	-0.10250755

fc3.weight f4 [10, 84]
0	0x3db7311b	0.08944913
1	0x02bda623	2.7866412e-37
2	0xbccc6e59	-0.024954962
3	0x3dbd9e64	0.09258726
4	0xbca2ed87	-0.019888652
5	0x02c15ade	2.8410956e-37
6	0x3d2be35f	0.041964885
7	0x3d386d6b	0.045026224
8	0x3e070093	0.13183813
9	0x3cc41427	0.02393539
10	0x3d1e45f3	0.038640928
11	0xbe0499a7	-0.12949239
12	0x3cb5cc1f	0.02219206
13	0xbd076970	-0.033059537
14	0xbceb68f2	-0.028736565
15	0x3c5d1a24	0.013495002
16	0x3da9a708	0.08283812
17	0xbdd4cc74	-0.10390559
18	0x3d6f2012	0.058380194
19	0xbb94082a	-0.004517575
20	0xbdfada8e	-0.12248717
21	0xbd1e2052	-0.03860504
22	0x3c932dfe	0.017966267
23	0x3df061b4	0.117373854
24	0x3d13c88d	0.036079932
25	0x3c613b3e	0.013747035
26	0x3e3ef5bf	0.18648432
27	0x3c0d1c0d	0.008612645
28	0xbe2b2595	-0.16713555
29	0x3db60ed6	0.088895485
30	0x3dbac3ba	0.09119363
31	0x82c22c50	-2.8531172e-37
32	0xbe15c436	-0.1462563
33	0x02c30a76	2.865868e-37
34	0xbdc6a45e	-0.09699319
35	0xbe2b4467	-0.16725312
36	0x3d9bac2b	0.07601198
37	0x823c2860	-1.3823646e-37
38	0xbd753fc5	-0.05987527
39	0xbdc58d0b	-0.096460424
40	0xbd2d1559	-0.042256687
41	0x3e04b966	0.12961349
42	0x3dd057ef	0.10173022
43	0xbc1b4eda	-0.009479249
44	0x3d907d86	0.07055192
45	0x3bcb1f73	0.0061988174
46	0x3e0fe961	0.1405387
47	0xbe3731e3	-0.17890124
48	0x3d43acc6	0.04777219
49	0xbd9d8020	-0.076904535
50	0xbe12869c	-0.14309162
51	0xbcea16fb	-0.028575411
52	0x3dc6ede2	0.09713341
53	0x3d3ebd95	0.04656752
54	0xbd02d85e	-0.031944625
55	0xbbe38cf6	-0.006944294
56	0xbcedb8b2	-0.029018734
57	0x3de3b773	0.111189745
58	0x3ca06800	0.019580841
59	0x02d0b443	3.0666318e-37
60	0xbe08d360	-0.13361883
61	0xbe6550f1	-0.22394158
62	0xbca954c8	-0.02067031
63	0x3d2d1479	0.042255852
64	0xbd06fa91	-0.032953802
65	0x8297ae55	-2.2287518e-37
66	0x3d303cab	0.043026607
67	0xbd95440a	-0.07288368
68	0xbdb0dd23	-0.086359285
69	0x00d1978e	1.9247986e-38
70	0xbb8fe49a	-0.004391265
71	0x3db74548	0.08948761
72	0x3df795c0	0.120891094
73	0xbdc551c0	-0.09634733
74	0x3d43f91e	0.047845
75	0x3df46d48	0.11934906
76	0x81ef827d	-8.7981976e-38
77	0x02b962c5	2.7239998e-37
78	0x3d4c9f2f	0.049956497
79	0xbb9740cf	-0.00461588
80	0x3dbbbc0b	0.09166726
81	0x82058584	-9.809614e-38
82	0x3d5a68b8	0.053322524
83	0xbb8acd0a	-0.0042358683
84	0x3e250fd0	0.16119313
85	0x02cb0d9d	2.9835983e-37
86	0x3c6cabac	0.014445227
87	0xbdcf66fa	-0.10127063
88	0xbe04f4e0	-0.12984037
89	0x82c61af3	-2.9108953e-37
90	0xbe5d103a	-0.21588221
91	0x3d182e5f	0.037153598
92	0xbdfe3a30	-0.12413442
93	0x3db627a6	0.08894281
94	0xbca5629e	-0.020188626
95	0x3d63dcc4	0.05563046
96	0xbd24e666	-0.040258788
97	0xbcaf923a	-0.021432031
98	0xbe3befe0	-0.18353224
99	0xbcc98623	-0.024600094
100	0xbd03cc9c	-0.032177553
101	0xbdf01579	-0.117228456
102	0xbe826835	-0.2547013
103	0x3e179c52	0.14805725
104	0x3d85e093	0.06536975
105	0x3dd4cd9f	0.103907816
106	0x3db6ca18	0.08925265
107	0xbd9a6dbd	-0.07540462
108	0xbe425294	-0.18976814
109	0xbdd8bf06	-0.1058331
110	0xbd2a59f8	-0.041589707
111	0xbe4ab5dd	-0.19795938
112	0x3cd6fe28	0.026244238
113	0xbd5fdde6	-0.05465498
114	0xbe79ff88	-0.24413884
115	0x02b7a90a	2.6986457e-37
116	0xbe4da8bc	-0.20083898
117	0x3700b972	7.672572e-06
118	0xbde0f610	-0.10984433
119	0x3e121e9f	0.14269494
120	0xbdfef576	-0.12449162
121	0x02b64967	2.6784627e-37
122	0x3c23fc1b	0.010008837
123	0xbd01890b	-0.031624835
124	0xbdeed87c	-0.11662385
125	0x3daed906	0.08537488
126	0xbb898ba8	-0.0041975565
127	0x3dc877c7	0.09788471
128	0x3c5082c0	0.012726486
129	0xbc6a2d38	-0.014293008
130	0x3ccacf42	0.024757031
131	0xbe224c96	-0.15849528
132	0x3e02bd12	0.12767437
133	0xbe117896	-0.14206156
134	0x3d4d0d91	0.050061766
135	0x3dd1c63c	0.10242888
136	0x3da2600c	0.07928476
137	0x3e12c4bb	0.14332859
138	0xbd9d44e5	-0.07679156
139	0x3d92679b	0.071486674
140	0x3ad0cad5	0.0015929589
141	0xbe51e7c6	-0.20498571
142	0xbdee9c1d	-0.1165087
143	0x82babbdf	-2.7438076e-37
144	0x3dc455b1	0.09586657
145	0x3cb1390b	0.021633646
146	0x3dd53cd2	0.10411991
147	0x3d568e2f	0.05238169
148	0x3de39a76	0.111134455
149	0x023a3e24	1.3682955e-37
150	0xbdda2e83	-0.10653403
151	0xbe3d6368	-0.18494952
152	0xbd06d347	-0.032916334
153	0x82d83a60	-3.1771853e-37
154	0xbe4786fd	-0.19485088
155	0x3da82615	0.082103886
156	0xbdc6b757	-0.09702938
157	0xbe239c11	-0.15977503
158	0xbd1ff167	-0.03904858
159	0xbe41a4b8	-0.18910491
160	0x828bf0f4	-2.0562515e-37
161	0x82d3aeab	-3.1103918e-37
162	0x3d152295	0.036409933
163	0xbd1c7049	-0.03819302
164	0x3dbc5286	0.091954276
165	0x82a867f2	-2.4745043e-37
166	0x3e1ef148	0.15521729
167	0x3c5f22de	0.013619153
168	0xbb0b6065	-0.0021267172
169	0x82bd9a71	-2.78597e-37
170	0x3e117123	0.14203314
171	0x3d0bcad3	0.034128975
172	0xbcfea9e2	-0.031086866
173	0x82b22799	-2.6177477e-37
174	0xbca14746	-0.019687306
175	0x3da33458	0.07968968
176	0xbd2b1a26	-0.041772984
177	0xbc95cc65	-0.01828594
178	0x3d3180bc	0.04333566
179	0x3dcf0d00	0.101099014
180	0x3e1d292a	0.15347734
181	0xbe0c3089	-0.1369039
182	0xbe384db8	-0.17998397
183	0xbd933822	-0.07188441
184	0x3cc16094	0.023605622
185	0x3e1f96c8	0.15584862
186	0xbe54f277	-0.20795618
187	0xbcef236f	-0.0291917
188	0xbde898dd	-0.11357281
189	0xbdeb953e	-0.11503075
190	0xbddade52	-0.106869355
191	0xbc906ea5	-0.017630884
192	0xbda344dd	-0.07972119
193	0x3989ceb6	0.00026284688
194	0xbdefff11	-0.11718572
195	0xbd01abda	-0.03165803
196	0x3dbaa43d	0.09113357
197	0x3dec3d31	0.11535109
198	0x3dd1d7a2	0.10246207
199	0x02c2f61f	2.8647005e-37
200	0x3dd9eb8e	0.106406316
201	0x82b7a40c	-2.6983592e-37
202	0x3df93c92	0.12169756
203	0xbda8792e	-0.08226238
204	0x3d9b4411	0.07581342
205	0x82c4309e	-2.8827516e-37
206	0x3c14f714	0.009092111
207	0xbd1ae10e	-0.037812285
208	0xbd4e2d4d	-0.05033617
209	0xbdb62121	-0.088930376
210	0x3c53b2e8	0.012921073
211	0xbe127a3c	-0.14304441
212	0x3d5c5bf8	0.053798646
213	0x3d137f53	0.036010098
214	0x3d9c8aff	0.07643699
215	0xbdbe28c1	-0.09285117
216	0xbda36901	-0.07979012
217	0x3cc85122	0.02445275
218	0xbd15767e	-0.036489956
219	0xbd8af89b	-0.06785699
220	0x3d4cdb14	0.050013617
221	0x3dd82810	0.10554516
222	0xbdec7f79	-0.11547751
223	0xbd14ee05	-0.036359806
224	0xbd0c8ceb	-0.034314077
225	0xbcd89da5	-0.026442358
226	0xbbd11db5	-0.006381715
227	0x02c338eb	2.8685344e-37
228	0xbc0fcbdf	-0.008776634
229	0x3dbbc8d0	0.09169161
230	0x3db7a053	0.08966126
231	0x3dd657b2	0.10465945
232	0xbdcb11dc	-0.09915516
233	0x0324eba7	4.8465784e-37
234	0xbe1f6427	-0.15565549
235	0x3d967bf6	0.073478624
236	0xbe1bdf0d	-0.15221806
237	0x021d7572	1.1568243e-37
238	0xbe005bf3	-0.12535076
239	0x3c212fbc	0.009838041
240	0x3dc11f33	0.09429779
241	0xbd62dad5	-0.055384476
242	0x3e0a86c8	0.13527977
243	0x3d9fb873	0.07798853
244	0x8338cf43	-5.4310665e-37
245	0x02d52a25	3.1321727e-37
246	0x3d62af15	0.055342752
247	0x3db2400d	0.08703623
248	0x3da1e8b9	0.079057164
249	0x82c0273d	-2.8234386e-37
250	0x3dee1878	0.11625761
251	0xbe1daa29	-0.15396942
252	0x3db1baef	0.08678233
253	0x82c7147f	-2.9252186e-37
254	0x3da96f6c	0.08273205
255	0x3e064022	0.13110402

fc3.bias f4 [10]
0	0x3ca4bdc6	0.020110022
1	0xbdbb53de	-0.09146856
2	0x3d148b3d	0.0362656
3	0xbdf011f7	-0.117221765
4	0xbd2e03a0	-0.042483926
5	0x3dd3adcd	0.10335884
6	0xbce9ac78	-0.028524622
7	0xbc7b5f55	-0.015342553
8	0xbd2541ff	-0.040346142
9	0x3dc8b4ce	0.09800111
