Models/lenet_mnist_lr_0.0001_wd_0.0001_12_100.pth (torch, 169706 bytes, 10 tensors)

conv1.weight f4 [6, 1, 5, 5]
000000 9e e6 7f 3e dc cf 2c 3d 8f d7 26 be 14 e5 aa 3b
       0.24990317 0.042190418 -0.16293167 0.0052152965
000010 00 32 ea 3d 46 f0 bd 3e e3 4c 3b 3e 2a 07 68 be
       0.11435318 0.37097377 0.18291049 -0.22658983
000020 e3 50 1a be d1 33 88 3d 6e 44 04 3e f0 63 b2 3d
       -0.15069918 0.06650508 0.12916729 0.08710468
000030 aa 3c 9d 3e 91 f8 27 3e 15 f6 97 3e b6 7c e7 bd
       0.30710346 0.16403414 0.29679933 -0.113030836
000040 f4 d1 96 3e fe e1 b4 3e ce d2 04 3e 1e f1 2d 3e
       0.29457057 0.35328668 0.1297104 0.1698651
000050 50 f7 96 bd 9e 21 77 bd 4f 2f 60 be f4 74 06 be
       -0.0737139 -0.060334794 -0.21893047 -0.13130552
000060 e5 2a 33 bd 27 63 5c be 24 fc 34 be a8 2a 94 be
       -0.04374208 -0.21522199 -0.17674309 -0.28938794
000070 6e 2c a1 3d ac 50 12 3e 92 25 b2 bd f6 cc 92 bb
       0.078698024 0.14288586 -0.08698572 -0.0044799997
000080 5c 2f 1d be a8 e4 02 3e 34 68 1a 3d 81 96 e3 bd
       -0.15350097 0.12782538 0.037697032 -0.11112691
000090 15 74 ba ba 08 0b c0 3d af 8b 44 3e 82 f7 ef 3d
       -0.0014225269 0.09377104 0.1919391 0.1171713
0000a0 28 70 97 3d 86 6d 5f 3e b6 9d 27 3e a4 1b af 3e
       0.07394439 0.21819124 0.16368756 0.34200776
0000b0 c9 67 a5 bd 5e 0e e0 3e b5 78 f7 3e 56 67 92 3e
       -0.08076436 0.4376096 0.4833428 0.28594464
0000c0 7a 70 a8 3e ef f2 a1 3d 03 0f a5 3d 03 be 9d 3e
       0.32898313 0.07907664 0.08059504 0.3080903
0000d0 69 2f 6f 3e 55 e5 67 3e a8 08 a1 bc 67 b9 e2 3e
       0.2335793 0.22646077 -0.019657448 0.44282076
0000e0 9e e2 e0 3e e2 2a 9a 3d 35 c9 11 3e 1f d9 6a 3e
       0.43922895 0.075277105 0.1423691 0.22934388
0000f0 12 5f 02 bb c7 af 52 3e dc 4d 53 3e c2 77 a4 bd
       -0.0019893092 0.20574866 0.2063517 -0.080306545
000100 70 8a b2 bd af f7 27 be 03 0b a3 be 64 20 45 3e
       -0.08717811 -0.16403078 -0.3184434 0.19250637
000110 e2 8b 1a 3e d4 79 53 bd 0e 05 f4 be 15 e2 92 bd
       0.15092424 -0.051629856 -0.47660106 -0.07172028
000120 30 55 bb bd f9 33 89 3d 86 1e 8d bd e6 64 3e bd
       -0.091471076 0.06699366 -0.068905875 -0.046482943
000130 7c 6a d3 bc bd e8 d3 3d 1c 64 96 3e cb f0 0f 3e
       -0.025807612 0.10347126 0.29373252 0.14056699
000140 ce 9e 15 bd 0d 67 2d be 18 96 7c 3e 0e 48 d9 3d
       -0.0365284 -0.16933842 0.24666631 0.106094465
000150 ec da 90 3e 36 75 45 be 09 b5 85 3d db 55 a6 3e
       0.28292024 -0.19282994 0.0652867 0.32487378
000160 c5 c9 e9 3e 1c 97 b8 3e 7d 76 c4 bd 75 cd 7f 3e
       0.4566175 0.36052787 -0.09592912 0.2498072
000170 33 8f ae 3e 94 6f d5 3e 8c e7 86 3e c4 39 ee 3c
       0.34093627 0.4168669 0.2634853 0.02908028
000180 d7 24 b6 3e 97 69 c2 3e b9 ff 8e 3e 87 1f 9c 3d
       0.35574982 0.37971184 0.27929476 0.07623201
000190 8c d8 0b 3c f9 80 22 3b 24 6f a5 3c 8f 53 f4 3c
       0.0085355155 0.0024796112 0.020194598 0.029825
0001a0 ff 8a ab 3c d6 79 47 be db ad dc be ee 59 c5 be
       0.020940302 -0.1948007 -0.4310139 -0.38545173
0001b0 83 e9 27 be 7b 6f ee 3c 25 53 79 be fe 0d 63 be
       -0.16397671 0.029105892 -0.24348123 -0.22173306
0001c0 31 0f 44 be 48 50 5b be cd 41 cf bd 7a 75 88 3e
       -0.1914642 -0.21417344 -0.101199724 0.26652128
0001d0 63 e3 45 3e 3c f0 f6 3d 8e 00 59 3e 81 f3 35 bc
       0.19325022 0.1205754 0.21191618 -0.011105419
0001e0 45 bf f4 3e 5c 89 c1 3e aa 77 e9 3e 05 c4 d3 3d
       0.47802177 0.3780011 0.4559911 0.10340122
0001f0 c7 f0 18 3e 61 e9 7e 3d 82 53 35 be 88 45 52 be
       0.149356 0.062234286 -0.17707637 -0.20534337
000200 c4 36 2c be 13 13 ea 3d 5a f3 87 bc 88 10 ac be
       -0.16817766 0.11429419 -0.016595531 -0.33606362
000210 0b 9d 7e be 98 e7 6c bd 73 15 b9 3e 09 5d 8a be
       -0.24864595 -0.057838053 0.36149177 -0.27024105
000220 06 0b 85 be c4 58 82 be 5f 3f 2c 3e ac e3 b8 3e
       -0.25984973 -0.25458348 0.16821049 0.361112
000230 19 87 81 be 3b ef 9a be 13 4b e8 3d 46 9d 40 3e
       -0.25298384 -0.30260643 0.11342444 0.18809995
000240 ef df 1e 3e b5 43 62 be 2d d4 dc bd 64 fa 86 bd
       0.15515111 -0.2209614 -0.10782657 -0.06590727
000250 0e f3 56 3e 30 23 7a 3e
       0.20991156 0.24427485

conv1.bias f4 [6]
000000 a4 0a d1 3e d2 a7 88 3e 62 1e 38 3e e5 9a 67 3e
       0.4082843 0.26690537 0.1798034 0.22617681
000010 0b 91 84 3e 7a 4d 0b 3e
       0.2589191 0.13603774

conv2.weight f4 [12, 6, 5, 5]
000000 b3 6c 03 bd 2e 11 86 3d e6 f1 96 3b af 9b f1 bd
       -0.032086086 0.065462455 0.0046064733 -0.117972724
000010 95 95 92 bd d9 28 31 3e ba 30 11 3e cf c5 2c 3e
       -0.07157437 0.17300738 0.14178744 0.16872333
000020 5a 3f 00 3e 34 b7 10 3d 9a 47 b6 bd ea 55 29 3d
       0.12524167 0.035330966 -0.08900376 0.0413417
000030 98 0f 3b 3d 6d b8 91 3d 49 d3 f6 3d 09 a3 29 be
       0.04566917 0.071152546 0.12052018 -0.16566099
000040 36 76 0a be 0e 5f 96 bd 24 43 61 3d 71 1e 6e 3d
       -0.13521656 -0.07342349 0.05499567 0.0581345
000050 a2 5f 8a 3d 65 c6 8f bd 17 bd e0 bd 45 0b 86 bd
       0.06756522 -0.07020263 -0.10973566 -0.06545118
000060 d3 4e 93 3c 27 3d 42 3d c6 a2 34 3e d9 05 aa 3d
       0.017981922 0.0474216 0.17640218 0.083018966
000070 58 c8 ed 3d f1 22 2b bc ac 4e 1b be 65 99 9b 3d
       0.11610478 -0.010445342 -0.1516673 0.07597617
000080 f0 53 28 bb ef 46 d7 3d 08 20 28 3e f2 f4 19 be
       -0.0025684796 0.105115764 0.16418469 -0.15034845
000090 d8 ca 4f bc 06 ce 12 be 17 ce ea bd a6 25 49 bd
       -0.012682639 -0.14336404 -0.1146509 -0.04910817
0000a0 ee 1a 0e bd 37 94 02 bd bf 51 b1 bd 14 09 43 bd
       -0.03469365 -0.03187963 -0.0865817 -0.04761608
0000b0 ac 7f 78 bc a8 49 eb 3b 45 58 a9 3d 0f 63 ac 3d
       -0.015167158 0.0071804114 0.08268789 0.084173314
0000c0 84 0a f1 3c 29 ee 8a 3d 65 77 ae 3d e0 18 4c 3d
       0.02942396 0.06783707 0.085188664 0.04982841
0000d0 2e 9c e3 3b da 56 0d be 45 23 03 be f4 9e 82 3d
       0.0069461083 -0.13802662 -0.12806423 0.06377974
0000e0 e6 c4 06 3e 85 56 32 3d 8b 99 9a bc f3 cd 07 3a
       0.13161048 0.043539543 -0.018872043 0.000518053
0000f0 42 2c 2b 3d 3c 65 27 3e 9c 59 6c 3e 7a c2 ff 3d
       0.041790254 0.16347212 0.23081058 0.12488265
000100 2d a1 16 3e b3 c9 20 be dd 5f a0 bd fc ce 05 3d
       0.14709921 -0.15701942 -0.078307845 0.0326681
000110 26 c1 02 3e 15 c8 0a 3e 29 ce 97 3b 80 17 12 be
       0.12768993 0.13552888 0.0046327305 -0.14266777
000120 c1 de ef bc ce 17 f3 bd b0 30 6b bd a6 b1 e8 bc
       -0.029281022 -0.11869775 -0.05741948 -0.028405022
000130 bb cb 18 bd 3e f1 d4 bd b2 4a a6 bc 04 fa 4b bc
       -0.037303668 -0.10397576 -0.02029929 -0.012449745
000140 73 ec 1f bd 7a ef c2 3d 27 4b 9d 3d b6 4b 77 3c
       -0.039043855 0.09518333 0.0768035 0.0150937345
000150 ca 2c 71 bc d3 78 c6 bd ef cc 7b bd 00 4c 26 bd
       -0.014720151 -0.09691014 -0.061474737 -0.040599823
000160 ca 5b d8 3d eb 7a c9 3d a3 70 af bd a1 a7 02 be
       0.105643824 0.09837898 -0.085664056 -0.12759258
000170 31 35 e9 bc b8 6f 7c bd fa 84 92 bd 0e a4 84 3d
       -0.028467746 -0.06162998 -0.071542695 0.064766034
000180 91 76 97 bd a0 98 bd bd 33 48 56 3d 7e f2 e3 bc
       -0.073956616 -0.092576265 0.05231495 -0.02782559
000190 13 2a dd 3d 98 46 6c 3e ff c1 96 3e 44 ab 6f 3e
       0.10799041 0.23073804 0.29444882 0.23405176
0001a0 d2 9b 44 3e ae 0a 61 3d dd 75 11 3e 32 5f 1c 3e
       0.19200066 0.054941826 0.14205118 0.15270689
0001b0 45 0c 40 3e a2 53 1e 3e ac 25 ea 3c c6 b0 23 3d
       0.1875468 0.15461591 0.028582416 0.039963506
0001c0 b3 e1 2d bd 81 67 c9 3b f1 94 82 3c 16 ff 61 3e
       -0.04245157 0.006146372 0.015940161 0.22069964
0001d0 e7 58 3c 3e 4d b1 24 3e c9 bb 14 3e 0c bc ee 3c
       0.18393289 0.1608326 0.1452476 0.029142402
0001e0 4e d2 cd bc fd 02 d0 3d 2f 11 98 3d d7 b1 7c 3c
       -0.025124695 0.1015682 0.074251525 0.01542326
0001f0 aa db d2 3c a5 7e 63 bd fd e6 51 be c0 39 49 be
       0.02573951 -0.0555407 -0.20498271 -0.19650936
000200 83 d2 2e be 1e 5c 2e be 27 c3 40 bd 7c 49 23 be
       -0.17072491 -0.17027327 -0.04706111 -0.15946001
000210 b0 fd 4b be 66 09 26 be 58 f0 df bd 83 db 7a 3c
       -0.19920993 -0.16214523 -0.10934514 0.015311125
000220 cb 2e d3 bd 8f 71 f2 bc a0 a7 4c bd 0a 11 19 bd
       -0.103116594 -0.029595165 -0.049964547 -0.037369765
000230 32 ad 56 3c 01 77 1e be c9 bf a2 bd 2c ea f7 bc
       0.013102816 -0.15475084 -0.07946736 -0.030263029
000240 77 1c 6d 3d 19 a9 83 bd b1 a2 1f 3d 1d 63 9c bc
       0.057888474 -0.06428737 0.038973514 -0.01909023
000250 07 44 ce 3c 3b b9 b5 3d fd 72 ac 3c 9d c5 c2 3d
       0.025178922 0.088732205 0.021050924 0.09510348
000260 a8 a5 80 3d 77 57 06 3e 3b b5 d5 3d dd 0d 91 3a
       0.062815964 0.13119303 0.104349576 0.0011066754
000270 94 15 0b 3e 1a 13 03 3a 94 f6 08 be cf 24 8d bd
       0.1358245 0.00050001 -0.13375312 -0.06891786
000280 d5 f6 16 be e1 e1 70 be dc 4c 8c be 8c 5b 94 be
       -0.14742596 -0.23523666 -0.2740239 -0.28976095
000290 ac ae c3 bd ab 62 1b be 49 aa 0c be 0e 27 19 be
       -0.095548004 -0.15174358 -0.13736834 -0.14956304
0002a0 48 85 87 bd 57 c4 20 3d a2 ef d1 3d 7d 45 91 3d
       -0.06617218 0.039249744 0.102507845 0.07093332
0002b0 f4 42 6d 3d af 3a a2 3d 0d 1c a8 bc f3 c3 75 3c
       0.05792518 0.07921349 -0.020521188 0.015000331
0002c0 c4 31 25 3d ce 54 97 bd 5f 82 af 3c 68 c7 a0 bc
       0.040330663 -0.07389222 0.02142447 -0.019626334
0002d0 1f 1c f7 bd 2b 69 3b be 26 aa 9a be d9 7c 98 be
       -0.120659105 -0.18301837 -0.30207938 -0.2978275
0002e0 08 c1 f8 bd 33 d3 e7 3b 24 d4 d1 bd 14 bf b6 3b
       -0.12146193 0.0070747375 -0.10245541 0.0055769775
0002f0 4f 09 76 3d 98 79 28 3e b5 29 9e 3d 65 76 03 3e
       0.06006747 0.16452634 0.07722799 0.12838133
000300 a9 fe fd 3d 16 da a7 3c 42 ee e7 3d c8 f1 af 3d
       0.12402088 0.020489734 0.11324741 0.08591038
000310 82 2d 63 3d 24 31 8d 3d c3 0d 8b 3d fd 40 5b 3c
       0.05546332 0.068941385 0.06789734 0.013382194
000320 3c bb 1f 3e 09 2f 42 bc 49 01 07 bd b3 06 49 3d
       0.15598768 -0.011852034 -0.03296021 0.049078654
000330 35 55 2e 3e b0 06 08 3e cd c9 73 3d bf fe 0d bd
       0.17024691 0.13283801 0.059518624 -0.034666773
000340 76 8c 79 3d fa b4 de 3d 22 7c 8b 3d e5 11 b2 bd
       0.06092497 0.10874362 0.06810786 -0.08694819
000350 c7 b9 d6 bd f2 91 47 be 74 0b 48 be 8b a6 74 be
       -0.10484653 -0.19489267 -0.19535619 -0.23891656
000360 84 64 bd be 35 9f a2 be 72 b7 1e be 87 96 a9 bd
       -0.3699075 -0.3176209 -0.15499666 -0.08280664
000370 70 8d 15 bc 45 56 06 bb f1 62 af bc 34 e9 b7 3d
       -0.00912796 -0.0020498198 -0.021409484 0.08980027
000380 4c b3 9a 3d a9 8f 27 3e f8 9f 94 3c 18 39 05 bd
       0.075537294 0.16363396 0.018142685 -0.032525152
000390 fb b5 e4 3b 1e 38 76 3d d7 e7 3d 3d 42 e8 32 be
       0.0069797016 0.06011211 0.046363678 -0.17471412
0003a0 83 a5 1f be 53 f2 32 be 82 2e 9a bd ad 11 5c be
       -0.15590481 -0.17475252 -0.07528402 -0.21491118
0003b0 8f fd 9f be 1f 69 36 be 9e 5a 82 bd 97 8d bc 3d
       -0.31248137 -0.17813538 -0.0636494 0.092066936
0003c0 7f 73 1e bd 96 2a 9f bc 94 9c 1b 3d a5 2c 0a 3e
       -0.038684364 -0.019429486 0.03799112 0.13493593
0003d0 69 ea 85 3d fe 85 10 3e 90 b6 0c 3e d0 f3 63 3d
       0.06538851 0.14113614 0.13741517 0.05565244
0003e0 7c 50 ba 3d 08 fc a3 bb 39 c5 10 bd ca b7 b8 bd
       0.090973824 -0.0050044097 -0.035344336 -0.0901943
0003f0 e3 91 fb bc a9 4e ca bd 87 c6 a6 bd 0b cd 1b be
       -0.030709213 -0.098782845 -0.08143335 -0.15214936

conv2.bias f4 [12]
000000 6e f9 c8 3d 04 d6 2e 3d 97 53 ba 3c ff 24 7f bd
       0.098132 0.04268457 0.022744937 -0.06229114
000010 96 22 38 bb 14 82 1b 3d a9 ac 1e bd 05 07 1d 3e
       -0.0028096787 0.03796585 -0.03873888 0.15334709
000020 ea 55 32 bc 30 de ee bc 31 4f 02 bc 72 a3 16 3d
       -0.010884741 -0.029158682 -0.007953451 0.036776967

fc1.weight f4 [100, 300]
000000 15 ba ba 38 1c 74 4a 3a 83 bb 24 3a ca 1b c3 39
       8.9038316e-05 0.000772299 0.0006284045 0.00037214003
000010 4e c8 c6 b7 02 95 17 ba 91 a5 9e ba 43 71 f8 ba
       -2.3696713e-05 -0.0005782397 -0.0012103786 -0.0018954653
000020 07 0f af ba be bc b4 ba 49 8d 98 ba db 9c 2b bb
       -0.0013355919 -0.001378916 -0.0011638786 -0.0026186022
000030 29 73 04 bb dd c3 96 ba 00 24 76 b7 08 80 bb b9
       -0.0020210242 -0.0011502464 -1.46711245e-05 -0.0003576281
000040 54 5f 1e bb fb 91 b8 ba 11 20 98 ba 0d 81 2d ba
       -0.0024165707 -0.0014081592 -0.0011606236 -0.00066186563
000050 75 a8 26 bb 99 93 f3 ba 56 36 62 3a 73 9e 11 3b
       -0.0025429998 -0.0018583416 0.00086293125 0.0022219687
000060 7f ce 38 3a ce de a0 ba 7b 25 ad ba c6 f6 d8 ba
       0.0007049813 -0.0012273432 -0.0013210023 -0.0016553036
000070 99 cb 11 bb f5 a7 c8 ba b5 28 66 39 94 62 46 bb
       -0.0022246598 -0.0015308844 0.00021949674 -0.003027116
000080 4b f8 dd ba be bf b4 3a a7 a6 ab b9 88 d1 75 b9
       -0.0016934959 0.0013790054 -0.00032739827 -0.00023443077
000090 37 f8 ae 3a 75 0a ca 3a 15 f0 ca 38 2e 83 49 39
       0.001334912 0.0015414493 9.676829e-05 0.00019217722
0000a0 27 5d da ba be 42 96 bb 37 45 9d ba 27 43 a2 b8
       -0.0016659842 -0.004585593 -0.0011998777 -7.73727e-05
0000b0 cb c7 ad b9 98 40 af b9 fd ed c1 b9 01 f5 f5 b9
       -0.0003314599 -0.00033426727 -0.00036989144 -0.00046912584
0000c0 de 4f d4 ba 00 e1 8c ba 3a b9 7a b6 3e ff a6 b9
       -0.0016198119 -0.0010748208 -3.736072e-06 -0.00031852158
0000d0 4a 43 8c b9 43 85 e9 ba 6f 4f 55 b9 16 40 52 b7
       -0.00026753015 -0.0017816204 -0.00020342854 -1.2531897e-05
0000e0 eb 0d 33 ba 4b df d1 39 f7 c1 f4 ba e5 a4 c6 ba
       -0.0006830382 0.00040029953 -0.0018673529 -0.0015155344
0000f0 a5 d8 e1 b7 ae 4e e1 b8 45 3b 97 ba b1 b1 44 bb
       -2.6922973e-05 -0.00010743491 -0.001153805 -0.003001314
000100 9f ef 05 bb ee fc 55 ba 66 2f c8 39 a5 ad 17 3a
       -0.0020437015 -0.00081629946 0.00038182287 0.0005786068
000110 b2 ca cd 39 6a 78 46 ba 48 1e ee b9 dc f2 c8 b8
       0.00039251667 -0.00075710437 -0.0004541746 -9.581979e-05
000120 2d 84 0d ba 2d 57 6e ba 9a f6 ed b9 96 0f 61 b9
       -0.0005398419 -0.00090919697 -0.00045387895 -0.00021463478
000130 65 8c c8 39 9e a3 78 ba b3 e6 2c ba 5b 8f cf b7
       0.00038251575 -0.000948483 -0.0006595656 -2.4743078e-05
000140 53 d4 f2 b9 1b c2 84 ba 0e 98 08 bb 71 ec 0c ba
       -0.0004631603 -0.0010128649 -0.0020842585 -0.00053758087
000150 bc 03 a4 b9 31 20 35 b9 6b 04 f2 b9 92 e1 3c b7
       -0.000312833 -0.00017273497 -0.0004616113 -1.1258193e-05
000160 67 91 12 b9 bb 25 aa b6 33 a0 8a ba b7 be f4 ba
       -0.00013977812 -5.070787e-06 -0.0010576308 -0.001867256
000170 64 38 a5 b8 dd a9 40 39 42 7d c6 b2 64 a1 40 ba
       -7.878317e-05 0.00018373826 -2.3107194e-08 -0.0007348268
000180 7c e2 72 b9 00 b1 f5 b8 bf 75 83 b8 6f c9 a2 00
       -0.0002316329 -0.00011715479 -6.268499e-05 1.4949611e-38
000190 59 74 91 34 50 5b e7 b9 2c d0 86 39 53 d7 29 3a
       2.709301e-07 -0.00044127787 0.00025713572 0.0006478924
0001a0 e6 6d d2 ba 3d f3 c5 b8 15 99 73 3a 2c f5 15 b9
       -0.0016054481 -9.438999e-05 0.00092925254 -0.00014301081
0001b0 1d 44 9a ba 6c 5a 96 ba 3d 8a 4c ba 64 50 c7 ba
       -0.0011769567 -0.001147104 -0.00078025815 -0.0015206453
0001c0 68 e9 2f ba 0f 15 e8 38 78 4c 3d 3a ac 0b 92 b8
       -0.00067105005 0.000110665445 0.00072211726 -6.9639966e-05
0001d0 cf b1 a8 b8 1f 66 c0 ba 41 64 ca b9 94 0a 80 3a
       -8.043984e-05 -0.0014678872 -0.00038603137 0.0009768778
0001e0 4f 57 25 3a a6 86 17 bb 9c d3 ca ba 49 bb 2a 3a
       0.00063072605 -0.0023121028 -0.0015474441 0.0006512893
0001f0 a9 bb ec 37 ee 45 0e b9 82 3c 7f 3a 11 c6 1b 3b
       2.8220778e-05 -0.00013568226 0.00097364944 0.002376918
000200 2a cf 08 bb 49 ed fd b9 42 ae 8a ba 84 b5 c9 3a
       -0.0020875433 -0.00048432712 -0.0010580497 0.0015389179
000210 49 09 5d ba 51 46 81 ba ae 97 83 37 7d fb b4 ba
       -0.00084318646 -0.0009862875 1.5687048e-05 -0.001380786
000220 d3 ad c8 39 82 f2 12 39 49 2c c0 b9 71 04 3b ba
       0.00038276482 0.00014013986 -0.0003665409 -0.00071341457
000230 00 5d 85 ba af 47 1f ba fa 6a dc ba 78 94 84 b9
       -0.0010174811 -0.00060760503 -0.001681655 -0.0002528762
000240 cd 3b a1 b9 94 6c 8f 3a 5b e4 94 ba fd a8 84 ba
       -0.00030752868 0.0010942393 -0.0011359559 -0.0010121163
000250 49 89 a2 38 6b e3 0d b7 cc 35 7a b9 af 94 92 3a
       7.750333e-05 -8.457205e-06 -0.00023861899 0.0011183227
000260 4e 83 14 3a ea 37 6b 39 72 f6 45 b7 e9 ac de b9
       0.0005665318 0.00022432176 -1.1799495e-05 -0.00042471968
000270 52 56 9e ba 40 c4 4d 39 1a 35 11 3a a9 0b ad b9
       -0.0012080169 0.00019623432 0.0005539224 -0.0003300582
000280 85 dd 73 ba 97 b6 04 bb 06 00 ff ba 79 44 62 ba
       -0.00093027233 -0.0020250434 -0.0019454963 -0.0008631419
000290 55 14 53 b9 fa 5f 53 ba 17 45 0b bb 4c 37 24 bb
       -0.00020130102 -0.0008063313 -0.0021250898 -0.0025057374
0002a0 6e ec d7 ba 2e 21 89 b9 e6 ce 81 ba 99 93 12 ba
       -0.001647366 -0.00026155397 -0.000990358 -0.0005591452
0002b0 9e 65 b5 37 89 d0 f5 ba 65 fa 17 b8 62 69 1a 36
       2.16242e-05 -0.0018754165 -3.6234404e-05 2.300913e-06
0002c0 94 09 29 39 80 ac 97 3a 78 34 10 3b df 3f 46 b9
       0.00016120664 0.0011571795 0.002200393 -0.00018906545
0002d0 cb bb 0e ba 95 54 cf 3a 1a 8b dc 3a 84 42 b0 b9
       -0.00054448535 0.0015818054 0.0016826123 -0.00033618894
0002e0 a6 b9 37 ba 22 b1 d6 ba 9b 53 e9 ba de 71 b9 ba
       -0.000700856 -0.0016379694 -0.0017801406 -0.0014148315
0002f0 bb 4c 24 ba bb 3b 1e ba 89 45 0c bb c5 6b 17 bb
       -0.0006267537 -0.0006036122 -0.002140375 -0.0023105007
000300 1b c1 00 bb 3e 34 84 ba a9 f0 88 ba 60 9f 7c b9
       -0.001964635 -0.001008637 -0.0010447699 -0.00024091965
000310 73 6e 6c ba d9 ea d2 ba 50 ca 54 39 a0 b0 1f 39
       -0.0009019144 -0.0016091719 0.00020293263 0.0001522922
000320 d0 ba 0a ba 01 b1 05 ba b4 c0 a3 b8 e0 2b f2 ba
       -0.00052921195 -0.0005099923 -7.8083394e-05 -0.001847621
000330 67 84 3c ba d9 33 f0 b9 c3 b5 95 ba d2 9e a9 ba
       -0.00071913603 -0.00045814997 -0.0011421967 -0.0012941009
000340 6d 2c 93 ba 9c a1 e3 b9 f0 d5 ef ba 74 49 53 bb
       -0.001122845 -0.00043417222 -0.0018298011 -0.0032239826
000350 ab d3 2e bb 78 8b f9 ba 20 ae 8d 38 04 bc 8e b9
       -0.0026676457 -0.0019038757 6.755837e-05 -0.00027224433
000360 f0 23 6b 39 23 8b 2f 39 36 67 6e ba 8a 42 92 b9
       0.00022424734 0.00016741133 -0.0009094359 -0.00027896866
000370 30 0e 5d bb 91 4e 92 ba 55 ae cf 3a f4 58 d0 3a
       -0.003373038 -0.0011162331 0.0015844802 0.0015895651
000380 b1 3e c6 39 75 92 43 b7 5d 0c 94 39 1e 37 f7 39
       0.00037812212 -1.1657005e-05 0.0002823797 0.00047152577
000390 12 8a 3d ba cb 9b 89 b9 31 04 aa b7 ed de 4b 39
       -0.0007230352 -0.0002624675 -2.0267531e-05 0.00019442635
0003a0 97 a4 44 ba f1 a5 17 bb 6e b8 34 b9 77 f8 79 ba
       -0.00075013324 -0.002313968 -0.00017234843 -0.00095356203
0003b0 0e 5a 24 bb dc 37 e8 ba 5d 7e c4 ba ae 79 e0 b9
       -0.002507809 -0.0017716843 -0.0014991272 -0.00042815268
0003c0 10 5f 59 b9 a7 45 13 bb f2 c3 f4 ba bd 28 6f ba
       -0.00020730146 -0.0022471936 -0.0018674119 -0.0009123197
0003d0 3c 3d 9b b7 2d 61 0d b9 4e f7 00 bb bb af 86 ba
       -1.8505954e-05 -0.00013483009 -0.0019678655 -0.001027576
0003e0 4e 55 91 b9 f8 21 61 2d 51 69 52 b9 5f ba ab b9
       -0.00027720112 1.2797312e-11 -0.00020066394 -0.0003275452
0003f0 5e 01 23 3a 01 e5 ee b9 97 b6 de b8 6d 0b 2e ba
       0.000621816 -0.0004556552 -0.00010619795 -0.0006639276

fc1.bias f4 [100]
000000 4e 33 bf b7 5b ba e8 3c d9 06 8a 3d cc d8 74 3c
       -2.2792865e-05 0.028409174 0.06739587 0.0149442665
000010 e9 4f 78 3c 08 51 54 ba db a3 87 bb 81 f7 ce 3c
       0.015155771 -0.0008099233 -0.004139406 0.025264503
000020 93 ba db bb d2 04 c2 bb f5 c4 83 3c e0 9b e3 bb
       -0.006705591 -0.005920985 0.016085127 -0.006946072
000030 21 03 16 3c 98 ac 4d 3d b8 b4 bd 3c 0e f2 80 ae
       0.009156019 0.050213426 0.023157462 -5.8637636e-11
000040 fe 47 d0 3c 1b 4d 4c 3d 31 96 9d 3c c0 3f 0b 3d
       0.025424954 0.04987822 0.019236656 0.033996344
000050 b9 92 06 bd e7 47 a2 bc 69 94 2e bd 5e 47 b7 3b
       -0.03285477 -0.019809676 -0.042622004 0.0055932244
000060 f7 62 28 3b 78 b8 2a 3a 06 5f 85 3c a0 da 5e 80
       0.0025693753 0.00065124733 0.016280662 -8.710965e-39
000070 1f f7 6c 3d 19 95 65 8c 95 ab 30 3d c1 a5 40 ae
       0.05785286 -1.7686386e-31 0.043132383 -4.3802965e-11
000080 64 b2 35 3d 34 8e 43 b9 88 88 f2 b5 0c 6e 0b bb
       0.04435958 -0.00018649624 -1.8070141e-06 -0.002127531
000090 19 c9 91 bc fa fa 0b 3c 7c ce b2 3c 8c cc 16 bc
       -0.017796086 0.008543724 0.021826975 -0.009204041
0000a0 09 ed 6c 3c 1a 98 0d bb 45 6d 6b 80 d3 de 15 3d
       0.01446081 -0.0021605552 -9.865597e-39 0.036589455
0000b0 00 a7 a9 3c a2 0e 51 3c 03 a4 3a bb aa 6a a0 bc
       0.020709515 0.012759836 -0.0028479106 -0.019582111
0000c0 9b 9a ae 81 2f 52 fa b9 14 1e 3c bd 9d f0 b0 bc
       -6.4139353e-38 -0.00047744947 -0.045927122 -0.021599108
0000d0 69 47 a1 bc 8d 1a 08 3d cf 1b 53 bc a5 9c 20 3d
       -0.019687371 0.033228446 -0.012885048 0.039211888
0000e0 45 f5 d8 3b 78 ea 69 bc 13 b0 b7 3c de 7b 9f 00
       0.0066210353 -0.014277093 0.022422826 1.4646279e-38
0000f0 dc 6a 34 bc ba 62 4e bc eb f7 17 ba a9 88 9f 81
       -0.011011805 -0.01259678 -0.00057971355 -5.8603473e-38
000100 e7 77 11 3d 1b 55 56 3c 29 be ec 3c 29 23 c2 3b
       0.03551474 0.013081814 0.02889927 0.0059246016
000110 a6 99 5e bb d8 14 67 b9 99 00 86 3c 06 05 aa 3c
       -0.0033966093 -0.00022037642 0.016357707 0.020754348
000120 34 2a 1d 3c 03 44 72 3c 09 78 c0 3c 9c d8 b7 ba
       0.009592582 0.014786723 0.023494737 -0.0014026347
000130 24 a8 5f 3d 6f e7 20 bc b0 dd a7 bc 12 0a 3c bc
       0.05460371 -0.009820803 -0.020491451 -0.01147701
000140 00 ca 14 3d 87 1d 93 3b a7 17 d0 00 c1 2b 2f bc
       0.036325455 0.004489604 1.9110268e-38 -0.010691584
000150 b5 81 b7 ba f9 2f 07 bd 30 e6 aa 80 31 4c 5b 3d
       -0.0014000448 -0.033004735 -1.569461e-38 0.05353946
000160 7b e7 1d 35 64 78 ed 3c 54 38 c3 3c 73 9f 0a bc
       5.8823906e-07 0.02898807 0.02383057 -0.008460867
000170 e2 34 8d bc c7 b5 20 80 fe 9d 78 22 c9 c2 8d 3b
       -0.01723713 -3.003945e-39 3.3693908e-18 0.0043261987
000180 56 97 dd bb f1 46 35 bd 2f eb fc bb ca 74 8c bc
       -0.0067624254 -0.044257108 -0.0077184658 -0.017145533

fc2.weight f4 [84, 100]
000000 65 74 f8 3a 7f f9 23 bd 8c 58 0a 3e 4f 97 05 3e
       0.0018955587 -0.04003286 0.1351034 0.13046001
000010 c6 b1 39 3d d3 fa 59 3d 5f b6 31 3d 26 7f 0a be
       0.045335554 0.05321772 0.043386813 -0.13525066
000020 a0 c2 72 bd e7 d4 e5 bd b7 bc eb 3d 16 0d 16 bd
       -0.05926764 -0.112222485 0.11510604 -0.036633573
000030 41 29 f4 bc 62 a1 d2 3d 0a 20 0c 3e 9f 21 b3 31
       -0.029804828 0.102846876 0.13684097 5.213408e-09
000040 31 fe d4 3d b8 9d 92 bc 1c fa e9 bc cd 61 88 bd
       0.10400046 -0.017897472 -0.028561644 -0.06659279
000050 c3 83 43 3d be 88 48 bd e4 f6 fa 3c fb c0 ab bd
       0.04773308 -0.048958533 0.030635305 -0.083864175
000060 8d 8f 97 3d 26 c0 bd bd 90 47 84 3c 58 fd 0f 01
       0.07400427 -0.09265165 0.016147405 2.6446717e-38
000070 4d 1a aa bd 68 ed 4b 9c 0c 3e 83 bd cf 18 dd b9
       -0.08305798 -6.7473906e-22 -0.06408319 -0.0004217089
000080 bf b9 b9 bd 62 2d e9 bb 47 11 d0 3a ec 28 aa bd
       -0.090686314 -0.0071160058 0.001587429 -0.083085865
000090 0a ae 4e ba 97 7c 4f 3d ef cb a6 3c 96 01 b3 3d
       -0.000788421 0.050655928 0.020360915 0.08740537
0000a0 58 f1 b7 bd af ad 08 bb e3 ba 07 a8 c2 ef 4b 3d
       -0.089815795 -0.0020855477 -7.53453e-15 0.049789198
0000b0 1f 80 1e bd 07 cc fd 3d 7e 23 23 3c 12 93 8c 3d
       -0.038696405 0.12392431 0.0099571925 0.06863989
0000c0 3f 14 86 a4 a8 43 86 3d 71 cd 8b 3d 0b 0d f9 3d
       -5.8147535e-17 0.06555873 0.06826294 0.12160691
0000d0 1e 31 13 bd 8b 10 96 bc a2 7d e6 3d c7 2f bb 3d
       -0.035935514 -0.018318435 0.11254431 0.09139972
0000e0 6e 48 2e 3d 7b 7b 7d 3d 85 2e f2 3d 2d a3 0b 35
       0.042549543 0.06188534 0.11825279 5.201899e-07
0000f0 6c a5 83 3d e1 60 22 bb 8a 75 44 bb a7 27 2b 36
       0.06428036 -0.0024776983 -0.0029977285 2.5504066e-06
000100 7b 98 f3 bd 5f a5 c7 bc ac 69 b9 3d 47 9b f2 bd
       -0.11894318 -0.024370847 0.090533584 -0.11846023
000110 6e 80 0a bd d4 ee 84 bd 8b 3a 91 bd aa fa 96 bc
       -0.033813886 -0.06490865 -0.07091244 -0.018430073
000120 03 d2 bd bd 28 7b f1 3c 0c 8f db 3d 8e 68 d8 3c
       -0.09268572 0.02947767 0.107206434 0.026417043
000130 b0 89 9a 3d 76 d5 92 bd de 3f 3c bd f4 fa a1 bd
       0.07545793 -0.07169621 -0.045959346 -0.07909194
000140 d5 b2 52 bd b4 4f 8c bd 45 43 c8 aa 47 fd ad 3c
       -0.05144008 -0.0685114 -3.5573814e-13 0.021238936
000150 47 3d ab bc 8e 34 14 bd ab 12 0b b5 8e ab d7 3d
       -0.020903243 -0.036182933 -5.18087e-07 0.10530768
000160 f0 67 96 3a a2 57 34 3d f0 09 9f 3c 07 b3 cb 3d
       0.0011475068 0.044028886 0.019413918 0.09946256
000170 c0 72 ec 3c da d3 ad 23 7c 5e 39 37 71 75 af bd
       0.02886331 1.884642e-17 1.1048858e-05 -0.08567322
000180 78 ac 29 bc 1c 8b 39 bd dc f0 68 3d b1 d8 a1 3d
       -0.010356061 -0.04529868 0.056870326 0.07902659
000190 90 b9 5e 01 39 1d 5f a3 98 23 54 ab 57 33 9f 80
       4.0908095e-38 -1.2095042e-17 -7.5366926e-13 -1.4620261e-38
0001a0 10 3d 55 ad dd 45 f3 00 3a f3 cf 96 d4 5f 3c a0
       -1.2121207e-11 2.2341088e-38 -3.359615e-25 -1.5955926e-19
0001b0 f8 f5 a4 80 34 b3 bb 00 f5 8d a7 89 f9 8d ed 9e
       -1.5149258e-38 1.7237524e-38 -4.0337283e-33 -2.515207e-20
0001c0 d8 3a 7a a3 85 86 c2 ab 76 3a 2c b0 c8 b6 18 01
       -1.3564988e-17 -1.3821866e-12 -6.2656313e-10 2.804913e-38
0001d0 63 78 f4 a8 bf c1 1d ab 45 ca 9b 84 02 f1 aa a5
       -2.7141651e-14 -5.604648e-13 -3.662608e-36 -2.9653612e-16
0001e0 bf 93 0e b2 82 ab 95 aa 1e ce b8 a4 5f 5b 5e aa
       -8.299081e-09 -2.6586724e-13 -8.0146456e-17 -1.9749262e-13
0001f0 76 64 69 b2 9d 96 03 ab b8 e3 38 81 c9 b4 a8 00
       -1.3585227e-08 -4.6749567e-13 -3.3958843e-38 1.5493217e-38
000200 06 c7 00 ad 36 60 b9 81 e3 d8 e9 80 ac a1 18 81
       -7.32015e-12 -6.8096323e-38 -2.1475475e-38 -2.8033985e-38
000210 57 2e e3 a8 12 e9 aa 81 37 aa 0f 00 30 ff d4 00
       -2.522216e-14 -6.2782577e-38 1.438594e-39 1.9560669e-38
000220 fd 84 6e b5 93 94 c4 ad e2 77 22 a8 86 a2 86 b0
       -8.885543e-07 -2.23486e-11 -9.018802e-15 -9.795975e-10
000230 3b 1c 89 01 07 9c bd 00 80 c4 17 00 ff 74 ba aa
       5.036636e-38 1.7412881e-38 2.182707e-39 -3.312142e-13
000240 ae 66 1b 81 ad 54 c4 af 86 51 3c b1 29 c4 fc 99
       -2.8542673e-38 -3.5712358e-10 -2.7403941e-09 -2.6135418e-23
000250 e8 c9 52 00 a7 db e1 ab c0 f3 22 ad f9 2f de b3
       7.602941e-39 -1.6048177e-12 -9.262757e-12 -1.0346407e-07
000260 12 b7 b9 b4 8e 01 61 23 41 7c 3e ac 2d 8e f0 ad
       -3.4592136e-07 1.2197604e-17 -2.7069599e-12 -2.734798e-11
000270 0b 4c 1a 84 38 cc 76 ac d0 cd 86 b2 98 ee d4 80
       -1.813753e-36 -3.5072067e-12 -1.5693246e-08 -1.9554716e-38
000280 ac fc 14 af 6b 0d e7 b2 d0 fc ff 80 f3 0c ad 00
       -1.3550289e-10 -2.6898041e-08 -2.3508744e-38 1.5892186e-38
000290 8d 04 87 00 ca a6 7b 80 2e 0a 0d 01 fb 9b 41 80
       1.2399424e-38 -1.1355599e-38 2.5904913e-38 -6.025262e-39
0002a0 e0 01 54 00 97 75 f0 ab 0b 04 c0 a4 2b fa 88 ab
       7.714854e-39 -1.7085663e-12 -8.3273576e-17 -9.732817e-13
0002b0 f3 35 8b b4 e9 dd 8e 97 ff ae 36 00 53 f1 43 a8
       -2.593002e-07 -9.232553e-25 5.021894e-39 -1.0877003e-14
0002c0 8a 5b cf af 6f 5c 02 a4 09 9d 9e 0e 7e 81 46 a7
       -3.7718123e-10 -2.826755e-17 3.9101227e-30 -2.7548218e-15
0002d0 03 ac 96 b3 fa 21 95 80 68 63 64 81 de b1 b7 b0
       -7.016208e-08 -1.3695677e-38 -4.1948307e-38 -1.3365555e-09
0002e0 1f 9c 5c b3 02 52 ae a7 34 dc a4 01 eb 0b da 28
       -5.1364733e-08 -4.8383615e-15 6.056006e-38 2.420803e-14
0002f0 d4 78 4f 81 1b ef 0d a8 f2 79 5a a6 78 f6 e0 af
       -3.8106585e-38 -7.87892e-15 -7.579921e-16 -4.092049e-10
000300 45 6d 29 a2 28 04 4a 01 ec 3e ee 80 6f 19 eb 80
       -2.2961618e-18 3.7104522e-38 -2.187942e-38 -2.1590465e-38
000310 48 87 9b b3 c3 bd 07 af 57 00 90 a5 9b 93 44 ac
       -7.2423575e-08 -1.2345595e-10 -2.4980248e-16 -2.7935213e-12
000320 95 db 9c 3b 12 52 99 3c 56 1e d1 ba 8c f0 f2 3d
       0.0047869184 0.018715892 -0.0015954475 0.11862287
000330 64 99 c2 3d 36 19 4d 3e 53 22 2a 3c 72 2d e0 3c
       0.09501913 0.20029148 0.01038416 0.02736542
000340 08 74 bd bd a8 ea 22 3d d4 ae 76 3d df fb 6d 3d
       -0.09250647 0.039774567 0.060225323 0.05810153
000350 31 85 32 3c 15 28 d6 3d 48 ce 00 3d 79 26 e4 39
       0.010896013 0.10456864 0.031446725 0.00043516213
000360 66 42 24 be 4d f1 f8 3d c4 68 13 3d 25 ab 22 3e
       -0.16040954 0.121553995 0.035988584 0.15885599
000370 dc 22 a9 bd f1 98 cb 3c 07 f4 d8 3d ab f7 b5 bd
       -0.08258602 0.024853202 0.105934195 -0.088851295
000380 a3 75 9e bd ac 61 bd bd 3f 87 bd bd ee aa 78 0d
       -0.07737281 -0.09247145 -0.09254312 7.662665e-31
000390 4a 18 9b 3c 61 7c 39 29 97 16 23 bd 11 57 74 3a
       0.01893248 4.1186133e-14 -0.039816465 0.0009320835
0003a0 af 74 38 3d 8d 7f f7 ba 5f 7d 53 3a 02 f5 1a bc
       0.045033153 -0.0018882618 0.0008067693 -0.0094578285
0003b0 a5 e4 88 bd 69 1c 88 bd 37 ad 64 bd 20 f6 8c 3d
       -0.066842355 -0.06646044 -0.055829253 0.06882882
0003c0 c7 db a3 bc 70 00 c2 3a a4 98 8f b0 27 cc f8 3d
       -0.020002259 0.0014801156 -1.0448002e-09 0.12148314
0003d0 99 10 d0 bb 92 18 89 3d cb 9d 99 bd 1e f7 c6 3d
       -0.006349635 0.066941395 -0.075008 0.097151026
0003e0 33 8e 0e 2a 6e 7c af bd d0 5f 54 bd 5f 86 d9 bd
       1.2661469e-13 -0.08568655 -0.051849186 -0.106213324
0003f0 7f f0 07 be d4 f9 75 3d d4 2c a2 bc 9a 04 3c bd
       -0.13275336 0.060052708 -0.019796766 -0.045902826

fc2.bias f4 [84]
000000 bb 7c 5f 3d 84 41 3e 81 f6 f4 64 bc eb cf da 3b
       0.05456231 -3.4944494e-38 -0.013974419 0.006677618
000010 3f 2b 06 b8 2e c9 2c ba dd ef db 3c fd 26 6d 3d
       -3.1988366e-05 -0.00065912574 0.026847774 0.05789851
000020 fe 70 69 bc 70 22 71 b9 0f a5 05 bd 24 fa 63 3c
       -0.014248131 -0.0002299638 -0.032628115 0.013914619
000030 ae 40 9a 3c 47 c9 3c 3d f9 53 33 3d de 27 ad 3d
       0.01882967 0.04609039 0.043781254 0.0845487
000040 69 6a 09 3d b0 3f 1a 3d 4d c0 dd 3c cc 75 8b bc
       0.033548746 0.037658393 0.027069235 -0.017023943
000050 dc 5f 54 3c 6a 13 90 bb 9c b3 4b bb 5c c5 41 bd
       0.012962308 -0.0043968456 -0.0031082397 -0.047307357
000060 e2 1d 68 bd 18 79 23 bb 4a 5c 77 bb d8 32 7b 3c
       -0.056669123 -0.0024944004 -0.0037744218 0.015331946
000070 d6 18 44 3d 62 52 c3 3c f5 3c 01 3c 6e 36 01 3c
       0.047875248 0.023842994 0.007888068 0.007886512
000080 14 98 78 3d 11 f5 21 b8 18 3f e0 ba da 34 49 3c
       0.060691908 -3.8613627e-05 -0.0017108647 0.012280667
000090 e8 89 87 3d 0a e3 6f 81 7a 72 46 3d 31 2f 81 00
       0.066181004 -4.406026e-38 0.048449017 1.1863708e-38
0000a0 b7 a4 69 00 f4 61 40 bc 44 49 9d 3c 19 96 a6 bd
       9.701816e-39 -0.011742104 0.019199975 -0.081340976
0000b0 67 00 18 3d 55 d9 36 00 5b bb 79 3a d1 c0 38 3d
       0.03710976 5.037081e-39 0.00095265143 0.04510576
0000c0 64 2f 8c bd 0e 9c 16 3d 80 f3 48 3d 53 42 10 3b
       -0.068449765 0.03676992 0.049060345 0.0022012189
0000d0 67 83 1d bc f8 30 6d 3d a0 6f 88 3c 07 fb 86 3c
       -0.009613848 0.05790803 0.01665479 0.016477121
0000e0 94 e9 29 bd 50 c8 44 3d 38 08 04 3c 9c 48 f3 80
       -0.041482523 0.048042595 0.0080586 -2.2342073e-38
0000f0 00 8e 96 3b b4 70 8c bc 31 c9 60 3d 17 9e 01 3b
       0.0045945644 -0.017143585 0.05487937 0.0019778067
000100 56 3a 8e 3c 6e 42 e2 ba 2f 71 0c 3d 41 8e 42 3d
       0.017361801 -0.0017262229 0.034287628 0.047498945
000110 73 ef 00 bc 4c c1 97 01 c6 d0 8b 3d 28 7f cd bc
       -0.007869589 5.5746007e-38 0.0682693 -0.025085047
000120 09 82 18 3d 47 f3 1b 3d ca 9a 32 3d 8f b0 50 3d
       0.037233386 0.038073804 0.04360465 0.05094963
000130 94 cc cf a0 9f 48 8b 01 04 e4 a4 b2 1c 24 1f bc
       -3.5202542e-19 5.116474e-38 -1.9195802e-08 -0.009713199
000140 60 04 07 bd c6 5f af 3a ef b8 e0 3b 47 ab 6f bd
       -0.032963157 0.0013379983 0.0068579833 -0.058512952

fc3.weight f4 [10, 84]
000000 ec c9 a1 3d 9b 06 08 35 99 27 91 bc 2d 0f b7 3d
       0.07899842 5.067356e-07 -0.017719077 0.089384414
000010 df a1 c2 b6 60 43 7e 3a a5 2d 29 3d 19 67 57 3d
       -5.800495e-06 0.0009699371 0.041303296 0.052588556
000020 81 82 08 3e a4 5c c8 39 54 0a 54 3d 0a 07 01 be
       0.13331033 0.00038215995 0.051767662 -0.12600341
000030 bc 7d aa 3c 0c f0 5e bd 82 9b 1e bd 5a c0 43 39
       0.020811908 -0.054428145 -0.038722523 0.00018668306
000040 da 1c a7 3d 6a 03 d6 bd ae a1 41 3d f1 fc 82 bc
       0.081598 -0.1044987 0.04727333 -0.015989752
000050 ab be f6 bd 2b 9f 2f bd b5 56 f5 3b 22 67 f7 3d
       -0.12048086 -0.042876404 0.007487143 0.12080218
000060 2a ad 16 3d 45 eb d5 3c 34 d0 3a 3e 07 f3 56 3c
       0.036786236 0.026113162 0.18243486 0.013119466
000070 bf 5b 2e be 20 0a de 3d 9e 7f c1 3d 81 9d 90 3c
       -0.17027186 0.10841775 0.09448169 0.017653229
000080 3d be 0d be 80 60 0a 3b d3 43 a3 bd a8 f8 24 be
       -0.13842101 0.0021114647 -0.07971921 -0.1611048
000090 16 f4 a3 3d e0 56 ab 81 e9 78 3d bd 82 24 67 81
       0.0800554 -6.294014e-38 -0.046257887 -4.2454192e-38
0000a0 64 3c 40 b3 fa 97 01 3e 67 5f e4 3d 7e d2 02 bc
       -4.475841e-08 0.1265563 0.11151009 -0.007984756
0000b0 93 88 7c 3d 8c a1 41 00 9f e6 11 3e e0 ef 40 be
       0.061653685 6.02726e-39 0.14248131 -0.18841505
0000c0 00 b5 3c 3d 10 fa 91 bd 56 0f 04 be ac be ed bc
       0.046071053 -0.07127774 -0.12896475 -0.029021583
0000d0 46 9d ce 3d bb 1a 65 3d e0 a1 28 3d 3d 25 75 bc
       0.10088591 0.055933695 0.04117 -0.014962492
0000e0 1e ad 93 bc 91 7a e6 3d 1b bb cc b9 83 34 69 94
       -0.018026885 0.112538464 -0.00039049317 -1.177385e-26
0000f0 ec 1a 09 be f6 18 67 be 88 f6 ac bc f3 af 55 3d
       -0.13389176 -0.22568116 -0.021113649 0.05216975
000100 de 1b 16 bd 81 c3 9e bb 79 a7 1b 3d 6e 05 90 bd
       -0.03664767 -0.004845083 0.03800151 -0.07032286
000110 67 6a aa bd bf 98 78 00 a6 88 92 bb 60 0b af 3d
       -0.08321076 1.1075055e-38 -0.004471856 0.085470915
000120 9e 77 00 3e f5 4e cb bd 11 7b 1a 3d 73 ef f8 3d
       0.1254563 -0.09927169 0.03771502 0.12155046
000130 de 2b f2 a2 d6 7c 97 b8 ec 99 8b 3b 1b 05 06 bd
       -6.5640678e-18 -7.2234936e-05 0.0042602923 -0.032719713
000140 06 b1 c4 3c d7 f0 ae bd 2f 68 6c 3d 7c 16 e8 3b
       0.024010193 -0.0854203 0.057716545 0.0070827585
000150 b5 0f 23 3e 9f bc 10 b7 67 d8 8e 3c 6f e9 f2 bd
       0.1592396 -8.626986e-06 0.017437173 -0.1186093
000160 c2 3e 20 ba bb 63 85 bb 28 d3 44 be 1e 70 17 3d
       -0.0006112867 -0.0040707267 -0.19221175 0.036972158
000170 10 bd d3 bc 03 8c 82 3b 69 13 40 bc b1 b6 78 3d
       -0.025846988 0.003983976 -0.011723378 0.060721103
000180 d2 50 ea bc 61 a8 05 bd 98 3d 51 be be 75 03 bd
       -0.028602991 -0.03263128 -0.20433652 -0.03209471
000190 a8 d2 55 bd 08 f8 04 be 89 0b 8a be 29 f4 1a 3e
       -0.05220285 -0.12985241 -0.26961926 0.15132202
0001a0 d0 4d 8d 3d 39 09 f1 3d c4 1e b1 3d 53 3e ac bd
       0.06899607 0.11769337 0.08648446 -0.08410325
0001b0 c3 a6 1e be 58 7e d4 bd c4 71 1b 3d f1 b8 3e be
       -0.15493302 -0.10375661 0.037950292 -0.18625237
0001c0 41 85 ec 3c 3e a8 4e bd fa 77 81 be c0 e9 b1 3c
       0.028872134 -0.050453417 -0.25286847 0.021717906
0001d0 01 55 42 be 51 c6 45 39 7b 9a cb bd c0 04 19 3e
       -0.18977739 0.00018861263 -0.09941574 0.14943218
0001e0 35 1a e9 bd 4e 99 a8 b6 e5 20 6d 3c a4 d8 c8 80
       -0.11381952 -5.024637e-06 0.014473175 -1.8444815e-38
0001f0 c0 8c 61 9b 19 4f af 3d 07 94 25 bb 50 bb cb 3d
       -1.8657043e-22 0.085600086 -0.0025265233 0.099478364
000200 b7 9d 6a 3c c5 13 0d 3a bd 51 6c bb f5 dc 22 be
       0.014319829 0.0005381669 -0.0036059462 -0.15904601
000210 b4 ec f1 3d 96 2e 03 be c9 b3 74 3d 11 b5 ba 3d
       0.11812726 -0.1281074 0.05974177 0.09116567
000220 a4 cb b7 3d 39 a7 11 3e d0 80 91 3b 51 97 9d 3d
       0.08974388 0.14223947 0.0044404045 0.07694877
000230 c7 cd aa 3b 06 13 4f be 08 e6 11 3d 32 53 ec 23
       0.005212519 -0.202221 0.035619766 2.5622406e-17
000240 6b 12 bb 3d b8 b1 f5 3c 87 40 c3 3d 8a 74 81 3d
       0.09134372 0.02999197 0.09533792 0.06321056
000250 a9 26 dc 3d 7e f1 d5 3a 7d 23 f3 bd 5b da 34 be
       0.10749561 0.0016322581 -0.11872003 -0.17661421
000260 37 f0 5f bd 59 9b 0f 31 38 cd 46 be b0 a6 02 3e
       -0.054672446 2.0897544e-09 -0.19414222 0.12758899
000270 51 26 bb bd 1c 1b 25 be ad d2 5d bd 36 df 37 be
       -0.09138168 -0.16123623 -0.054155994 -0.17956242
000280 21 b3 7c a2 85 e7 33 37 ab 40 93 bb 6e ec b5 bd
       -3.4247198e-18 1.0723136e-05 -0.004493793 -0.08882986
000290 61 b4 8e 3d 4a 90 37 bb 91 b6 1d 3e 2b ab 78 3a
       0.06967998 -0.0028009587 0.15401675 0.0009485955
0002a0 81 cf e9 3b c9 73 5f b6 97 5e 15 3e 85 94 e5 3c
       0.007135332 -3.3296985e-06 0.14586864 0.028024921
0002b0 16 ee 65 bb 5a aa a6 bb 03 bb 3c bd 43 ed 96 3d
       -0.0035084537 -0.0050862255 -0.046076786 0.07369473
0002c0 8d 21 cf bb bf 8b 67 bb 28 b0 06 3d 64 cb c0 3d
       -0.0063211382 -0.0035331098 0.03288284 0.09413794
0002d0 92 59 1f 3e 49 2b 07 be 00 88 43 be 20 a9 90 bd
       0.15561512 -0.13200106 -0.19094849 -0.07063508
0002e0 94 18 dd 3b 8f 91 15 3e 74 aa 45 be 36 f9 bb bc
       0.0067473147 0.14606307 -0.19303304 -0.022945981
0002f0 ed 12 e2 bd b4 3e 00 be 0c 71 fa bd aa 92 ab bc
       -0.11038766 -0.1252392 -0.12228593 -0.020943958
000300 6b 21 92 bd 2f c1 4f 3c 6d da a3 bd 32 29 13 bd
       -0.0713528 0.012680336 -0.08000646 -0.03592796
000310 30 ec cc 3d 4f b2 d1 3d f7 b7 c8 3d 31 54 ef 3b
       0.10005987 0.10239088 0.098007135 0.0073037376
000320 eb 0b e1 3d b7 35 0d 3b 8a 8f 00 3e 8a 6d b7 bd
       0.10988601 0.002154691 0.12554756 -0.0895644
000330 f7 24 83 3d 59 59 9d b3 17 27 84 3b 85 68 7f 80
       0.06403535 -7.3271345e-08 0.00403298 -1.1700603e-38
000340 7b d5 de 37 e2 14 bd bd d1 07 a8 3b 05 86 23 be
       2.6563872e-05 -0.09232499 0.005127885 -0.15969093
000350 c5 0c 74 3d 86 83 a4 b6 a2 9c a1 3d 14 ae af bd
       0.05958249 -4.902892e-06 0.078912035 -0.08578125
000360 df 4f b4 bd 5a f0 5e 3c 54 63 23 bd 5f 43 93 bd
       -0.08804297 0.013607109 -0.03988965 -0.071905844
000370 c1 19 10 3d 1e bc c3 3d 87 69 63 bb 30 7b 0e bd
       0.03518081 0.09557365 -0.003470035 -0.03478545
000380 d2 d7 10 bd e4 62 00 bd f3 0c f5 3c 7f 90 a9 b9
       -0.035362072 -0.03134431 0.029913401 -0.0003234185
000390 9f 75 2e bc 0f 79 d7 3d b3 24 b4 3d e2 c3 cb 3d
       -0.01064816 0.10521137 0.08796062 0.09949471
0003a0 b3 0b d2 bd 3e 6d 99 bb fe e5 1c be fd 3d 8d 3d
       -0.10256138 -0.004682212 -0.1532211 0.06896589
0003b0 e9 82 1d be 7b 67 89 b5 02 17 06 be d5 b2 81 bb
       -0.1538197 -1.0237412e-06 -0.13094714 -0.003958086
0003c0 91 b5 cb 3d 6c 4d 83 bd c6 19 ff 3d 1b 77 98 3d
       0.099467404 -0.064112514 0.12456088 0.074445926
0003d0 7f cc 9d a1 a2 6c cd b9 27 3c 4f bb 08 e0 31 3d
       -1.0692863e-18 -0.00039181585 -0.0031621547 0.043426543
0003e0 1e 00 50 3d bb b5 31 be 91 13 e0 3d 50 b4 24 be
       0.05078136 -0.17354481 0.10941232 -0.16084409
0003f0 45 98 b0 3d 75 52 92 b5 28 04 9e 3d a9 94 06 3e
       0.08622793 -1.0901846e-06 0.077156365 0.13142647

fc3.bias f4 [10]
000000 4c 58 a6 3c a3 a5 95 bd 34 93 fa 3c 71 ec cd bd
       0.020305775 -0.07306983 0.03058777 -0.10054863
000010 d9 75 15 bd e0 4d a6 3d 4a e7 ec bc 23 2b 98 bc
       -0.03648934 0.08120322 -0.028918881 -0.018575257
000020 fd 72 e6 bc 16 ac ab 3d
       -0.028131003 0.08382432
