Models/lenet_mnist_lr_0.001_wd_1e-05_16_120.pth (torch, 250894 bytes, 10 tensors)

conv1.weight f4 [6, 1, 5, 5]
00000000: 037b 2e3e 8cdd 2fbd 73b6 08bf 361e 41be
00000010: fc41 eebb 7450 e83e 042d 823e 22db 2fbf
00000020: bdc3 e8be 051e c7bd cd87 3f3e 96e1 be3e
00000030: 20ae a23e c106 a43d dbc8 fa3d cd5a 91be
00000040: 4a8e b93e c2d8 db3e c350 023e 21b3 b5bd
00000050: 5e94 a9be fd56 1bbe 61fc 66be 3c46 7fbc
00000060: 84b0 77bd 4855 1dbd d871 6fbe 49a9 0ebf
00000070: 8d3b fb3b 91b8 763d c935 3c3e c980 233e
00000080: e35a dbbe 1a0f db3c 9751 8abd 75ad 983d
00000090: ded0 f33d adcf 57be d22d 8e3d 1cd4 c13c
000000a0: 79a3 4abd 144c 5f3e 5ee1 9abc 1c2f 5d3e
000000b0: bdd4 6bbe 6f81 063e d471 003f 7443 e13c
000000c0: 4956 f4bc b5b3 94be dbfa 47be d269 8e3d
000000d0: 3223 243e 3987 873e e93e 3f3e aaa6 cf3e
000000e0: 498a e33e 562f 3f3e 0e82 993e 27e6 f83e
000000f0: 8f80 053d b78d 623e 4acb 6d3e f9f3 42bd
00000100: ff66 1bbe 0cab acbe 7644 ccbe 0308 03be
00000110: 1368 64be 6c49 b8be 8dfd f9be 6f23 efbd
00000120: 9718 c5be dceb 6ebd ebbf 70be 456e d43c
00000130: 83a9 953c 77a0 eb3d d33c 1e3e a869 25bd
00000140: 775c 10be 8bdf 98be c861 d03d 6ef7 673d
00000150: 9fd2 7c3e 7f29 e1be a781 3abe 1f79 043e
00000160: 9f54 fb3e 0812 163e d2d8 44be 45bc c13d
00000170: e26e 923e 4b41 e13e 80df e0bd 4d47 d53d
00000180: be04 4a3e f728 8c3e 9725 2c3e 30de 7bbe
00000190: f5bb 5cbe ba6a 1f3e 00ff 063f 902d cb3e
000001a0: eff4 893e cee2 07bf 2d24 19bf c594 1abf
000001b0: 27d1 b7be 4b5e 6abe ca4a d0be 282e 0fbf
000001c0: a0e6 35bf 95bc 1cbf 5d19 e8be 2572 903e
000001d0: 5105 353d 7aeb 193c 53f9 613e 10eb 443c
000001e0: 9e8e 133f 351c 003f b63d 173f 6f58 953e
000001f0: 4b11 843e 5628 103e 70b3 63be eed0 fdbe
00000200: 544b 18bf c4d0 5bbe 2dac 26be 12b5 16bf
00000210: 4320 07bf dfed 27be b23e aa3e c2b8 e0be
00000220: 86e3 febe 2479 42be 4278 163e af33 033f
00000230: 2ec6 e2be 92b6 a9be 2953 563e b284 a13e
00000240: 44e0 a13e 2310 00bf 066e 12be 48e9 43bd
00000250: 23ec 753e 5ff4 9d3e
0.17039113 -0.042935893 -0.53403395 -0.18859181 -0.0072710495 0.4537388 0.2542497 -0.68693745
-0.45461836 -0.09722523 0.18704148 0.37281483 0.31773472 0.08009101 0.122453414 -0.28389588
0.3624137 0.4293881 0.1272612 -0.08872057 -0.33121008 -0.15169902 -0.22557212 -0.01558071
-0.060471073 -0.03841141 -0.23383272 -0.5572706 0.007667011 0.06023461 0.18379892 0.15967096
-0.4284278 0.0267406 -0.06753843 0.07454959 0.11905073 -0.21075316 0.06942333 0.023660712
-0.049472306 0.21806365 -0.018906292 0.21600002 -0.23030372 0.13135312 0.5017369 0.027497984
-0.0298263 -0.29043356 -0.19529288 0.069537774 0.16029051 0.26470354 0.18676342 0.40556842
0.4444144 0.18670401 0.29982036 0.48613092 0.032593306 0.22124372 0.2322208 -0.04759595
-0.15176009 -0.33724248 -0.39895982 -0.12796025 -0.22305326 -0.35993516 -0.48826256 -0.1167668
-0.38495323 -0.0583304 -0.23510711 0.025931487 0.018269306 0.115052156 0.1545289 -0.040383965
-0.14097773 -0.2985805 0.101749 0.05663245 0.2468972 -0.43976972 -0.18213521 0.12936829
0.49087998 0.14655316 -0.19223335 0.09459738 0.28600222 0.43995127 -0.10980129 0.1041399
0.19728372 0.27375004 0.16811214 -0.24596477 -0.21556075 0.15568057 0.5273285 0.396832
0.26944682 -0.5308045 -0.59820825 -0.60383254 -0.35901758 -0.22887532 -0.4068206 -0.55929804
-0.7105503 -0.61225253 -0.4533185 0.28212085 0.044194523 0.009394521 0.22067766 0.012018934
0.5763949 0.5004304 0.5907854 0.29169032 0.25794443 0.14077887 -0.22236419 -0.49573463
-0.5948994 -0.21466357 -0.16276617 -0.5887004 -0.527836 -0.16399334 0.33250958 -0.4389096
-0.49782962 -0.18991524 0.14694312 0.5125074 -0.44291824 -0.33147103 0.2093016 0.3154655
0.31616414 -0.5002462 -0.14299783 -0.047829896 0.2401586 0.30850503

conv1.bias f4 [6]
00000000: c1e5 81be 7cd8 ffbe 585f 4bbd 5e55 e3be
00000010: d006 613d 6a4c 6abe
-0.253706 -0.49969852 -0.049651474 -0.44401067 0.054938138 -0.22880712

conv2.weight f4 [16, 6, 5, 5]
00000000: 823c 203e 4a63 a0bd cd4e a8bc bd02 1b3e
00000010: 3bf5 06be 1b83 27be fd9b 4cbe 2e2f 88bd
00000020: c4cb 69bd b6b3 3bbe df66 40be 2498 adbe
00000030: 9b3a 80bd 8540 a8bd 8c4e fa3d 0530 3abe
00000040: e4a4 27be ca6a 41b9 a3c1 9c3d 1245 9e3d
00000050: 95dc b73d 2c36 903d 2b2c dbbe f49c 56bc
00000060: b6c0 9d3e b630 c8bc c15b b3bd f9d8 23be
00000070: 51c1 60be 0c7b 07bf 6b92 b2bd 5a58 173e
00000080: 701f 49be 4771 40be cd6f 2e3e 0c34 0b3e
00000090: 21a4 02be 60ab b2be 3c7b cf3d 595e 0a3e
000000a0: 2bd3 853c 62b7 a53b 47be bc3b 8c47 d63b
000000b0: 556f 1fbe 24e3 183e 2c53 323e ff58 dc3d
000000c0: ea53 78be a6f8 353d 524b db3e c229 8a3e
000000d0: 8d6b 843e 607d 3e3e 9180 7e3e 8e97 423e
000000e0: 7da7 153e 568b 3d3d e405 9ebc b70f 77bd
000000f0: e437 06bf 72ba dbbe fe3a 4bbe 4e3f a4bd
00000100: d719 823e cfbc 99be 0091 abbe adda 87be
00000110: 6fa8 a33e 5f45 a73e 7292 b7be 766e 1fbf
00000120: 67e9 41be 70d8 8bbd b229 ac3c a431 6fbd
00000130: ccd6 893d 8459 bcbd b203 ddbd 879d 22be
00000140: f0da fdbe 8be8 f7bd cf56 1bbf 5d70 77be
00000150: 9591 b4b9 d529 88be 1ad0 23bf c2ea 9fbe
00000160: 3c8d 293e 1cc0 ff3d 6513 5bbe 3faa d0be
00000170: 0052 1c3e 6815 8f3c 3ad0 e7be 89ad a83d
00000180: 4e21 b13a d683 733c 3ff9 9bbe e058 c1be
00000190: e7e7 26bf ff61 c0be 51f6 1fbf a620 00bf
000001a0: 5fc7 84be 1327 ea3e 77df c93d 6d81 c83c
000001b0: 7517 b83e 8cab d93e c893 7b3e 30fa 09be
000001c0: c8cb b23d ff29 8a3e 9f7c 2b3e 8fed 1dbd
000001d0: 9866 c3bd 67bf e3bd 113e afbd 8db5 be3d
000001e0: 173d f03c 01d4 7f3d 4a36 9bbe 2a96 debe
000001f0: b02f 40bd 2c0a ccbc 4653 713c f89a 47bd
00000200: 78cc 32be 1734 abbe 41b9 33be 9079 8cbe
00000210: ebb7 9fbe 799c 9e3d 5e56 423e 7490 20be
00000220: e2d5 3ebe c947 653e 16bf d73e fd1a 983e
00000230: b6b7 82bd 66a3 88bb 4c69 6f3e 95d7 f83c
00000240: 4848 86be c8c2 3cbd 688b 6d3e 6220 82ba
00000250: 487a dabe f36a d7bd fab9 a6bb b9ea b93d
00000260: c160 b73d 6044 cdbc c47e 6d3e cd48 92be
00000270: 728e 8c3d 6803 9c3d 9193 09bf 6f12 00be
00000280: 7dea af3e 5764 a83e 4414 82be 67fe 44bf
00000290: db2c 8abe 563b 8a3e 2fcc f2bd d11b 21bf
000002a0: efae 4ebe 9548 03bd 916f bcbd c628 bebe
000002b0: 04c9 2fbe 0d11 48be a1e8 3ebe 4743 7a3e
000002c0: 4511 9abd a4f9 bdbe f053 4ebe 0c17 753e
000002d0: 33dc 143e 7804 8cbe 2f6c 2cbf 4807 42bf
000002e0: 9843 4bbe 30a3 9bbe 5cba 00bf 4588 08bf
000002f0: f812 70be a55f 3cbd 4154 0fbf 768f 8bbe
00000300: 5229 883c ee37 003e 5985 ca3c 8648 7b3e
00000310: a021 1f3e f1fd 303e bff7 143e 74f4 b8bd
00000320: 8355 52bd 2be2 d83c cdc6 bb3c 4639 3abe
00000330: b3c9 acbe 32c8 bd3d a776 c73d cfcf 29be
00000340: 9448 6bbe 616d 2abe f6e9 9e3e 7d89 b0ba
00000350: 75f2 b1be 992a a3be 6913 f43d 1ccb 943e
00000360: 411a a0be ba67 0cbf e103 953d 6617 873e
00000370: 8c27 b1be a861 1ebf d1d6 73be 59dd 9cbd
00000380: d041 13be c067 b83e 0cf7 b9bd 88cd abbe
00000390: 3d3f 1e3e 2c4d 7f3d 0cda b33e 73b9 a3be
000003a0: 5e08 85be b0e0 093e ddf0 843d 9dae 04be
000003b0: a1f4 45bf 168c a3bd 5c79 c63d 946e 5b3e
000003c0: e60a 56bf 31d6 8cbe 8e54 643d b7cb 6f3e
000003d0: d961 c23d 5505 a03d efd9 7f3e 4ae5 2d3e
000003e0: 5807 5ebc 80b8 4fbe 3e5a 07be 7735 36be
000003f0: e576 89be 6748 b1be 3522 b8be 85db c1be
0.15648082 -0.07831438 -0.020545388 0.15137763 -0.13179485 -0.16358607 -0.1998138 -0.06649624
-0.05707909 -0.18330273 -0.18789242 -0.33905137 -0.06261178 -0.08215431 0.12222013 -0.1818238
-0.16371495 -0.00018445696 0.07654121 0.07728018 0.089776196 0.070415825 -0.42807135 -0.013098944
0.3081109 -0.02443729 -0.08757735 -0.16000737 -0.21948744 -0.5292213 -0.08719333 0.14779797
-0.19640899 -0.18793212 0.17034836 0.13594073 -0.12757923 -0.34896374 0.10130927 0.13512553
0.016336044 0.0050572613 0.0057599875 0.006539291 -0.15569814 0.14930397 0.1741454 0.10759162
-0.2425076 0.044426583 0.42830902 0.26984984 0.25863305 0.18602514 0.24853732 0.19003126
0.14614673 0.04627546 -0.019289918 -0.06031772 -0.5242903 -0.42915684 -0.19846722 -0.08019887
0.2541034 -0.30026862 -0.33509064 -0.26534024 0.31964442 0.32670113 -0.35853916 -0.62277925
-0.18936692 -0.068283916 0.021015976 -0.05839695 0.067304224 -0.09196761 -0.107917204 -0.15880404
-0.495811 -0.12104901 -0.60679334 -0.24163957 -0.00034440742 -0.26594415 -0.6398941 -0.31233793
0.16557783 0.12487814 -0.21394117 -0.40754887 0.15265656 0.017466262 -0.45276052 0.08236224
0.0013513954 0.014862975 -0.30463597 -0.3776312 -0.65197605 -0.37574765 -0.62485224 -0.5004982
-0.25933358 0.45732936 0.09857076 0.024475778 0.35955396 0.42513692 0.24568093 -0.13474345
0.087302744 0.26985165 0.16746758 -0.03855663 -0.095410526 -0.111204915 -0.0855676 0.09311972
0.029326005 0.062458042 -0.30314857 -0.4347394 -0.04692048 -0.024907194 0.014729327 -0.048731774
-0.17460811 -0.3343818 -0.17551138 -0.27436495 -0.31195006 0.077446885 0.18978259 -0.15680104
-0.18636277 0.22390665 0.42137975 0.2970809 -0.06382696 -0.0041698692 0.23380011 0.030376235
-0.2622702 -0.046084195 0.2319771 -0.0009927864 -0.42671418 -0.10518446 -0.005088088 0.09077973
0.08954001 -0.025057018 0.23192888 -0.28571168 0.06863107 0.07617837 -0.53740793 -0.12507032
0.34358588 0.32889053 -0.25406086 -0.7695069 -0.26987347 0.26998395 -0.11855351 -0.6293307
-0.2018392 -0.03205164 -0.09200967 -0.37140483 -0.17166525 -0.19537754 -0.18643428 0.24439727
-0.07522825 -0.37104523 -0.20149207 0.23934573 0.14537124 -0.2734716 -0.67352575 -0.7579236
-0.19850004 -0.3039794 -0.5028436 -0.5333293 -0.23444736 -0.04598965 -0.55987936 -0.2725789
0.016621266 0.12521335 0.024721788 0.24539384 0.1554017 0.17284371 0.14547633 -0.09031001
-0.05135108 0.026475033 0.022921944 -0.1818591 -0.33747634 0.092667 0.09739428 -0.16583179
-0.22976905 -0.16643287 0.31037873 -0.0013468709 -0.34755293 -0.31868437 0.11917765 0.2906121
-0.3127003 -0.54845774 0.072761305 0.2638504 -0.34600484 -0.6186776 -0.23812415 -0.07659406
-0.14380574 0.36016655 -0.090803236 -0.33555245 0.15453811 0.062329456 0.35127294 -0.31977424
-0.25982946 0.13464618 0.064912535 -0.12957235 -0.773264 -0.07985704 0.09691116 0.21428901
-0.8361038 -0.27507165 0.0557447 0.23417555 0.09491319 0.07813517 0.24985479 0.16981998
-0.013551556 -0.20285225 -0.13218018 -0.17793833 -0.26848522 -0.3462555 -0.35963598 -0.37862793

conv2.bias f4 [16]
00000000: 0a34 0dbe e16b e4bd d145 f3bd 0170 983d
00000010: 5da7 963d 5c34 edbb e92d 27be 2222 04be
00000020: 5372 d7bd 52c6 b8bd 6a9e 1bbe b713 15be
00000030: 24a4 26bd 708d f3bb 3308 08be e779 a6bd
-0.13789383 -0.11153389 -0.11878551 0.07443238 0.07356141 -0.0072389077 -0.16326107 -0.12903646
-0.105198525 -0.090222016 -0.15197149 -0.14558302 -0.04068388 -0.007432632 -0.13284378 -0.0812872

fc1.weight f4 [120, 400]
00000000: 8e4d 18bd 7bcb e2be e2b7 113e 2bb9 4f3e
00000010: f097 bcb7 415a 72bd b692 23be fed6 d43e
00000020: 1d9a a8bb cce3 133e 32d7 ecbd 7379 d7bd
00000030: 4d90 3e3d 9401 d53d b13a fbbd fc7b a2be
00000040: 0f96 3abe 218d e0bd 26b6 bcbd 2540 4ebe
00000050: 3a87 51be 737c 40be afff dabd fb20 3dbc
00000060: 30a5 063e 2773 31bd dd5f cebc 5471 263e
00000070: 8643 2b3f 4346 0d3f cc1e 98bd b7cd b13d
00000080: d6d0 893e 5094 683e af2d f23d 7140 a73c
00000090: 1be6 a2bd 2c2c ab3d 4441 453c a759 e1be
000000a0: 21ba 9d3d f870 923d b9a8 323c d3b4 15be
000000b0: 2949 3f3e a572 7fbb 5cda a63d 81b1 6bbd
000000c0: 742e 343e 6689 793d 1264 5f01 2c9e 942a
000000d0: 7d04 e13d 1b93 3b3e 4a8c 063d 52bb 23bb
000000e0: e3fd 1ebd 0916 1a3e 5fcb 0e3e b5d7 b93b
000000f0: f50f 1a32 cf17 19bd d72b 8f3c ae9c 8bbd
00000100: 0d9d ccbc 6ce0 463a 5e33 dabd 73da f93c
00000110: 0e41 17be a4ea 56bd d693 2c80 c2c3 7a3c
00000120: 146c 213e 4ba6 bf3d 9ab6 1fbd 43a6 52bd
00000130: 9396 8b3d 93d6 ac3d 190b ccbc 2257 2c3d
00000140: 3e63 09bd 2d3b 6dbe bbef 38be c715 96be
00000150: 7411 97bd ea3e d33c 8cd5 78be 8e1e b23d
00000160: f75a 57be b79e 04be 74f3 033e 6069 223e
00000170: c168 933d 1e33 fbbd 4fe9 45bc 8d89 d3bd
00000180: 847d 9dbc 5b46 97bd 6e0c 05be 70fd 64bd
00000190: 9e5a c23d e96c 323e af88 dd3d 6d1b f73c
000001a0: b4cc debe 3a77 0f3d 0c0d a2bd 6976 71bd
000001b0: a6c4 23be c894 e3bd 5c19 bebd 003c 87bb
000001c0: 3cfd 25bd e051 83be 5e11 293e 7da2 9abc
000001d0: f053 0f3d e166 833c 07ce b9bd ed59 18be
000001e0: ce0f 963c 313a 8d3c af91 9cbc 888a 553d
000001f0: 262a 4abd bbd6 793d 950b 7b3e 6877 8b3e
00000200: b62f 883e c332 823c cff4 1d3d a34e f8bd
00000210: 6514 e63d d026 393d 42d7 60be 163e de3b
00000220: 43d2 2bbd 4331 593e bbc4 453c ccbd 43be
00000230: 0e3d 21be 0265 033e fc01 9b3d 36d3 04be
00000240: e261 8cbe 5a66 c2bc 411d 12bc 7dba 193c
00000250: b2d4 edaf 4b3f 59bd 488b 033e 7693 823d
00000260: 350e cf3e 2737 2d3e 1ef0 183e 13ef c3bd
00000270: 70b7 c73d 4c4d c83d b1ea 193e ec0d 3ebe
00000280: db83 203d e6ad 2a3e c2ec 433c b879 473e
00000290: 71c2 53be 5704 2abd 5a40 a8bd 0399 32bc
000002a0: 1732 083e dab3 5fbd 50dd 68bb 5993 5cbd
000002b0: 6a0b 1dbc 9f73 5e3d 09f0 6dbd a55c 00be
000002c0: a1a1 a3be 5c30 99bd 07f1 a63d fb9b 96bc
000002d0: f74f 4dbe d432 26be f0fd b3bd 5c12 333d
000002e0: ba52 ddbb 6956 a0be e03b dbbd e4cf e2bd
000002f0: fe46 813c fa11 2f38 6d70 60be 77cf 3e3b
00000300: 9974 3cbb e7b0 24bb 228a 2b2f 4870 4abc
00000310: d5b1 06bc ed2a d2bd 43e7 4dbd a6cd eb3c
00000320: 2d87 c3bc 1f68 c5bd 0801 39be 10ec 1abe
00000330: b89c 4ebe 871f e1bc e296 093d 8f4d b5bd
00000340: 972b d73d 335c 033e c079 423b 6767 04bd
00000350: 0f6d 65bd 3e18 633e 19f6 5d3e ae1d ff3d
00000360: 2275 acbc 0026 77bd f6e2 65bd 6a2e c63d
00000370: 79ca 490f 9de7 aa3b e7aa 90bd 1de6 8b3d
00000380: 8232 bebc 5752 c12d bce8 193e 14be 283e
00000390: 891d 093e c380 adbc ce54 e1bc 9f68 c2bb
000003a0: dc6e d93d fcc7 aabd f58a 93bd 6fb6 f4bc
000003b0: c2fe 4e3e cea2 6bbc e58a a3bd 8a6a 313d
000003c0: 4eb0 343c 8d47 5e3d 0bfd 98bc dca4 9b3e
000003d0: 94fe af3d 7009 863c 6d95 9e3d a6dc c73d
000003e0: 4d40 09be c6b7 cfbd 75ad 5380 f538 7534
000003f0: 1e03 90b8 2a53 613d 3dce 70b8 fe0f 0e3c
-0.037183337 -0.44295868 0.14230302 0.2028548 -2.2482098e-05 -0.059168104 -0.15973935 0.41570276
-0.005145325 0.14442366 -0.11564483 -0.105212115 0.046524335 0.10400692 -0.12267054 -0.31735218
-0.18221305 -0.10964418 -0.092144296 -0.20141657 -0.20461741 -0.18797474 -0.10693299 -0.011543508
0.13148952 -0.04332271 -0.025192196 0.16254169 0.6689991 0.55185336 -0.07427749 0.08681815
0.26917142 0.22712827 0.1182512 0.02041647 -0.079540454 0.083580345 0.012039486 -0.44013712
0.07701517 0.07150453 0.010904484 -0.1461976 0.18680252 -0.0038978246 0.081471175 -0.057542328
0.17595845 0.06092205 4.1030428e-38 2.6399835e-13 0.10987184 0.18317835 0.032848634 -0.0024983478
-0.038816344 0.15047468 0.13944767 0.0056714662 8.967608e-09 -0.03737622 0.01747696 -0.06816994
-0.024977231 0.0007586542 -0.10654329 0.030499673 -0.1477091 -0.052469864 -4.093795e-39 0.015305461
0.15763885 0.0935789 -0.0389925 -0.05142809 0.06815829 0.08439364 -0.024907636 0.042075284
-0.03354191 -0.23167105 -0.180602 -0.2931349 -0.07376376 0.025786836 -0.24300212 0.08697234
-0.21030794 -0.1295117 0.12885839 0.1586051 0.071977146 -0.12265609 -0.012079551 -0.1032897
-0.01922489 -0.07386466 -0.12993023 -0.05590576 0.0948994 0.17424358 0.10817086 0.030164445
-0.4351555 0.035025813 -0.07912645 -0.058950815 -0.15992984 -0.11112362 -0.09282181 -0.0041270256
-0.040524706 -0.25648403 0.16510531 -0.018876309 0.03499216 0.016040267 -0.090725 -0.14878054
0.018318083 0.017239662 -0.019112436 0.052134067 -0.049356602 0.0609958 0.24516137 0.27239537
0.265989 0.015893346 0.038563546 -0.12124374 0.11234359 0.04520303 -0.21957114 0.0067823036
-0.041948568 0.21210198 0.01207083 -0.1911537 -0.15745947 0.128315 0.07568738 -0.12971196
-0.2741843 -0.023730446 -0.0089181075 0.009382841 -4.3261178e-10 -0.053038877 0.128461 0.06375782
0.40440527 0.1691557 0.14935347 -0.09567084 0.09751785 0.09780368 0.15030934 -0.18559998
0.039188247 0.166679 0.011958303 0.19480026 -0.20679642 -0.041508045 -0.08215399 -0.010900739
0.13300358 -0.05461488 -0.0035532303 -0.05385146 -0.009585241 0.054309484 -0.058090243 -0.12535341
-0.3195925 -0.07479927 0.08151441 -0.018384924 -0.20050035 -0.16230327 -0.08788669 0.04371868
-0.0067542465 -0.31315926 -0.107047796 -0.11074808 0.015780922 4.1739993e-05 -0.21917887 0.0029115358
-0.002875602 -0.0025129856 1.5601434e-10 -0.0123558715 -0.008221109 -0.10262094 -0.050269376 0.028784584
-0.023868168 -0.09639 -0.180668 -0.15129113 -0.20176971 -0.027480854 0.03359116 -0.08852684
0.10506361 0.1282814 0.002967462 -0.032325175 -0.05601221 0.22177216 0.2167591 0.12456833
-0.021051947 -0.060338974 -0.05612465 0.096768215 9.94906e-30 0.0052155987 -0.07063847 0.06831
-0.023217443 2.1978126e-11 0.15030187 0.16478759 0.13390173 -0.021179562 -0.027506258 -0.005932882
0.10616848 -0.08338925 -0.07204238 -0.029872147 0.2021437 -0.014382077 -0.079854764 0.043314494
0.011028362 0.054267455 -0.018675348 0.30399215 0.08593479 0.016361922 0.077433445 0.09758882
-0.13403435 -0.10142474 -7.684571e-39 2.2838124e-07 -6.867036e-05 0.055010952 -5.7412533e-05 0.008670805

fc1.bias f4 [120]
00000000: 6590 90bd 6f3a 77bd b974 51b9 9ff8 20bc
00000010: 8929 9d3c 7313 0dbe 0522 923c 05f5 ad3d
00000020: 8eb3 1dbe c928 c6bc 4dc0 680f f8a8 c8bc
00000030: a815 35bd 2c2d 25bd bfb9 34bd 214c 2d3c
00000040: c8a0 7cbd 8ad7 cd8b 844e 863d 7995 1bba
00000050: da0b 7a81 e88e ecbc 2d31 17ba a0dd 7ebd
00000060: 649a 8bbd 2b99 a2b7 02c5 b7bd d632 c3bd
00000070: 61ff e3bd b4ba 14bd a468 f4bc 0faa bdbd
00000080: 898b ddbb 0812 023d 8fe1 3b3d e7dc fcbc
00000090: 7534 09bc c171 8cbb 36f2 a53a 50e2 e3bc
000000a0: f496 9fbd 254f 3413 d07f 2abd 9a22 7f00
000000b0: b739 7681 56ec 68bc ecb4 cc35 24d4 d43d
000000c0: d1d7 aabd 8238 8cbd 1188 f3bc d845 35bc
000000d0: 8c78 7d3c 8efb 1d3d eea4 49bd 7d16 f7bc
000000e0: cf2f 8bbc dc60 5d3d 38a4 e93c 8cb7 07be
000000f0: 3ff6 b1bd 815c 59bc 072e 8a3b b812 76bd
00000100: 5b40 1d3d 8b26 13bb 3009 ebbb 5e2f d6bd
00000110: 27ac 10bd 47f2 09bd 427f 8dbd 8422 99bc
00000120: 929e f73b 9460 b13c fc34 cebc ce45 a9b5
00000130: 6f65 3ebc a0df b039 4a40 bc3b 8448 b4bd
00000140: 4738 8bbc d967 c33d f087 b6bd a662 ee3c
00000150: 754a 81bd a1a2 86bd 6ea8 a8bd ecbc 8abd
00000160: 32b8 debd bd3e 36bb 3576 5a3d d6ba 943c
00000170: 3ccb d13b 7bcf 22bd bd94 813b 093f 6bbd
00000180: f235 eabb e840 5681 30e5 c2bc 26a3 d1bc
00000190: 6830 a63d a04f 86bc ecd3 10bd ebb0 cfbb
000001a0: f716 6bbc e2c9 30bb 22d2 ff3c cc82 62bc
000001b0: 20da 8ebd 89ea e3bb f7a7 2baa 5473 68bb
000001c0: 1059 7d8f ab10 a53d 25fc 4c3c 800e b0bc
000001d0: dccc 9601 95d1 67bd 75f0 34bc a925 7e3d
-0.07058791 -0.06035846 -0.00019975276 -0.009824901 0.019184845 -0.1377695 0.017838487 0.084939994
-0.15400526 -0.02418937 1.1475519e-29 -0.024494633 -0.044210106 -0.040326282 -0.044122454 0.010577233
-0.06167677 -7.9287435e-32 0.065579444 -0.0005935054 -4.592625e-38 -0.028876737 -0.00057675206 -0.062223077
-0.06816557 -1.938323e-05 -0.08973123 -0.095311806 -0.11132694 -0.036310866 -0.029835053 -0.09260952
-0.0067610187 0.031755477 0.045869406 -0.030867053 -0.008374323 -0.0042860215 0.0012660685 -0.027817875
-0.07792464 2.2758215e-27 -0.041625798 1.1675521e-38 -4.5224472e-38 -0.014216503 1.525184e-06 0.10392025
-0.08341945 -0.068467155 -0.029727967 -0.011064015 0.015470635 0.03856998 -0.049229555 -0.03016209
-0.01699057 0.05404745 0.028520688 -0.13253611 -0.08689546 -0.013266684 0.0042169127 -0.060076445
0.038391452 -0.0022453393 -0.007172726 -0.10458253 -0.035320427 -0.03367832 -0.06909038 -0.018693216
0.007556745 0.021652497 -0.02517175 -1.2611797e-06 -0.011620863 0.0003373595 0.0057449685 -0.08802894
-0.016994609 0.09541292 -0.08912647 0.029099774 -0.0631303 -0.06573988 -0.082352504 -0.06774315
-0.10874976 -0.002780839 0.053335387 0.018155497 0.0064024013 -0.03974865 0.0039544986 -0.057433162
-0.007147544 -3.935216e-38 -0.023790926 -0.02559049 0.081147015 -0.01639539 -0.035358354 -0.006338229
-0.014348737 -0.00269758 0.031228129 -0.01382513 -0.06975198 -0.006955449 -1.5246125e-13 -0.0035469132
-1.2491016e-29 0.0805982 0.012511288 -0.02149129 5.5395256e-38 -0.056596357 -0.011043658 0.062047634

fc2.weight f4 [84, 120]
00000000: 8d9a b23e 2357 a3bd 1d04 fe39 b35c 0d3d
00000010: d053 3fba 5651 cbbd 7f9b afbd e88f 91bd
00000020: e4f2 dc3e 37e8 4fbe d06d 5581 7f59 f4be
00000030: eeb8 46bc 346a 22bd 5459 f13d 9ab3 8bbd
00000040: b59c e03d 82f8 cb80 d558 0abe f7da 5f3d
00000050: e432 9d80 f7d8 983d bf62 eaba f4fb c5bc
00000060: 997b 2bbe 7bd2 14b6 7358 413e dd0f f4bd
00000070: 477d 5e3c 9955 38be 8739 503c d108 3e3e
00000080: 8594 babd 3e73 cd3e 70ce 94be 18f5 ffbd
00000090: 89bc 623c a3db 7ebc 22bb 103c 9878 883d
000000a0: 6679 c53e 3016 898d d7f2 fcbc e9fb 0083
000000b0: e307 439a 9a1b fc3c 9e5e 4480 12c0 7bbe
000000c0: 59c4 52bd 0192 393e 2f91 26be f4fc 27bc
000000d0: 79ef 5abe 37d3 a0bd 104d 2a3d 3363 a1bd
000000e0: 92a2 48bc 6636 88bc 2525 5bbc 3089 803e
000000f0: 8bd4 683d 3c04 66be 6047 08be 606d 61bd
00000100: 25e8 ba3d 0faf 02be 602f be3d f00c 133d
00000110: 5f36 47bc e039 8a3d 6b4b ed3d d2a3 44ae
00000120: 902e e9bd 85f0 ea3c 3a00 6e3d dfe2 73bc
00000130: 91f5 263c a821 df3b 1eec 4a3e 46bd 9f3d
00000140: c4e2 15be 7e63 a5be ba99 913d 38ad cdbd
00000150: bff7 c7bd 56bd 47bd 76cf 473e a712 09bc
00000160: 146c 053f d967 14be e621 30bc 9ec8 19bd
00000170: 2eb4 e8bd eb5d f3bc a14a adbd 4bdd c1be
00000180: fe3a 5d3d 5d5a a7a6 ea00 12be 90bd 833d
00000190: 6987 a03e 7d6d c53b b6cc 8cbd 697c 9abd
000001a0: d15c 41bd 7b90 0fbe 4d19 ca3d e1ce 243e
000001b0: 011f dbbc 21ae e2bd b5e3 333b aa75 283b
000001c0: f71f a610 ec60 ad3d 651c 1cbe 5c02 b73e
000001d0: f1b4 4001 b46e 92bb 8c02 edbc 1738 5ebe
000001e0: 5024 23be c2fb 183e 3e2a eab7 572a a33b
000001f0: 16de 0fbd 4221 133e 0eb5 86bd b99b a93e
00000200: f3ce a53c 8004 c63e d547 dfa8 de00 763d
00000210: fbe3 cebd 931d 8f3c c25e d4bd 25c7 f03e
00000220: 8e5f a3bd 4d48 01b3 cd13 5b3e db9e 91ba
00000230: 816d b8b5 1fb5 b93c 4d62 573d 4999 29be
00000240: c028 0c3d 211c 2cb9 10b5 46be 3b33 a63e
00000250: 580d 503c f71a 623e 2aeb a53c 6e23 903e
00000260: 0018 56bd cd0a d8bd e098 bd3c 18af 8fbd
00000270: 1511 413d c445 5f3c 03ff 2abc bd9e 9bbd
00000280: 355b babd 7f6c 8c13 2c6d 823d e85a 8c01
00000290: 01ba b82a 9a0f 0bbe a767 5933 bef1 a0bd
000002a0: e7d3 973c e155 9abd 8ab2 8a3d 5c43 15bd
000002b0: b93a 89be 1e08 a2be f3e9 5e3e 5ce8 ecbd
000002c0: 055b aabd 353d 08be 9bc6 973d 151c 59bd
000002d0: 59c2 bb3e 836d 1a3e 9431 3ebe bbca 0abe
000002e0: 686d 28be b14e c2be 8414 da3b d4f3 6a3e
000002f0: e906 6e3d 5eb8 f5bc 2cb9 72be 27f8 97bb
00000300: 586e 093e 5c32 f3bc d5be 11be 7cd3 223c
00000310: 13fa 55be 48dc afbd 5e41 93bd 3137 cdbe
00000320: 8e53 5fbe 800b 0e3d 4ba1 c13d 3c7f e2be
00000330: 4c8b 6d3e 2765 6b3e 152a dfbe 025c de3c
00000340: cfbf 1d3c f8b6 403e cb5e 22be e6cd 92bd
00000350: d7f1 7cbe 0945 89be 6170 b43d 8815 763e
00000360: cf13 c4bd d204 2535 cb64 bd3d 01b7 c6bc
00000370: bbba f73c 73e1 993c 4956 21be 898b 23bd
00000380: 4783 a1bc ce2d a8bd dfb5 8a3c a62f 493e
00000390: 5374 053e ea4c 22be cb01 d13a 9699 1d33
000003a0: a5d3 8b12 bf41 39be 4bae 7abd 1f32 083e
000003b0: 86ec 46bc cd71 9f3c 527f 463d f0ef 48ba
000003c0: 42bf bc3c 661c f7bc 147f 12b9 e782 0abc
000003d0: 8ec7 bf3e 4ef6 88bd b444 3f3e 57f8 393e
000003e0: c63c 6fbe 1645 fa3d 523a a481 a2d5 303e
000003f0: e721 80bd 832b babd c5e7 543d 53e6 8b3b
0.34883538 -0.079756044 0.0004844972 0.034512233 -0.0007298561 -0.09927623 -0.085745804 -0.07107526
0.4315406 -0.20303427 -3.9200708e-38 -0.4772453 -0.012129052 -0.039652064 0.11784616 -0.06821366
0.109673895 -1.8731754e-38 -0.13510449 0.05465218 -1.4436429e-38 0.07463258 -0.0017882212 -0.024167992
-0.16746368 -2.2176234e-06 0.18881397 -0.11917088 0.013579673 -0.18001403 0.012709028 0.1855805
-0.09110359 0.40126985 -0.2906375 -0.1249792 0.013838896 -0.015555295 0.008833678 0.066636264
0.38569182 -8.448618e-31 -0.030877514 -3.7905e-37 -4.0331426e-23 0.03077488 -6.278756e-39 -0.24584988
-0.051456783 0.18122102 -0.1626632 -0.01025318 -0.21380414 -0.07852786 0.0415774 -0.07880249
-0.012245791 -0.016627502 -0.013375555 0.25104666 0.05684332 -0.22462553 -0.13308477 -0.05503595
0.09126309 -0.12762092 0.0928638 0.03590101 -0.012158959 0.0674932 0.115866505 -4.4710742e-11
-0.11385834 0.028679142 0.058105685 -0.014885633 0.0101903835 0.006809432 0.19816634 0.07799773
-0.14637285 -0.3230247 0.07109399 -0.100428045 -0.09764051 -0.04876455 0.19512734 -0.0083662635
0.5211804 -0.1449274 -0.0107502695 -0.03754484 -0.113624915 -0.02970787 -0.084615 -0.37864146
0.054011337 -1.1612446e-15 -0.14258161 0.064326406 0.3135331 0.006025015 -0.06874983 -0.075432606
-0.047207657 -0.14019959 0.09868107 0.16094543 -0.026748182 -0.11068369 0.0027448956 0.00257049
6.5524705e-29 0.08465752 -0.15245207 0.35743988 3.539465e-38 -0.0044687632 -0.028931879 -0.21701084
-0.15931821 0.14939788 -2.7914644e-05 0.0049794125 -0.035123907 0.14368156 -0.06577502 0.3312662
0.020240283 0.38675308 -2.4789126e-14 0.06005942 -0.101020776 0.017470157 -0.10369636 0.47026935
-0.0797721 -3.010091e-08 0.21394272 -0.0011109965 -1.3740938e-06 0.022669373 0.05258398 -0.1656238
0.03421855 -0.00016413677 -0.19405007 0.3246096 0.012698494 0.22080599 0.020253737 0.2815203
-0.052268982 -0.10548935 0.023144186 -0.07015818 0.04713543 0.013627473 -0.010436776 -0.07598636
-0.090994276 3.5447954e-27 0.06368479 5.155832e-38 3.2814032e-13 -0.1358017 5.061852e-08 -0.07858609
0.01853366 -0.07535911 0.06772335 -0.036441192 -0.26802614 -0.31646818 0.21768932 -0.115677565
-0.08318142 -0.13304599 0.07410928 -0.053005297 0.36671713 0.15080838 -0.185736 -0.13553898
-0.16447985 -0.37950662 0.0066552777 0.22944576 0.05811206 -0.02999514 -0.2370345 -0.0046377364
0.13420999 -0.0296871 -0.14232953 0.009938117 -0.20896177 -0.08586937 -0.07190202 -0.4008117
-0.21809217 0.034678936 0.09454592 -0.44237697 0.23197669 0.22987805 -0.43586794 0.027143482
0.00962825 0.18819797 -0.15856473 -0.07168178 -0.2470163 -0.26810482 0.08810497 0.24031651
-0.09574091 6.1474304e-07 0.0924774 -0.024257185 0.030240407 0.01878426 -0.15755571 -0.039927993
-0.019715918 -0.082118616 0.016932426 0.19647083 0.13032655 -0.15849653 0.0015945969 3.6694097e-08
8.824308e-28 -0.18091486 -0.061201375 0.1330037 -0.0121413525 0.019463444 0.048461266 -0.0007665148
0.023040418 -0.030164909 -0.00013970985 -0.008454061 0.37456936 -0.06687604 0.18678552 0.1816114
-0.23363027 0.12220208 -6.032777e-38 0.17268994 -0.06256466 -0.090903305 0.051978845 0.0042694

fc2.bias f4 [84]
00000000: 55f2 36bd f084 8d3c 7169 dd3d 00ab 1b8a
00000010: a9ce 9f3d 8ce6 a6bc 79a6 873c d9c5 febd
00000020: 309c dcb9 1ea6 6dbd 8f36 dc3c 101f 81bd
00000030: 427f 51bd 44f4 4bbd 5a42 cabc 53f5 17bc
00000040: 12eb 3a3b 743c 0eae 0b54 1bbd 75b0 85bc
00000050: 477d 49bb 86e0 1fbe bd66 7c01 3026 203d
00000060: 9e5c 3a3c bffd b23c db6a 45bd 5574 4b3e
00000070: c9a9 0cbd addd 8e3c e80d 18bc 7d1d 553d
00000080: 2792 023e 12d6 0c3d 86a6 f73c ec50 8bbd
00000090: 414c 80bb 2a4c 1dbd bf28 8dbd 6ea9 2b23
000000a0: 53f6 73bc 9b33 f23d 315a 65bc f9d1 21be
000000b0: ef0c 8481 743b 4dbd 89ba 03ba 9763 70bd
000000c0: 4b37 cfbd 8a5f 12bd e3fe b6bc fc10 03bd
000000d0: 421c deb4 65d9 80ba e886 8e3c 0da0 5ebd
000000e0: 5348 bebb ddc5 ebb9 2d7f 12bc 6bfd 0c3d
000000f0: 168e fcbc c9d8 9dbc 95c4 3b3d 12af 453d
00000100: 9b01 0e3d 3431 333d 5462 f0bd 8048 b7bc
00000110: ec46 b9bd 37e7 95bd 43cc 0f3b 5fee 89bc
00000120: d2ee 4c3e 09fd afbd 4b95 203d 5d98 543d
00000130: feff baba b1df 9fbb abe9 803d 58eb 82bc
00000140: ead0 82bc a727 0cbd 7869 cfbc 4931 5139
-0.0446647 0.017275304 0.10811127 -7.49514e-33 0.07803089 -0.020373605 0.016558873 -0.1244008
-0.0004207804 -0.05801975 0.026881484 -0.06304753 -0.051146753 -0.049793497 -0.024689842 -0.009274798
0.002852146 -3.2340755e-11 -0.037921946 -0.016319493 -0.0030744837 -0.15612993 4.63588e-38 0.03909892
0.011374621 0.021849511 -0.04819761 0.19868596 -0.034341607 0.017439688 -0.009280659 0.052030075
0.12751065 0.03438384 0.030230772 -0.06802544 -0.00391534 -0.038402714 -0.06892537 9.305807e-18
-0.014890271 0.11826249 -0.013998554 -0.15802754 -4.85077e-38 -0.050105527 -0.00050250493 -0.058688726
-0.10117968 -0.035735644 -0.022338336 -0.03199862 -4.1371283e-07 -0.0009830414 0.017398313 -0.054351855
-0.0058069616 -0.00044970113 -0.008941454 0.034421366 -0.03082947 -0.01926841 0.045841772 0.048262663
0.0346695 0.043748096 -0.117375046 -0.022373438 -0.090467304 -0.07319491 0.0021941818 -0.016837297
0.20012978 -0.085931845 0.039204877 0.051903117 -0.0014266965 -0.004878961 0.06294569 -0.015981361
-0.015968759 -0.034217503 -0.025318846 0.00019950153

fc3.weight f4 [10, 84]
00000000: 77f4 ccbe 5744 cabe 6599 bfbd 43d3 2300
00000010: 6910 8d3e 1c96 8dbc a0ad 00be 81e1 303e
00000020: dec6 833b 3021 333d b6b1 8c3e ea4f 7ebd
00000030: 111a bb3d 96e0 afb8 cb2a cd3e 291d 58be
00000040: 4011 623e 0134 fbbc e50d 1ebd 0c94 a03d
00000050: aef7 8c3d af76 d5bd 7760 a000 affe 94bd
00000060: b587 683d ff65 fc3c 07f7 8f3b 17d5 87be
00000070: 0fee d33d 3e14 5abe 0a1d 973d 0a1b c3be
00000080: 4fd5 c7be 201a 96be cfd6 953c 65b7 6b3e
00000090: 5663 4bbc a846 24bd 4119 6e3e 0509 06b4
000000a0: baa9 2cbe a0cc c8bd a55d eabd bd8c 643e
000000b0: 656f b801 07e4 90bd 0954 053e 02f7 1fbe
000000c0: be4a 1e3e 8ad8 e7be 3905 5dbe 6229 59bc
000000d0: cdba cc3c 8db9 34bd c1a5 c83c f168 86be
000000e0: 715b 4dba e08f d030 7ed5 67be 0444 48be
000000f0: f507 6fbd 8636 c83e 76bf 9e3d 52ca 1dbd
00000100: 9033 0e3e 0509 81bd 34f7 61bd bc38 4dbd
00000110: 01eb 263e 0a13 26bd 9e51 bd3e 05d8 d0be
00000120: 9b96 07bf 5764 003d e93e 07be f5ee 85be
00000130: 7754 8a3d 3c4e e0bd 1d57 56be 9eb0 44bb
00000140: b324 bdbd 8689 85bc b0cf 38bc f2e2 6abc
00000150: 2758 42bd 736a 23be 904b 873e 0bf4 728f
00000160: 2a32 dfbd 58cc 70bd dba2 89bd c7ee f23d
00000170: d208 dd3b ff2e aa3e 5088 89be c88f 633e
00000180: d94a fdbd 8400 39be 6f02 513e 5f01 73bb
00000190: 0b71 7abe cc9a bca7 b9c0 af3c 418a 9e3b
000001a0: 0922 f73d 94b9 2b3c f65f 4580 ef51 d7bd
000001b0: d79b 9dbe 4b1e 31bd cff5 613d bba3 1f3e
000001c0: edc4 21b7 6893 4cbb d79a aebc 80ce d3bb
000001d0: cdf5 8bbe 0dc2 b93d 6279 1bbe 6b82 9dbe
000001e0: 7f19 7bbc f43e 1fbc ccc2 8cbe dc68 9194
000001f0: 0f0a 473e 31b1 1e3e d300 ddbd 23d9 36bd
00000200: 6863 2000 3d17 16bd a8fa ab3c f469 7fbe
00000210: 2fd9 d5bd 7457 ed3c 8d08 803d 8ca2 733d
00000220: fba2 7838 dace 4c3d 773d ce3e 8c49 01be
00000230: 3bc6 973c fdde 8f3b f78d 823e 0945 d1bd
00000240: 7dcd 0b3f 174c e53e 0dd6 a3be 4e7f 85bc
00000250: a505 f63d 52cc 35be 1cc5 97bd 7823 eabc
00000260: 76a0 453e 1d1c 86be 9c82 00bd d60c 74bd
00000270: 6f3f 213e 1adf 463d 8f83 503e d454 84be
00000280: 5946 61bd e664 87bd 3bea 54be 0e7c c8bc
00000290: 7afe ad3e f8b0 84bd 09a4 46bd d39d 9c3e
000002a0: 9b55 a6be 2911 12be f1a0 923e e81a 860a
000002b0: 7348 263d cfe2 5b3b f782 c43e 24cd d7bc
000002c0: f11b bdbc e6a0 49be 8c98 253e b2be b5bd
000002d0: 15d7 cf3d 2cc8 b53e 43f6 923d 43f4 f43d
000002e0: 247f a23b 73f9 463a 695a 86bc 7ec3 1a3f
000002f0: 3d7b 843d eb53 11be 4640 2481 3398 963d
00000300: 41b0 93be 565b 523d 91de 5cbc 708c 1e3e
00000310: 10fa 193d 5ef7 6bbe ce8c 393c 92c4 793e
00000320: 4a97 5ebe 128f 153e 256e 06be d551 933c
00000330: 0146 5d3d d1ac 623e 7fac a6be 9f54 8a9d
00000340: 9c7f 5abe a7e9 033e b4d0 33bb 105f debd
00000350: 4c53 d939 dc3e e4bc ea3e 1d3f 4649 203e
00000360: e2ab 1bbe 3184 16bd dc39 0dbe 3caf 0abd
00000370: 138c b63b 782e 76be 2fbb ccbd 746b d8bd
00000380: 360d c31b c55d 923b 9c3a 973e 9810 8fbe
00000390: f554 4cbe 3977 363e cca6 eebd 73a1 1ebd
000003a0: 006e 2abe c683 ef3e 3aba ff3c 59c2 503d
000003b0: 20f8 d0be 8b83 9abd be4e 573e 03ed 4bbe
000003c0: 8e8e a7be fe0e d1bd 81cf 183e 650e 083e
000003d0: 92ac 993c 5c33 a93b 5a92 34be ff89 8b3d
000003e0: 7e53 eebd 5b86 b13c 3ac8 b2ba 2f58 06bf
000003f0: f8f2 d43d 515f 7ebe 72b3 a9be c400 280e
-0.40030262 -0.39505264 -0.093554296 3.290029e-39 0.27551582 -0.017283492 -0.12566233 0.17273523
0.0040215096 0.043732822 0.27479333 -0.06208793 0.09135831 -8.386483e-05 0.4007171 -0.21104874
0.22076893 -0.030664446 -0.03858747 0.07840738 0.06883179 -0.10423028 1.4728284e-38 -0.072751395
0.056770045 0.030810354 0.0043934616 -0.26529762 0.103481404 -0.21296784 0.07378586 -0.38106567
-0.3902993 -0.29316807 0.018290905 0.23019178 -0.01241382 -0.040106446 0.23251821 -1.2483004e-07
-0.1686162 -0.09804654 -0.114436425 0.22319312 6.775077e-38 -0.07074743 0.13020338 -0.1562157
0.154582 -0.45282394 -0.21584024 -0.013254495 0.024991417 -0.044122268 0.0244931 -0.2625194
-0.0007833755 1.5174884e-09 -0.22640035 -0.19557196 -0.058357198 0.39104098 0.07751362 -0.038523026
0.13886857 -0.063005485 -0.055167392 -0.050102934 0.16300584 -0.0405455 0.3697633 -0.4078981
-0.5296418 0.03134569 -0.13207592 -0.26158872 0.06754392 -0.10952422 -0.20931669 -0.0030012499
-0.092355154 -0.016300928 -0.011279985 -0.014336335 -0.04744735 -0.15958576 0.26424837 -1.1978522e-29
-0.1089824 -0.058788627 -0.06720515 0.118619494 0.006745436 0.3323898 -0.2686181 0.22222817
-0.12367792 -0.18066603 0.20411085 -0.0037079675 -0.24457185 -5.2348313e-15 0.021454202 0.0048382585
0.120670386 0.010481257 -6.371074e-39 -0.105136745 -0.3078296 -0.04324178 0.055166062 0.15589802
-9.642198e-06 -0.003121579 -0.021314068 -0.0064638257 -0.2733597 0.090702154 -0.15183023 -0.30763564
-0.015325903 -0.009719599 -0.27492368 -1.4682618e-26 0.19437431 0.1549728 -0.10791173 -0.04464067
2.974396e-39 -0.036643256 0.020993546 -0.24942762 -0.10441815 0.028972365 0.06251631 0.05948119
5.9279595e-05 0.050001957 0.4028127 -0.12625712 0.01852714 0.004390596 0.25498936 -0.102182455
0.54610425 0.44784614 -0.31999245 -0.016296055 0.12012795 -0.17753723 -0.074106425 -0.028581366
0.19299492 -0.26193324 -0.03137456 -0.059582554 0.15746854 0.04855261 0.20362686 -0.2584597
-0.05499873 -0.06611042 -0.20792477 -0.024473216 0.33983213 -0.064790666 -0.04849628 0.3058916
-0.32487187 -0.14264359 0.28638414 1.2913852e-32 0.040596437 0.0033551937 0.38381168 -0.026342936
-0.023084613 -0.19690284 0.16171473 -0.08874263 0.101484455 0.35504282 0.07175877 0.11960652
0.004959004 0.00075902714 -0.016400533 0.6045455 0.06468818 -0.14192168 -3.0168157e-38 0.073532484
-0.2884541 0.051356636 -0.013480798 0.1548326 0.037591994 -0.23043582 0.011325074 0.24391392
-0.217374 0.14605358 -0.13127954 0.017983356 0.05402184 0.22136237 -0.3255348 -3.661579e-21
-0.21337742 0.128821 -0.002743763 -0.108579755 0.00041451526 -0.027862005 0.61424124 0.15652952
-0.15202287 -0.03674716 -0.13791603 -0.033858523 0.0055708974 -0.24041164 -0.0999664 -0.1056737
3.226858e-22 0.0044667446 0.29536903 -0.27942348 -0.19954284 0.17818917 -0.11652908 -0.03872819
-0.16643524 0.46780223 0.03121673 0.050966594 -0.40814304 -0.07544621 0.21026132 -0.19914632
-0.32725948 -0.10207938 0.14922906 0.13286741 0.018759046 0.005163593 -0.17633954 0.0681343
-0.116370186 0.021670511 -0.0013639994 -0.5247831 0.10397905 -0.24841048 -0.33144718 2.0707967e-30

fc3.bias f4 [10]
00000000: 7ab6 b9bd effe a9bb dcac 423d e528 5e3d
00000010: 6349 98bd 4744 1bbe 9ae5 b6bd 1878 213d
00000020: 39c1 ae3e e820 a5bc
-0.09068008 -0.005187861 0.047528133 0.05423822 -0.074358724 -0.15162764 -0.08930512 0.03942117
0.34131792 -0.020157292
